cifar_net.pth (torch, 72411 bytes, 14 tensors)

conv1.weight f4 [6, 3, 5, 5]
-0.14665598 0.4834784 -0.40288657 -0.59333605 0.59086704 -0.022458708 -0.019522812 -0.37852594
-0.1892722 0.35759842 -0.8561052 -1.3680159 0.022275519 -0.06487849 -0.7467832 0.28798586
-0.07157264 0.20528127 -0.16308214 -0.090714514 -0.039673895 0.36647156 -0.16717394 -0.017684354
0.617028 -0.10024878 0.6301142 -0.35663882 -0.6358039 0.18134779 0.49307123 0.5082952
0.11543633 -0.005639688 0.4531243 -0.18379934 -0.47409335 0.59225774 0.35844827 -0.6556268
0.94482356 0.57153106 0.60686046 0.014642451 -0.09833516 0.27546865 0.4436675 -0.19189076
-0.26091462 0.19582887 -0.53894 0.25782785 -0.47400692 -0.46452403 0.49905953 0.09340592
0.18661334 -0.16887447 0.197607 0.60069907 -0.49640653 -0.8342438 0.31292027 0.23650023
-0.5959601 0.42793402 0.21060012 0.3299064 -0.05728735 -0.14783418 -0.2516732 0.010675915
-0.4361371 -0.4593785 0.055201437 0.4595161 0.068954945 0.12283973 0.2252323 0.20973754
0.37423754 -0.20069231 -0.07358381 0.3953287 -0.36112303 0.14593197 -0.35761657 0.0135165015
0.35304552 -0.35223806 -0.03886217 -0.5056963 -0.09700072 0.18631066 -0.16998872 -0.15008813
-0.4087197 -0.15318485 -0.117235735 -0.058996074 -0.13857521 -0.53944695 -0.51928246 -0.3348657
-0.5681612 -0.03747612 -0.27093244 0.06120401 0.006291871 -0.6063819 0.105992936 -0.29523176
0.2214196 0.21304485 -0.5584027 -0.14234243 -0.1939309 0.116368026 0.24888162 -0.36297193
0.21137461 0.05272163 0.17401984 0.08223633 -0.1391149 0.011400833 -0.07999296 -0.04636751
0.1120941 -0.07565341 0.081324525 -0.22525337 0.26082838 0.47747806 -0.13235033 0.02284428
-0.23824061 0.13316996 0.42547327 -0.34112898 -0.027089743 -0.41247475 -0.043808416 0.13249686
-0.12058992 0.12691022 -0.08758913 0.20347895 0.19630234 -0.067975365 -0.39539245 -0.4100927
-0.37033603 -0.4345584 -0.21957284 -0.5335587 -0.44843906 -0.69029635 -0.62166727 -0.46348846
-0.41301352 -0.60912436 -0.54236954 -0.5300738 -0.4168484 0.17078151 0.02456627 0.03719301
0.22732218 0.2388938 0.39335808 0.49814138 0.46216083 0.45626453 0.5034496 0.04716442
0.13640647 0.2550231 0.27306843 0.0788597 0.09283753 0.19786614 0.35116223 0.2574803
0.28938907 -0.095286585 -0.13081585 -0.037397802 -0.13693285 -0.27404147 0.09721776 0.17682986
0.055531338 -0.10190764 -0.0061438824 0.117651656 0.082206406 0.028408742 -0.15644562 -0.2502193
0.27924225 0.5525741 0.59391683 0.41426677 0.22036134 0.5009051 0.6730979 0.6894796
0.5622769 0.4330034 0.17621534 0.30695817 0.18887782 0.29367325 0.10654823 0.080575846
0.13641638 0.058052685 -0.13117033 -0.23163344 -0.3225161 -0.46636772 -0.38560253 -0.586631
-0.6424339 0.20033012 0.22216398 0.07545116 -0.19245021 -0.24516043 0.24033816 -0.19112323
-0.43697566 -0.24611852 0.012433377 -0.23059003 -0.3016219 -0.08884062 -0.0655552 -0.13381141
-0.11628395 0.0712783 0.179989 0.28193846 -0.05433966 0.12989964 0.105789825 0.08869075
-0.049353037 0.04418717 -0.12947081 0.13382587 -0.077000566 -0.13225412 -0.14617148 -0.0199831
00000000: fc2c 16be 7b8a f73e 2647 cebe dfe4 17bf
00000010: 1043 173f 53fb b7bc 4eee 9fbc 27ce c1be
00000020: 92d0 41be 2417 b73e b629 5bbf 251b afbf
00000030: 267b b63c 04df 84bd 2f2d 3fbf e272 933e
00000040: ad94 92bd 4135 523e 01ff 26be 88c8 b9bd
00000050: 1881 22bd 29a2 bb3e a52f 2bbe c7de 90bc
00000060: 8cf5 1d3f 3b4f cdbd 2a4f 213f 5d99 b6be
00000070: 0bc4 22bf 3cb3 393e d573 fc3e a21f 023f
00000080: e269 ec3d 22cd b8bb e9ff e73e e535 3cbe
00000090: 5dbc f2be 349e 173f 8886 b73e 28d7 27bf
000000a0: f5df 713f dc4f 123f 355b 1b3f e4e6 6f3c
000000b0: f263 c9bd 3a0a 8d3e 6328 e33e 037f 44be
000000c0: 9a96 85be 5d87 483e f9f7 09bf 0302 843e
000000d0: 09b1 f2be 18d6 edbe bb84 ff3e 9a4b bf3d
000000e0: 9117 3f3e 6eed 2cbe 7d59 4a3e 6ac7 193f
000000f0: ff28 febe 0091 55bf 1637 a03e 1e2d 723e
00000100: d790 18bf 2b1a db3e 8fa7 573e 7ee9 a83e
00000110: 24a6 6abd d861 17be 4fdb 80be 08ea 2e3c
00000120: 5d4d dfbe a933 ebbe e71a 623d b245 eb3e
00000130: 4038 8d3d 6593 fb3d 4ca3 663e 70c5 563e
00000140: 109c bf3e 4982 4dbe 1cb3 96bd 8668 ca3e
00000150: 1ee5 b8be 316f 153e 8519 b7be 5174 5d3c
00000160: 62c2 b43e 8c58 b4be f02d 1fbd 5075 01bf
00000170: 50a8 c6bd 39c8 3e3e 8611 2ebe b4b0 19be
00000180: b543 d1be 7ddc 1cbe 4a19 f0bd dea5 71bd
00000190: a9e6 0dbe 3219 0abf b2ef 04bf 8473 abbe
000001a0: 0373 11bf 8f80 19bd a8b7 8abe 0eb1 7a3d
000001b0: 0a2c ce3b d83b 1bbf d312 d93d 9e28 97be
000001c0: d2bb 623e 6e28 5a3e 7bf3 0ebf 37c2 11be
000001d0: d295 46be 5c52 ee3d d3da 7e3e 75d7 b9be
000001e0: 9672 583e a3f2 573d 4232 323e 856b a83d
000001f0: 2374 0ebe 8fca 3a3c 59d3 a3bd dceb 3dbd
00000200: 9791 e53d 2df0 9abd 798d a63d d2a8 66be
00000210: 4c8b 853e 0178 f43e d886 07be ed23 bb3c
00000220: 59f5 73be b55d 083e a2d7 d93e 75a8 aebe
00000230: 4feb ddbc e42f d3be 7470 33bd 42ad 073e
00000240: d9f7 f6bd c1f4 013e ee61 b3bd c95c 503e
00000250: 7b03 493e ab36 8bbd e170 cabe acf7 d1be
00000260: af9c bdbe 707e debe b4d7 60be 4e97 08bf
00000270: ce99 e5be 43b7 30bf 9625 1fbf 5c4e edbe
00000280: 8276 d3be 93ef 1bbf bbd8 0abf ebb2 07bf
00000290: 276d d5be 59e1 2e3e 343f c93c b357 183d
000002a0: 25c7 683e 94a0 743e 3b66 c93e 630c ff3e
000002b0: 58a0 ec3e 819b e93e 13e2 003f 7b2f 413d
000002c0: 23ae 0b3e 6392 823e a0cf 8b3e 3281 a13d
000002d0: 9a21 be3d 6c9d 4a3e 89cb b33e 75d4 833e
000002e0: ce2a 943e 9d25 c3bd 97f4 05be 702e 19bd
000002f0: 2038 0cbe 2a4f 8cbe 1b1a c73d e312 353e
00000300: d474 633d f4b4 d0bd 9f52 c9bb 5af3 f03d
00000310: d55b a83d 73b9 e83c 4833 20be be1c 80be
00000320: d7f8 8e3e 7f75 0d3f ef0a 183f c61a d43e
00000330: 67a6 613e 513b 003f 2550 2c3f bc81 303f
00000340: 61f1 0f3f 9fb2 dd3e cb71 343e 9f29 9d3e
00000350: 3069 413e 575c 963e f535 da3d f304 a53d
00000360: bcb0 0b3e a7c8 6d3d 8451 06be 5131 6dbe
00000370: d520 a5be c0c7 eebe b26d c5be 732d 16bf
00000380: 8c76 24bf 5723 4d3e f47e 633e 2386 9a3d
00000390: ab11 45be 560b 7bbe 351b 763e cfb5 43be
000003a0: 46bb dfbe 7e06 7cbe 5db5 4b3c cb1f 6cbe
000003b0: 306e 9abe 12f2 b5bd ce41 86bd dc05 09be
000003c0: 4826 eebd 5bfa 913d 094f 383e 3d5a 903e
000003d0: 4393 5ebd 6904 053e 56a8 d83d 7fa3 b53d
000003e0: 6926 4abd 9bfd 343d ff93 04be a609 093e
000003f0: 79b2 9dbd a06d 07be faad 15be 99b3 a3bc

conv1.bias f4 [6]
0.21832906 -0.5826912 0.42885724 0.041810807 -0.13174433 -0.3671117
00000000: a791 5f3e 402b 15bf 2d93 db3e cf41 2b3d
00000010: fce7 06be 11f6 bbbe

conv2.weight f4 [16, 6, 3, 3]
-0.17033206 -0.13637048 -0.14766783 -0.28984433 -0.23062862 -0.07515294 -0.32802096 -0.0973718
0.020382868 -0.3480137 -0.26806962 -0.24680692 -0.3424062 -0.34013796 -0.14801386 -0.35201776
-0.48120824 -0.20992698 0.11774001 0.30385843 0.4292216 -0.12784457 0.03265781 0.14057344
-0.35176468 0.06292771 0.44212398 0.2174288 0.28835365 0.20564674 -0.12099412 0.104459666
0.31101903 -0.17002386 0.059668522 0.10408717 0.38771293 0.01794314 -0.17884196 0.16582112
0.2056629 0.039940342 -0.18914865 0.16335142 -0.11846379 0.119954 0.2857207 0.042390995
0.35877836 0.052144844 0.07798648 0.15054931 0.13042933 0.0772114 -0.13670059 0.0762802
0.29569742 -0.42153552 -0.37556744 -0.11673817 -0.27376875 -0.6052712 -0.16093253 -0.07000407
-0.12814061 -0.13538562 -0.18551035 -0.041068304 0.19962032 -0.17893243 -0.102984495 0.24077256
0.071837954 -0.27493656 -0.14713612 0.24964073 -0.0945498 -0.21768086 0.15985282 0.26435244
0.19595022 -0.18032834 0.31086898 0.06127094 -0.13408025 -0.08022182 0.24701165 0.050616894
-0.02751431 0.29279858 0.23279732 0.5736988 0.24841893 -0.3969486 0.11373859 0.4896704
-0.0691532 -0.33238512 0.24392506 -0.16237031 -0.3317541 0.0969978 -0.269439 -0.42905572
0.06642677 -0.39483568 -0.33738434 -0.09369852 -0.28676164 -0.3640777 -0.074139826 -0.23949203
-0.08387745 0.32952088 -0.08511244 0.3128089 0.12596102 -0.12165679 -0.04721635 -0.12371539
0.048285596 -0.101312995 0.12383392 0.273713 0.021079583 -0.10451125 0.26539463 -0.10362618
-0.19356816 -0.19784988 -0.36850092 0.03762602 -0.37060624 -0.15609886 0.16614294 -0.42150483
-0.14085838 0.41387665 -0.23055954 0.4093714 0.25433478 0.05421953 0.27014408 -0.3990539
0.19685996 0.18580623 -0.2262425 0.17703888 -0.17829113 -0.3243289 0.11513706 -0.5803686
0.04692972 0.19096608 0.31473884 0.010828753 0.2737453 -0.36828822 -0.31073833 -0.07889415
-0.40837094 -0.07775482 0.3247089 0.34878126 0.25976965 0.072030336 -0.025489109 -0.17707862
-0.15657404 -0.1406595 -0.165789 0.21935432 0.26101524 -0.037733342 0.076399356 -0.023560846
-0.34102765 -0.26622617 -0.13098484 -0.3177094 0.18635999 0.2808434 0.1947836 -0.11209724
-0.09865473 -0.44283366 -0.2742336 -0.3278092 -0.122659534 0.16683735 0.32407594 0.32688105
0.17139544 0.1956393 0.046844076 0.46799913 0.39500248 -0.24163157 -0.07895083 -0.07558316
-0.07012164 -0.33114123 -0.4223046 -0.46101314 -0.6940586 -0.66559577 -0.4286118 0.19885492
0.19182213 -0.042861126 -0.06160056 -0.27184197 -0.15690897 -0.19900271 -0.31068692 -0.018650508
0.03555781 -0.110230416 -0.12506577 -0.12993857 -0.11412056 -0.06675324 -0.5081399 0.060779497
0.16513021 -0.1410746 -0.34972122 -0.02446189 -0.12695208 0.14392263 0.18297404 0.14088255
0.44100353 0.27114353 -0.1218234 0.23155639 0.35372618 -0.14713916 0.19581407 -0.19896919
-0.029261334 -0.015839124 -0.17785887 0.14767346 -0.21777906 -0.39870384 -0.2549044 -0.16111788
-0.14415878 -0.14749421 0.42238435 -0.12405807 -0.3711037 -0.08810218 0.12125793 0.24877986
00000000: 876b 2ebe b4a4 0bbe 3c36 17be 7a66 94be
00000010: e929 6cbe c9e9 99bd 5df2 a7be de6a c7bd
00000020: f9f9 a63c da2e b2be 6c40 89be f4ba 7cbe
00000030: de4f afbe 9026 aebe f290 17be ac3b b4be
00000040: ed60 f6be 19f7 56be ad21 f13d 5593 9b3e
00000050: efc2 db3e b0e9 02be 32c4 053d 7cf2 0f3e
00000060: 801a b4be 3ee0 803d 135e e23e a8a5 5e3e
00000070: 17a3 933e 0f95 523e c4cb f7bd f3ee d53d
00000080: e33d 9f3e bc1a 2ebe fb66 743d a72b d53d
00000090: 4f82 c63e 7efd 923c 5922 37be 03cd 293e
000000a0: 4c99 523e 7c98 233d 2fb0 41be 9845 273e
000000b0: 259d f2bd 71aa f53d fc49 923e 2ea2 2d3d
000000c0: ccb1 b73e d595 553d 60b7 9f3d 9929 1a3e
000000d0: 448f 053e 0321 9e3d 3dfb 0bbe cb38 9c3d
000000e0: a765 973e 81d3 d7be 604a c0be 6c14 efbd
000000f0: 6b2b 8cbe 0ef3 1abf 7fcb 24be 4b5e 8fbd
00000100: 4b37 03be 87a2 0abe 6df6 3dbe 3d37 28bd
00000110: 4569 4c3e 103a 37be 89e9 d2bd 158d 763e
00000120: c71f 933d 7cc4 8cbe daaa 16be d2a1 7f3e
00000130: 53a3 c1bd bbe7 5ebe 75b0 233e 3459 873e
00000140: 2da7 483e fea7 38be 382a 9f3e 3df7 7a3d
00000150: 554c 09be 564b a4bd 9ff0 7c3e a953 4f3d
00000160: b165 e1bc b2e9 953e 6c62 6e3e eddd 123f
00000170: 8861 7e3e d93c cbbe c7ef e83d 14b6 fa3e
00000180: 31a0 8dbd 622e aabe 7ec7 793e 6744 26be
00000190: acdb a9be c8a6 c63d e9f3 89be 31ad dbbe
000001a0: c20a 883d e727 cabe a4bd acbe 02e5 bfbd
000001b0: 6cd2 92be 6468 babe 9fd6 97bd 663d 75be
000001c0: f1c7 abbd f6b6 a83e 6e4f aebd 7d28 a03e
000001d0: edfb 003e 3227 f9bd ee65 41bd 7f5e fdbd
000001e0: 1ec7 453d 307d cfbd a39c fd3d 1c24 8c3e
000001f0: 17af ac3c ff09 d6bd cee1 873e f639 d4bd
00000200: bb36 46be 2999 4abe 27ac bcbe be1d 1a3d
00000210: 1ac0 bdbe 61d8 1fbe 6021 2a3e 7bcf d7be
00000220: 2e3d 10be a4e7 d33e cd17 6cbe 2199 d13e
00000230: 2b38 823e 4c15 5e3d 5350 8a3e cb50 ccbe
00000240: a895 493e fd43 3e3e 1dac 67be ae49 353e
00000250: f391 36be 700e a6be fbcc eb3d 0993 14bf
00000260: 6139 403d 9d8c 433e 7325 a13e 156b 313c
00000270: 5828 8c3e 4690 bcbe 1819 9fbe 4293 a1bd
00000280: ff15 d1be eb3d 9fbd 3f40 a63e 7593 b23e
00000290: 8700 853e a484 933d 89ce d0bc 1954 35be
000002a0: f254 20be 0b09 10be 97c4 29be 6b9e 603e
000002b0: caa3 853e 478e 1abd 4477 9c3d ad02 c1bc
000002c0: 2d9b aebe cc4e 88be e420 06be ceaa a2be
000002d0: 27d5 3e3e b5ca 8f3e 5a75 473e 3d93 e5bd
000002e0: 7e0b cabd 18bb e2be 5968 8cbe 9cd6 a7be
000002f0: ec34 fbbd 69d7 2a3e 48ed a53e f45c a73e
00000300: 4982 2f3e ab55 483e 93df 3f3d 959d ef3e
00000310: c43d ca3e 446e 77be f9b0 a1bd 58cb 9abd
00000320: ef9b 8fbd 588b a9be 4f38 d8be ea09 ecbe
00000330: d3ad 31bf 7c64 2abf 0173 dbbe a0a0 4b3e
00000340: 056d 443e 268f 2fbd de50 7cbd df2e 8bbe
00000350: bfac 20be 5ec7 4bbe 5b12 9fbe f3c8 98bc
00000360: 11a5 113d 7cc0 e1bd 3e11 00be 9e0e 05be
00000370: 0ab8 e9bd ecb5 88bd 7515 02bf ecf3 783d
00000380: e517 293e dc75 10be a90e b3be 4d64 c8bc
00000390: baff 01be 7460 133e 8c5d 3b3e 8443 103e
000003a0: 37cb e13e 53d3 8a3e 8c7e f9bd 1e1d 6d3e
000003b0: 991b b53e a6ab 16be 7c83 483e 94be 4bbe
000003c0: 77b5 efbc 0dc1 81bc a320 36be b637 173e
000003d0: 7901 5fbe e922 ccbe d482 82be 16fc 24be
000003e0: 5c9e 13be b908 17be c342 d83e 2812 febd
000003f0: 4e01 bebe ea6e b4bd 1456 f83d 26c0 7e3e

conv2.bias f4 [16]
-0.19469519 0.012316999 0.21007995 0.18634309 -0.43852934 -0.6220946 1.260721 0.6744852
-0.45343336 -0.06141233 -0.69824845 0.6925138 -0.21929173 0.16439635 0.023886703 -0.1444261
00000000: 2d5e 47be 3dcd 493c 331f 573e b9d0 3e3e
00000010: eb86 e0be 9741 1fbf 4e5f a13f 10ab 2c3f
00000020: 6b28 e8be 7f8b 7bbd 69c0 32bf 9648 313f
00000030: 038e 60be 8457 283e 0cae c33c 70e4 13be

conv3.weight f4 [32, 16, 3, 3]
-0.08282865 0.11831418 0.1718886 -0.011258544 0.05647322 -0.0667314 0.095732704 -0.099676885
-0.08215478 0.03576991 -0.100812584 0.02450282 0.07727256 0.020994766 -0.20427082 -0.12854521
-0.36684075 -0.37401894 0.06213629 0.056720678 0.15095979 0.27545947 0.25253835 0.14066073
0.17859213 0.090086125 0.3060033 0.02914165 0.038423795 -0.23367615 0.17197892 0.0048215254
0.07808594 -0.1214565 0.021472147 -0.028764158 0.0147532895 0.04885664 -0.06281131 -0.15258275
0.12297881 0.16772535 0.38473165 0.43918622 0.29878366 -0.07849676 0.035644177 0.071088105
-0.1135612 -0.117728524 -0.019286644 -0.07753714 -0.074024536 0.09813328 0.102880366 0.14719245
-0.026211776 0.08922051 -0.018152976 -0.034048017 -0.023659829 -0.0051775454 -0.02969073 -0.040366936
0.05723516 -0.022189641 -0.03187464 -0.08092958 -0.05456732 0.09748111 0.14896578 -0.06532008
-0.13993444 -0.06184982 -0.08156223 -0.2744777 -0.2505682 -0.16722775 -0.24527976 -0.21520738
-0.098210916 0.051782448 -0.032097176 -0.0548919 0.005032527 -0.03330959 0.04977429 -0.15538545
0.04352484 -0.028296895 -0.31683525 -0.14882952 -0.036711235 -0.04368124 0.08747672 0.113508075
0.109166436 0.30106282 0.3609634 -0.116596095 0.037876476 0.07183684 0.029235238 -0.024293331
0.061157823 0.21525586 -0.1422457 -0.10547218 -0.16661963 -0.12110806 -0.10724863 -0.26744103
-0.298772 -0.28539476 -0.26727483 -0.3993291 -0.121648505 -0.19363856 -0.15141885 0.033258934
-0.3363878 -0.3848523 -0.17797181 -0.40980354 -0.34589836 -0.117342986 -0.066214934 0.06346292
0.18084382 0.004376187 0.1581322 0.19312686 0.046141654 0.06904082 0.18869887 -0.18028544
-0.061558772 -0.15299436 0.009074893 0.00036232814 -0.09593918 0.06846396 0.026553303 0.094254084
0.33419353 0.06876302 0.12128319 -0.06038265 -0.16246632 -0.00024879645 -0.19263664 -0.17136802
0.066313714 0.14743434 0.1666775 -0.05931719 0.05602042 -0.036604375 -0.06844683 -0.22275497
-0.053221047 -0.3090081 0.11779808 -0.02166309 -0.0044055604 0.011021608 -0.09461133 -0.052100364
0.10115135 -0.16392699 -0.1732123 0.21001536 -0.1747114 -0.07242423 -0.010315777 -0.33539155
0.09622368 0.13218741 -0.33487156 -0.1758472 -0.11828293 -0.011051199 0.23387063 -0.07866395
0.0062918696 0.10482315 -0.22341788 -0.123292774 -0.2721131 0.039508354 -0.29757133 0.16685465
0.03674803 -0.40433437 0.47300088 0.15938981 -0.34740275 0.21978143 -0.06113166 0.13176692
-0.02525156 0.12934318 -0.06152961 -0.052123375 0.029671041 0.049381554 -0.11149528 0.062197413
-0.25722045 -0.016196635 0.08145472 -0.064312525 -0.031576693 0.15296991 0.058493346 0.18563984
-0.07259967 0.037364013 0.12513353 -0.0630539 -0.47381213 -0.37837946 -0.12684828 -0.17721117
0.07305127 0.0032163018 -0.024328526 -0.119687 0.114086166 0.056043345 -0.053000018 0.01665876
0.0068877176 -0.035551883 0.25006172 -0.0925926 -0.21488138 -0.06318929 -0.2260118 -0.19335318
-0.1716893 -0.17818858 -0.22885773 0.10443267 0.10832199 0.15604702 -0.31145605 -0.20346941
0.055206202 -0.25868526 -0.23273781 0.20833173 0.14491224 0.23896484 -0.037012413 0.12254725
00000000: 11a2 a9bd b44e f23d 9103 303e c275 38bc
00000010: 7750 673d 79aa 88bd 820f c43d 6523 ccbd
00000020: c440 a8bd 7883 123d d476 cebd 23ba c83c
00000030: 1341 9e3d 37fd ab3c 5f2c 51be 5ba1 03be
00000040: 8dd2 bbbe 697f bfbe 9f82 7e3d f153 683d
00000050: 3495 1a3e 0609 8d3e b54c 813e 5e09 103e
00000060: dbe0 363e 137f b83d 77ac 9c3e 78ba ee3c
00000070: 4562 1d3d cd48 6fbe 3e1b 303e e3fd 9d3b
00000080: 85eb 9f3d 2fbe f8bd 5be6 af3c d0a2 ebbc
00000090: c8b7 713c e61d 483d 37a3 80bd a73e 1cbe
000000a0: 50dc fb3d 32c0 2b3e 8cfb c43e 04dd e03e
000000b0: 2cfa 983e e9c2 a0bd a1ff 113d a496 913d
000000c0: c692 e8bd a71b f1bd 06ff 9dbc cbcb 9ebd
000000d0: 2d9a 97bd 1afa c83d f1b2 d23d 9eb9 163e
000000e0: 14ba d6bc 3eb9 b63d 8db5 94bc ef75 0bbd
000000f0: 42d2 c1bc 66a8 a9bb f939 f3bc cd57 25bd
00000100: 6a6f 6a3d 0dc7 b5bc fc8e 02bd 68be a5bd
00000110: fb81 5fbd 2da4 c73d 7c8a 183e 89c6 85bd
00000120: f94a 0fbe 3d56 7dbd 190a a7bd 5788 8cbe
00000130: 7a4a 80be c03d 2bbe 9e2a 7bbe 535f 5cbe
00000140: ce22 c9bd d519 543d 5478 03bd 54d6 60bd
00000150: e5e7 a43b a36f 08bd 20e0 4b3d 5d1d 1fbe
00000160: 1a47 323d e4ce e7bc 3b38 a2be c466 18be
00000170: 855e 16bd 1aeb 32bd ff26 b33d ec76 e83d
00000180: a792 df3d e824 9a3e 32d0 b83e efc9 eebd
00000190: 5d24 1b3d 311f 933d bd7e ef3c cf02 c7bc
000001a0: a080 7a3d 086c 5c3e dba8 11be cc01 d8bd
000001b0: 569e 2abe 8107 f8bd 2ba5 dbbd 08ee 88be
000001c0: a5f8 98be 431f 92be 3fd8 88be dd74 ccbe
000001d0: da22 f9bd 3049 46be 8b0d 1bbe 853a 083d
000001e0: 063b acbe 5c0b c5be 3e3e 36be c5d1 d1be
000001f0: 9719 b1be 8551 f0bd b29b 87bd d9f8 813d
00000200: 1f2f 393e 1e66 8f3b 68ed 213e 0cc3 453e
00000210: 08ff 3c3d 4665 8d3d 473a 413e bf9c 38be
00000220: 0d25 7cbd 8eaa 1cbe dcae 143c dcf6 bd39
00000230: c37b c4bd d536 8c3d 5086 d93c 4908 c13d
00000240: 6a1b ab3e a0d3 8c3d 5263 f83d cc53 77bd
00000250: 925d 26be e570 82b9 8a42 45be 197b 2fbe
00000260: 7ccf 873d 07f9 163e 82ad 2a3e 95f6 72bd
00000270: ab75 653d 78ee 15bd da2d 8cbd e119 64be
00000280: 50fe 59bd 4f36 9ebe 1f40 f13d cb76 b1bc
00000290: 855c 90bb f993 343c 96c3 c1bd 3167 55bd
000002a0: 7028 cf3d 7adc 27be 915e 31be 440e 573e
000002b0: 8ce7 32be 2853 94bd 8103 29bc 71b8 abbe
000002c0: ec10 c53d 235c 073e 4974 abbe 4a11 34be
000002d0: 523e f2bd 1710 35bc c87b 6f3e 911a a1bd
000002e0: 072c ce3b 85ad d63d a8c7 64be ec80 fcbd
000002f0: 6952 8bbe 83d3 213d 455b 98be f2db 2a3e
00000300: 1a85 163d ea04 cfbe 2c2d f23e 1537 233e
00000310: c6de b1be 620e 613e 3165 7abd e8ed 063e
00000320: 5cdc cebc 8a72 043e 7906 7cbd 527f 55bd
00000330: af10 f33c 5044 4a3d a357 e4bd b7c2 7e3d
00000340: 66b2 83be ceae 84bc bbd1 a63d 49b6 83bd
00000350: 9056 01bd 25a4 1c3e b896 6f3d 5f18 3e3e
00000360: 23af 94bd 020b 193d 0123 003e 6722 81bd
00000370: 8197 f2be f4ba c1be 84e4 01be d876 35be
00000380: e79b 953d 97c8 523b 9e4c c7bc 751e f5bd
00000390: 02a6 e93d b58d 653d 8c16 59bd f477 883c
000003a0: 5db2 e13b da9e 11bd 1708 803e 30a1 bdbd
000003b0: dd09 5cbe 6369 81bd a36f 67be 60fe 45be
000003c0: 52cf 2fbe 1177 36be ae59 6abe cce0 d53d
000003d0: ebd7 dd3d caca 1f3e 2b77 9fbe 495a 50be
000003e0: e61f 623d 6572 84be d252 6ebe ea54 553e
000003f0: e063 143e 33b3 743e 549a 17bd 0dfa fa3d

conv3.bias f4 [32]
0.0064358306 -0.088771194 0.13844627 -0.24717633 -0.2109924 -0.40565664 0.23689729 0.50432295
0.23305689 0.09911847 0.51350266 0.2423454 0.20910956 -0.3001551 -0.069912545 0.25213036
0.17726555 0.059756935 0.19004019 0.10494851 0.02757064 0.062158253 -0.066636816 0.15168002
-0.19543906 -0.26920688 0.18499458 -0.06430463 -0.13422652 -0.52361387 0.446221 0.40520883
00000000: a9e3 d23b accd b5bd dcc4 0d3e cb1b 7dbe
00000010: 640e 58be 3ab2 cfbe 3495 723e 4f1b 013f
00000020: 77a6 6e3e a0fe ca3d e974 033f 6429 783e
00000030: d120 563e eead 99be 4f2e 8fbd 3b17 813e
00000040: 1a85 353e b0c3 743d e599 423e 3fef d63d
00000050: d3db e13c a799 7e3d e278 88bd 0252 1b3e
00000060: 2d21 48be 7cd5 89be 386f 3d3e 25b2 83bd
00000070: ad72 09be 8f0b 06bf 1477 e43e 8877 cf3e

fc1.weight f4 [64, 128]
-0.11955838 0.053348277 0.06386247 -0.06766615 -0.013698743 0.03029183 0.12860453 0.0010336002
-0.045312107 -0.010710618 -0.014186066 -0.038540583 -0.08274828 -0.01344492 0.0061092544 -0.16419174
-0.095033996 0.18391524 -0.018986398 -0.18108977 0.055364948 -0.028376764 -0.05805765 -0.06365137
0.13997501 -0.11460825 -0.3040575 0.25375816 -0.20922866 0.07943477 0.0060423315 0.04502465
-0.052570943 0.063946314 0.001016876 0.075010166 -0.023877569 -0.0637037 0.06322302 0.22229071
-0.081058726 0.00351755 -0.18240397 0.17744966 0.057558782 -0.04092059 -0.17485543 0.07198386
0.17556238 -0.049748518 -0.073723495 -0.11703251 0.18658918 0.049522728 -0.09496777 0.15055712
0.17209713 -0.034875825 0.05917336 -0.017670246 -0.029577065 -0.041113663 0.13908164 -0.024953507
0.13908029 -0.14983863 0.13310054 0.008001847 0.01216381 -0.04313708 -0.10254545 -0.1721205
-0.037286486 -0.11017224 -0.24744451 -0.12801315 -0.08855769 -0.15486147 -0.096657574 -0.24734554
0.23185833 0.028558139 -0.019138329 0.04278332 -0.019327795 0.070050925 -0.029635908 -0.058545817
-0.11709452 -0.003978047 -0.20216802 -0.12093345 0.0368679 -0.13760942 -0.013964566 0.011026313
-0.023589075 -0.12421779 -0.0140217375 0.08874155 0.079920195 0.14718227 -0.033608288 -0.044496097
0.04254067 0.12727164 0.11301961 0.14405304 0.07652783 0.0107858535 0.013175024 -0.024277294
0.10735081 0.050757598 0.01207093 -0.117617235 -0.014827136 0.060516823 0.0029967646 0.053314745
-0.024734939 -0.011364218 -0.035261936 0.108059846 -0.12207736 0.060341675 0.04239546 0.07805891
0.010614806 0.014838343 0.0004056686 -0.04153735 0.06307712 -0.15047471 0.13714582 -0.03430368
0.01634459 0.112504885 -0.09230401 0.016051833 0.038087398 -0.09918011 -0.07550669 0.11136772
-0.012822157 0.07639786 0.035171773 -0.101488054 -0.07239149 -0.18004377 0.016257398 -0.042648822
0.007750138 -0.0792316 -0.02060345 0.123770654 -0.25764665 -0.09682327 0.017264988 0.06324942
-0.07097276 0.07356836 -0.016561467 -0.12032836 -0.008173417 -0.020664763 0.15404826 -0.05358977
-0.10194577 0.007762294 -0.091709495 0.0584454 0.019754106 -0.02870947 -0.06368085 0.020050427
-0.09278079 0.08236857 0.019263584 0.07530787 -0.074274376 -0.01984573 -0.00037816525 0.11355358
-0.06472356 0.030110529 -0.109012075 0.05734038 0.00620719 0.01215538 -0.14979838 0.037070878
0.10056807 0.049376242 0.00768239 -0.08451862 -0.034345385 -0.10749963 0.098114915 0.084440745
-0.029146682 0.029770646 0.05293073 0.020111421 0.09751429 0.08000148 -0.15325117 -0.08382295
0.10850618 0.038747177 0.042176805 -0.11108585 0.022866577 -0.047042042 -0.035226557 -0.09785381
-0.033475637 0.07076782 0.031595178 0.0006681102 -0.096554354 -0.18707123 0.09799684 -0.016797995
0.19218294 -0.0091510005 0.058883432 0.0128799435 -0.03254253 0.09014598 -0.053180747 0.026794707
-0.01656032 -0.07216508 0.1334547 0.20270143 0.13444272 0.064190775 -0.030107984 0.041928887
-0.045562416 0.0044402317 0.07035229 0.12170414 0.04366593 0.18944614 -0.13754682 0.021712648
-0.12631668 0.04199907 -0.031211333 0.045508143 -0.19424215 -0.08340926 -0.00836182 -0.04781309
00000000: 06db f4bd b983 5a3d 54ca 823d 8d94 8abd
00000010: b170 60bc 9226 f83c e8b0 033e de79 873a
00000020: 3099 39bd 977b 2fbc ac6c 68bc bbdc 1dbd
00000030: ee77 a9bd 1548 5cbc 2430 c83b e121 28be
00000040: 2fa1 c2bd 4754 3c3e 5d89 9bbc 996f 39be
00000050: 5bc6 623d 6376 e8bc dccd 6dbd a65b 82bd
00000060: 9c55 0f3e bbb7 eabd 6dad 9bbe 97ec 813e
00000070: 0a40 56be b2ae a23d c0fe c53b c46b 383d
00000080: a154 57bd 49f6 823d b248 853a ee9e 993d
00000090: e49a c3bc 1677 82bd 127b 813d 2da0 633e
000000a0: 1e02 a6bd b286 663b 1bc8 3abe 5db5 353e
000000b0: c2c2 6b3d 599c 27bd 4d0d 33be 466c 933d
000000c0: a0c6 333e 1ac5 4bbd 58fc 96bd beae efbd
000000d0: 3c11 3f3e 58d8 4a3d 767e c2bd a52b 1a3e
000000e0: 3b3a 303e f4d9 0ebd c45f 723d 31c1 90bc
000000f0: 9a4b f2bc cd66 28bd 6b6b 0e3e 4c6b ccbc
00000100: 106b 0e3e 4c6f 19be 824b 083e 2e1a 033c
00000110: b84a 473c 82b0 30bd 5903 d2bd 5b40 30be
00000120: b7b9 18bd fca1 e1bd 1862 7dbe e115 03be
00000130: bc5d b5bd 0194 1ebe 68f4 c5bd 2648 7dbe
00000140: 456c 6d3e c2f2 e93c fcc7 9cbc 903d 2f3d
00000150: 5355 9ebc dc76 8f3d 01c7 f2bc bdcd 6fbd
00000160: 40cf efbd 475a 82bb 2205 4fbe f5ab f7bd
00000170: cc02 173d 7ce9 0cbe a3cb 64bc b5a7 343c
00000180: e03d c1bc e665 febd 6ebb 65bc 21be b53d
00000190: 33ad a33d f3b6 163e d8a8 09bd 8a41 36bd
000001a0: 203f 2e3d 7f53 023e d376 e73d a482 133e
000001b0: 9fba 9c3d 26b7 303c 0edc 573c 2de1 c6bc
000001c0: beda db3d 33e7 4f3d 26c5 453c 4ee1 f0bd
000001d0: 84ed 72bc 7de0 773d 5e65 443b 9060 5a3d
000001e0: eda0 cabc fc30 3abc d26e 10bd 7b4e dd3d
000001f0: b203 fabd d528 773d dda6 2d3d 5add 9f3d
00000200: b9e9 2d3c 851c 733c ebaf d439 1123 2abd
00000210: 942e 813d 0b16 1abe f46f 0c3e 0482 0cbd
00000220: 17e5 853c f668 e63d e309 bdbd 227f 833c
00000230: 8801 1c3d f11e cbbd 40a3 9abd c214 e43d
00000240: 0614 52bc 7b76 9c3d 4710 103d f8d8 cfbd
00000250: fd41 94bd 655d 38be 3c2e 853c 88b0 2ebd
00000260: dff4 fd3b 2d44 a2bd 91c8 a8bc 787b fd3d
00000270: 43ea 83be 474b c6bd 4e6f 8d3c e988 813d
00000280: 2b5a 91bd 02ab 963d eaab 87bc b76e f6bd
00000290: cce9 05bc 2649 a9bc d4be 1d3e f280 5bbd
000002a0: f2c8 d0bd d75a fe3b 30d2 bbbd 7264 6f3d
000002b0: 5dd3 a13c 1f30 ebbc 1b6b 82bd cb40 a43c
000002c0: db03 bebd dab0 a83d aace 9d3c 033b 9a3d
000002d0: 2a1d 98bd 8393 a2bc 7b44 c6b9 c88e e83d
000002e0: c98d 84bd 5baa f63c b941 dfbd bfdd 6a3d
000002f0: af65 cb3b 5c27 473c bf64 19be a2d7 173d
00000300: a2f6 cd3d be3e 4a3d 8fbc fb3b 1918 adbd
00000310: bfad 0cbd c428 dcbd 79f0 c83d 45ef ac3d
00000320: 06c5 eebc 92e1 f33c e5cd 583d b5c0 a43c
00000330: 92b5 c73d d1d7 a33d e0ed 1cbe 5eab abbd
00000340: 7d38 de3d 5cb5 1e3d 96c1 2c3d fa80 e3bd
00000350: b052 bb3c 28af 40bd b949 10bd 9467 c8bd
00000360: c01d 09bd b8ee 903d f269 013d 1e24 2f3a
00000370: 4abe c5bd 9a8f 3fbe 91b2 c83d f39b 89bc
00000380: 9bcb 443e 14ee 15bc c12f 713d 6606 533c
00000390: 514b 05bd 759e b83d 0ed4 59bd 9380 db3c
000003a0: 82a9 87bc 49cb 93bd 59a8 083e f790 4f3e
000003b0: 5aab 093e 7476 833d 05a5 f6bc a0bd 2b3d
000003c0: a89f 3abd 5d7f 913b dd14 903d 0540 f93d
000003d0: 0cdb 323d 2bfe 413e 13d9 0cbe b9de b13c
000003e0: 2959 01be 3807 2c3d e9ae ffbc bf66 3a3d
000003f0: 6ae7 46be 79d2 aabd 0400 09bc a9d7 43bd

fc1.bias f4 [64]
-0.058272477 0.045371663 -0.1795455 0.347672 0.19940989 -0.3933305 0.05836323 -0.10201618
0.10585758 0.0178231 -0.036358904 0.07390089 -0.08559002 -0.08460691 0.103124164 -0.051052965
0.45329764 0.16023496 -0.040002882 0.13546696 0.18881465 0.035576843 0.28183225 -0.05127572
0.16323133 -0.07183223 -0.015461844 -0.057904463 0.3166033 0.19821167 0.59996194 0.34396508
-0.09111565 0.021897437 0.07113305 -0.0358053 -0.007282162 0.09171112 -0.00691543 0.16833861
0.21755345 0.031437017 0.01289511 0.16616115 0.5380457 -0.16980962 -0.3415819 -0.013453586
0.049569443 0.085366 0.11172225 0.021108385 -0.10526646 -0.376405 0.10004522 0.036188733
-0.11663587 -0.25749394 0.11056845 0.006209316 -0.07846353 -0.060083404 0.03196171 0.078662686
00000000: 1faf 6ebd a3d7 393d c7da 37be 1002 b23e
00000010: 1b32 4c3e 9e62 c9be 480e 6f3d dced d0bd
00000020: dccb d83d c001 923c 13ed 14bd 5a59 973d
00000030: d249 afbd 6346 adbd c332 d33d ea1c 51bd
00000040: a116 e83e a214 243e 10da 23bd dab7 0a3e
00000050: a158 413e 06b9 113d 514c 903e 7d06 52bd
00000060: 1d26 273e c71c 93bd ad53 7dbc 3b2d 6dbd
00000070: d419 a23e 00f8 4a3e 1b97 193f 311c b03e
00000080: d89a babd 4162 b33c 34ae 913d 94a8 12bd
00000090: 349f eebb 0ad3 bb3d d59a e2bb f560 2c3e
000000a0: 55c6 5e3e 1ac4 003d 0346 533c 2626 2a3e
000000b0: 5dbd 093f 93e2 2dbe d3e3 aebe 6e6c 5cbc
000000c0: 5409 4b3d 5fd4 ae3d a3ce e43d 7eeb ac3c
000000d0: f195 d7bd 28b8 c0be 82e4 cc3d a33a 143d
000000e0: c9de eebd 3fd6 83be b671 e23d 8577 cb3b
000000f0: 7db1 a0bd 041a 76bd 48ea 023d e719 a13d

fc2.weight f4 [32, 64]
0.030351283 0.029454483 -0.2630591 -0.09770062 -0.096795924 0.19045958 0.17910443 -0.08467869
-0.23902099 -0.11625565 0.026050402 -0.27523616 0.1398733 0.016709745 -0.05792923 0.0072954027
0.1438095 -0.008321455 0.103132606 -0.043192606 -0.078711666 -0.1329616 0.2983441 -0.2804926
-0.23294097 -0.026754819 -0.016320767 0.060324203 0.034426574 -0.12374191 0.113926336 -0.043414187
0.029893966 -0.070583895 -0.05784507 0.062356442 -0.11742873 -0.103852 -0.0013822045 0.15968686
0.037585277 0.0447659 0.05278752 -0.08993496 -0.24723178 -0.107820265 -0.22500117 0.084696315
0.18361524 -0.07719457 -0.00046487106 0.08243756 -0.2014276 0.10485255 -0.072421774 -0.16412227
-0.0024900176 0.16633907 0.18819208 0.14461571 -0.12035801 -0.046605725 -0.0137298545 -0.05112052
-0.0281035 0.053161133 -0.055060104 0.14120226 0.009408707 -0.011673266 -0.10210553 -0.12573412
-0.24887162 -0.033520043 -0.065286 -0.12365929 -0.047233786 -0.06917624 -0.15936594 0.09244724
0.08754073 0.029179268 -0.1517622 0.07629555 -0.27253655 -0.10632537 0.067221075 -0.26900387
-0.21987747 0.119012386 0.2426473 0.11057262 -0.15233424 0.08529723 0.24812746 0.31317747
0.23780455 0.025584193 0.038396116 -0.00043498582 -0.02600006 0.007076347 -0.04800105 -0.04683417
-0.13858293 0.12471964 -0.13630122 0.04697415 0.19287464 -0.059209194 -0.24139172 -0.0788362
0.055380225 -0.07855941 -0.08898967 0.00746923 0.03792277 -0.13061844 -0.070749514 -0.08142652
-0.00963222 -0.08914824 0.13536417 0.119647145 -0.1305195 -0.15347503 7.825516e-05 -0.012926299
0.017295761 -0.031570595 -0.16846967 0.101335995 0.050106082 -0.10087996 0.03911484 -0.07660772
0.15734327 0.061635252 -0.11387613 0.117321186 -0.07479396 0.01521467 0.00023368096 0.1274719
0.21999604 0.012014243 0.033760224 -0.04713165 -0.05268254 0.11153371 0.15676382 -0.037524972
0.13166326 -0.075284176 -0.014462432 -0.061637614 -0.02116587 -0.087991774 -0.23966871 0.044571135
-0.024459723 0.06872967 -0.14606273 0.017256135 -0.1405826 -0.0430651 0.060238373 -0.045713227
0.120609045 -0.09693811 -0.0061826846 -0.17537017 -0.05984879 -0.0038374336 0.14348608 0.24689738
-0.1947431 -0.078918554 -0.0096500795 -0.018300747 -0.039599992 -0.112663314 -0.030779509 -0.087745406
-0.001331526 0.17990734 0.13758698 0.011876863 0.06528083 -0.01071722 -0.13510829 -0.07619125
-0.05652836 -0.002507267 -0.07571098 -0.12315079 -0.003605352 0.090282686 0.002082805 0.11355527
0.07575865 -0.050446033 0.12282274 -0.07546256 -0.018636776 0.0985463 -0.12437887 0.11993112
-0.12271863 -0.07676264 -0.113719694 0.0016866844 -0.08820717 -0.084449604 -0.03574973 -0.12573147
-0.020304315 -0.061697982 -0.052113585 -0.061797965 0.0042458437 0.05188753 -0.03112296 -0.08302182
-0.11278842 -0.055682804 -0.11549361 0.07252646 0.0859761 0.014692174 -0.10931759 -0.13643616
-0.025470365 0.06608624 0.060346324 -0.06642442 -0.02554028 0.04632497 0.039019633 -0.035848413
0.06944301 0.041138165 0.0558548 0.028024869 -0.03717654 -0.03334713 -0.09879169 -0.03242055
-0.093200564 -0.09336808 -0.08313138 -0.044492595 -0.1093341 0.06713157 0.09434279 0.004731591
00000000: 41a3 f83c 874a f13c afaf 86be 4317 c8bd
00000010: f13c c6bd d607 433e 2767 373e 056c adbd
00000020: ebc1 74be 7117 eebd a767 d53c c1eb 8cbe
00000030: f23a 0f3e e0e2 883c 3347 6dbd 460e ef3b
00000040: cc42 133e b656 08bc 3037 d33d bbea 30bd
00000050: 9533 a1bd 1627 08be 8fc0 983e ba9c 8fbe
00000060: 1488 6ebe ec2c dbbc 21b3 85bc 8316 773d
00000070: e102 0d3d 666c fdbd 3652 e93d 13d3 31bd
00000080: 31e4 f43c 4a8e 90bd f4ee 6cbd 7869 7f3d
00000090: 797e f0bd 5bb0 d4bd 162b b5ba f484 233e
000000a0: 05f3 193d 735c 373d ba37 583d d22f b8bd
000000b0: 542a 7dbe dfd0 dcbd b566 66be 4375 ad3d
000000c0: a205 3c3e 3018 9ebd f0b9 f3b9 06d5 a83d
000000d0: 0943 4ebe efbc d63d de51 94bd ab0f 28be
000000e0: 902f 23bb ca54 2a3e 6db5 403e 2416 143e
000000f0: 437e f6bd a5e5 3ebd 2ff3 60bc c063 51bd
00000100: 5039 e6bc 7dbf 593d b486 61bd 5397 103e
00000110: fa26 1a3c 3a41 3fbc b41c d1bd 72c0 00be
00000120: 34d8 7ebe 504c 09bd abb4 85bd 1541 fdbd
00000130: 3778 41bd 46ac 8dbd d330 23be fb54 bd3d
00000140: 8e48 b33d 5c09 ef3c 8d67 1bbe d740 9c3d
00000150: e989 8bbe 1ec1 d9bd 34ab 893d e0ba 89be
00000160: 8f27 61be c4bc f33d 8978 783e e673 e23d
00000170: 82fd 1bbe 50b0 ae3d 2015 7e3e cc58 a03e
00000180: 0983 733e f195 d13c 3f45 1d3d cf0e e4b9
00000190: 14fe d4bc b3e0 e73b c09c 44bd 30d5 3fbd
000001a0: afe8 0dbe 036d ff3d 8c92 0bbe f767 403d
000001b0: ee80 453e 5785 72bd 642f 77be e074 a1bd
000001c0: 60d6 623d c2e3 a0bd 3740 b6bd 71c0 f43b
000001d0: e854 1b3d d7c0 05be 1fe5 90bd f3c2 a6bd
000001e0: 75d0 1dbc 5a93 b6bd e89c 0a3e 9009 f53d
000001f0: e7a6 05be 8f28 1dbe eb1c a438 d4c8 53bc
00000200: d7af 8d3c 2b50 01bd 5083 2cbe 3f89 cf3d
00000210: 093c 4d3d 279a cebd e236 203d 82e4 9cbd
00000220: 981e 213e 3f75 7c3d e337 e9bd 1746 f03d
00000230: 932d 99bd f446 793c 4108 7539 fe87 023e
00000240: a446 613e 63d7 443c 2948 0a3d 1e0d 41bd
00000250: a6c9 57bd c96b e43d b286 203e c9b3 19bd
00000260: bcd2 063e 972e 9abd d6f3 6cbc b977 7cbd
00000270: 0c64 adbc 0835 b4bd b76b 75be 3990 363d
00000280: c25f c8bc 24c2 8c3d 7891 15be bd5c 8d3c
00000290: e3f4 0fbe 0865 30bd 83bc 763d cb3d 3bbd
000002a0: e001 f73d 7d87 c6bd 1e98 cabb 3d94 33be
000002b0: 0124 75bd 747d 7bbb 04ee 123e abd2 7c3e
000002c0: bc6a 47be 0da0 a1bd 5e1b 1ebc 73eb 95bc
000002d0: 9a33 22bd 06bc e6bd 4f25 fcbc ddb3 b3bd
000002e0: 9986 aeba a139 383e 9ae3 0c3e 2d97 423c
000002f0: f5b1 853d 4797 2fbc d459 0abe 280a 9cbd
00000300: 488a 67bd f650 24bb 5c0e 9bbd 7b36 fcbd
00000310: c547 6cbb 21e6 b83d ab7f 083b aa8f e83d
00000320: 5a27 9b3d 80a0 4ebd 7d8a fb3d 1d8c 9abd
00000330: 27ac 98bc a4d2 c93d 59ba febd 729e f53d
00000340: e853 fbbd bb35 9dbd dfe5 e8bd bd13 dd3a
00000350: f6a5 b4bd eaf3 acbd 4f6e 12bd c0bf 00be
00000360: 3c55 a6bc 06b7 7cbd 0e75 55bd dd1f 7dbd
00000370: b820 8b3b 0588 543d 94f5 febc 5807 aabd
00000380: 9dfd e6bd a713 64bd ea87 ecbd c188 943d
00000390: 3d14 b03d 72b7 703c e7e1 dfbd ecb5 0bbe
000003a0: 3aa7 d0bc 3958 873d b52d 773d 8709 88bd
000003b0: d939 d1bc 40bf 3d3d 0dd3 1f3d c9d5 12bd
000003c0: 2338 8e3d 7e80 283d 01c8 643d 6994 e53c
000003d0: 6d46 18bd 0097 08bd 4c53 cabd 69cb 04bd
000003e0: f0df bebd c437 bfbd c940 aabd de3d 36bd
000003f0: 8eea dfbd 477c 893d cb36 c13d 760b 9b3b

fc2.bias f4 [32]
0.006781137 0.5742732 -0.02339089 0.038038217 0.5100622 0.71362174 0.72808886 -0.08780091
-0.1601641 -0.033027947 0.057024788 0.18067557 0.07366067 0.7146739 0.16966645 0.25355175
0.5484964 -0.0969585 0.051546637 0.26619467 -0.18837816 0.0014741875 0.30478585 0.18019883
0.6768382 0.4009077 0.09826059 0.54869854 -0.16965999 -0.15437095 0.37680662 -0.05974691
00000000: 4d34 de3b 9203 133f 409e bfbc f6cd 1b3d
00000010: 7093 023f eaaf 363f 0864 3a3f f7d0 b3bd
00000020: 0f02 24be 5048 07bd d392 693d 0403 393e
00000030: 68db 963d def4 363f 0bbd 2d3e 89d1 813e
00000040: 436a 0c3f 2e92 c6bd 9122 533d ab4a 883e
00000050: 34e6 40be 8639 c13a e40c 9c3e 0b86 383e
00000060: 4545 2d3f c643 cd3e d93c c93d 8277 0c3f
00000070: 59bb 2dbe 6b13 1ebe ccec c03e 2db9 74bd

fc3.weight f4 [16, 32]
0.2743703 0.3255362 0.09621584 0.1515461 0.12268964 0.11870151 -0.056406833 0.15234779
0.03309592 0.11586021 -0.2180398 0.13279971 0.17740592 -0.15726613 -0.24061453 -0.09546871
0.0710248 -0.012114427 0.21899629 0.098453715 0.03158429 -0.015815675 0.03070115 0.21567142
0.062983274 0.2860637 -0.23468202 -0.14334095 -0.1041637 -0.16414458 -0.20917337 0.21138874
-0.13505235 -0.19831821 -0.14108217 0.018496312 -0.14453523 -0.13032112 0.02175232 -0.07641242
0.065476045 -0.1282918 -0.15936278 0.116437584 0.40270647 0.09330154 0.25295582 0.14688398
0.20058766 -0.054733027 0.18215668 0.120634295 0.050417256 -0.008514394 0.24641824 -0.2397658
-0.12757075 0.0094403075 -0.05153395 0.120505586 -0.031830624 0.15335637 0.12374447 -0.064710066
-0.18213362 -0.31371 -0.048031684 -0.005748957 0.051839463 -0.022805393 -0.085965216 -0.09404161
0.15396054 0.05984109 0.09481957 0.26394403 0.058417574 -0.23728165 0.070413634 0.14463386
-0.15233283 -0.10161137 -0.21946424 -0.05983599 0.24482511 0.14405283 0.044176318 0.14005733
0.2640816 -0.12545954 0.2035304 -0.029092807 0.19172022 0.16671886 0.1663619 0.31321868
-0.14553337 0.032405652 -0.14441833 0.10128932 -0.14830112 -0.1438889 -0.03961367 0.121802375
-0.018671103 0.1168008 0.07599113 -0.029229404 0.020767521 0.099602245 0.009420291 -0.12903668
-0.043642066 -0.055548 -0.121640325 0.026775585 -0.15661895 0.11359915 -0.15174195 -0.034180075
-0.007255303 -0.09759066 -0.09659123 -0.17562106 0.03770737 -0.025021402 0.10937154 -0.12734309
-0.051602397 -0.1867598 0.2559827 0.13543972 -0.1750602 -0.27795568 -0.0268588 0.07763762
-0.38671407 0.12926358 -0.055645846 -0.07865385 -0.11352631 0.13819508 0.21486288 0.29408357
0.12953813 0.008826833 0.030925864 0.22300261 -0.08069851 0.097197786 0.15358216 0.12049864
0.014542937 0.21703759 0.10526287 -0.12316949 -0.14700796 0.1073949 0.2520118 0.32876602
0.0764647 -0.037578136 -0.095088266 0.15272264 0.053451795 -0.02399145 -0.23998648 0.2371482
-0.08093954 0.1197413 0.022374813 -0.0720555 0.048828635 0.059998035 -0.13694441 -0.27408302
0.30485502 0.04414717 -0.06932745 0.027484475 -0.06813119 -0.026885796 0.22475715 -0.2400032
0.25862372 0.29812452 0.07194994 0.14916515 -0.10921879 0.06660884 -0.17940597 -0.053996522
0.3364697 0.11466374 -0.021053394 -0.16296187 0.37247264 -0.04474573 0.2560064 0.05167323
0.054111242 0.07018596 -0.2618703 -0.05722016 -0.12531148 0.23289871 -0.12183285 0.28111655
-0.09453171 0.0077379188 0.15322144 -0.08106987 -0.042739846 -0.049121708 -0.011948057 0.26881632
-0.13835199 0.23860593 0.2656655 -0.0021946453 0.023956621 0.018634915 0.18786685 -0.15765622
0.012191628 -0.027768748 0.016261877 -0.10026145 0.053264614 0.26212683 -0.12031245 -0.16291718
-0.1847529 0.058156516 -0.08549388 -0.24704987 -0.13467816 0.5583401 -0.015801014 -0.11599144
0.21846548 -0.098944604 -0.1481038 -0.13166 -0.074628055 -0.11933882 0.117196225 0.082873955
0.17006083 -0.026139231 0.0405828 0.17625563 0.067281 0.13427596 0.29643336 0.30352053
00000000: 447a 8c3e aeac a63e cf0c c53d e72e 1b3e
00000010: b544 fb3d c719 f33d da0a 67bd 0f01 1c3e
00000020: 968f 073d 1e48 ed3d d345 5fbe a6fc 073e
00000030: e6a9 353e 5f0a 21be a863 76be 1985 c3bd
00000040: 7375 913d 977b 46bc 9040 603e 1aa2 c93d
00000050: 875e 013d e08f 81bc fa80 fb3c f8d8 5c3e
00000060: 60fd 803d f176 923e 7c50 70be f8c7 12be
00000070: c753 d5bd 8415 28be 8b31 56be 4a76 583e
00000080: 2a4b 0abe ee13 4bbe d877 10be 9485 973c
00000090: 0b01 14be e672 05be ec31 b23c 1d7e 9cbd
000000a0: 4e18 863d ed5e 03be ff2f 23be d476 ee3d
000000b0: 8b2f ce3e e114 bf3d 6d83 813e c168 163e
000000c0: da66 4d3e bd2f 60bd 4887 3a3e 1d0f f73d
000000d0: 5382 4e3d f57f 0bbc 1055 7c3e 2a85 75be
000000e0: e8a1 02be 85ab 1a3c 4315 53bd a2cb f63d
000000f0: d460 02bd 7409 1d3e be6d fd3d b686 84bd
00000100: 3c81 3abe 999e a0be dfbc 44bd bf61 bcbb
00000110: 9e55 543d 60d2 babc 880e b0bd e398 c0bd
00000120: d5a7 1d3e ee1b 753d c330 c23d ac23 873e
00000130: 4447 6f3d f6f9 72be 0635 903d e61a 143e
00000140: 23fd 1bbe 9f19 d0bd 3cbb 60be 9516 75bd
00000150: 6fb3 7a3e 9682 133e 3af2 343d 306b 0f3e
00000160: b435 873e 7778 00be 466a 503e 0a54 eebc
00000170: 4e52 443e 59b8 2a3e c65a 2a3e 335e a03e
00000180: b306 15be cabb 043d 66e2 13be c670 cf3d
00000190: 40dc 17be 9d57 13be f241 22bd 8673 f93d
000001a0: 24f4 98bc 4235 ef3d 3da1 9b3d 8172 efbc
000001b0: a620 aa3c 43fc cb3d 9057 1a3c 3122 04be
000001c0: 06c2 32bd 4d86 63bd 901e f9bd 7958 db3c
000001d0: b860 20be aca6 e83d 3e62 1bbe 6800 0cbd
000001e0: e5bd edbb 9ddd c7bd 9fd1 c5bd 02d6 33be
000001f0: 0b73 1a3d aff9 ccbc 30fe df3d 3a66 02be
00000200: 095d 53bd f63d 3fbe 2a10 833e b6b0 0a3e
00000210: fb42 33be 3550 8ebe fc06 dcbc 7900 9f3d
00000220: 63ff c5be ac5d 043e e6ec 63bd 4515 a1bd
00000230: 7b80 e8bd 0383 0d3e 0405 5c3e 1f92 963e
00000240: a5a5 043e 6c9e 103c 3d58 fd3c cc5a 643e
00000250: 4345 a5bd a20f c73d a444 1d3e fec7 f63d
00000260: 8045 6e3c 1a3f 5e3e 0f94 d73d 4940 fcbd
00000270: 4189 16be dbf1 db3d b107 813e 0554 a83e
00000280: 8699 9c3d 88eb 19bd a3bd c2bd 5363 1c3e
00000290: 45f0 5a3d b889 c4bc 04bf 75be fad6 723e
000002a0: a1c3 a5bd ed3a f53d 624b b73c d591 93bd
000002b0: 8900 483d 80c0 753d 283b 0cbe 9c54 8cbe
000002c0: f515 9c3e aad3 343d 8dfb 8dbd 1f27 e13c
000002d0: 5e88 8bbd 9a3f dcbc bd26 663e 66c3 75be
000002e0: 546a 843e c7a3 983e 7d5a 933d c0be 183e
000002f0: 1aae dfbd 376a 883d 33b6 37be 752b 5dbd
00000300: c245 ac3e d3d4 ea3d 2b78 acbc 7adf 26be
00000310: bcb4 be3e 4c47 37bd 4513 833e 4fa7 533d
00000320: c0a3 5d3d a8bd 8f3d dd13 86be b05f 6abd
00000330: a751 00be 007d 6e3e 8083 f9bd 82ee 8f3e
00000340: d799 c1bd 5e8e fd3b 15e6 1c3e f607 a6bd
00000350: fa0f 2fbd d833 49bd c9c1 43bc 4ba2 893e
00000360: 25ac 0dbe 1d55 743e 4f05 883e 0ad4 0fbb
00000370: ad40 c43c 40a8 983c 2b60 403e a270 21be
00000380: 65bf 473c 497b e3bc a137 853c e055 cdbd
00000390: ff2b 5a3d 7d35 863e 6066 f6bd c3d3 26be
000003a0: dd2f 3dbe 8735 6e3d 6a17 afbd a4fa 7cbe
000003b0: 12e9 09be 60ef 0e3f 2171 81bc ec8c edbd
000003c0: 6ab5 5f3e 78a3 cabd 86a8 17be e1d1 06be
000003d0: 98d6 98bd e967 f4bd 9304 f03d d2b9 a93d
000003e0: 6d24 2e3e f121 d6bc 263a 263d 5b7c 343e
000003f0: 9fca 893d a37f 093e 1dc6 973e 0b67 9b3e

fc3.bias f4 [16]
0.109804794 0.27885193 0.008577225 -0.06287459 0.08704513 0.5211997 0.4022484 0.41519186
0.8163874 -0.077277966 0.43247595 -0.031192286 0.21584022 -0.054555185 0.29212332 0.39907864
00000000: 56e1 e03d aec5 8e3e 7d87 0c3c 65c4 80bd
00000010: b844 b23d 586d 053f 81f3 cd3e 0794 d43e
00000020: c4fe 503f e943 9ebd 7d6d dd3e f786 ffbc
00000030: 3805 5d3e 4275 5fbd 3091 953e 0954 cc3e

fc4.weight f4 [10, 16]
0.10353548 -0.015734358 0.24500267 -0.16413502 0.17361537 -0.03555558 -0.25316826 0.6799156
-0.4884887 -0.20203449 -0.08259179 0.14190656 -0.16532141 0.14573778 -0.30965868 0.49826747
0.2059766 0.5576135 0.4216765 0.018608794 -0.5233026 -0.1100007 -0.33116907 -0.3466197
-0.7387448 0.35071933 -0.22069636 -0.1458377 0.23051046 -0.17598258 -0.09516427 0.45290408
-0.3937828 -0.21267053 0.3274675 0.14472847 0.27498782 -0.08007052 0.49258557 0.26668185
0.03795544 0.1752426 0.2241401 -0.21089311 -0.25589344 -0.17773677 -0.21507324 -0.021230495
-0.21209385 -0.1341226 0.16157503 -0.18358123 0.29010352 -0.1250557 -0.16453639 -0.15531646
0.68568605 -0.18385233 -0.17671663 -0.21256027 0.021090034 0.10407003 0.003489456 -0.44365022
0.12792212 -0.5111411 -0.36043316 -0.041848354 -0.23459302 -0.11642767 0.39244872 0.05625699
0.43043482 -0.13001713 0.38632888 0.028337749 -0.08350082 0.23027346 0.036660902 0.19836625
0.05949398 0.1362684 -0.0818356 0.050693624 0.62461174 -0.4778872 0.18058494 -0.2653679
0.57869864 -0.019741185 -0.077848226 -0.14572677 0.033176847 0.13266368 0.2227751 -0.55550176
-0.14792813 -0.39996424 0.3353772 0.11729657 -0.4033568 0.04765315 -0.2562404 -0.12817371
0.5137418 0.56842715 0.4160456 -0.18438712 -0.025543842 -0.046868935 0.094938464 -0.20539512
0.5382241 -0.38425454 -0.055938885 0.23365118 0.34246364 0.01111261 0.36846006 -0.25464305
0.0053363107 0.1139235 -0.49460512 0.019271215 -0.0064404886 0.091369905 0.04169989 -0.46812007
-0.51028186 0.18416704 -0.20750302 0.048914287 -0.24850875 0.32681346 -0.4104895 0.5104178
-0.7161502 -0.13729729 -0.29095683 0.20125507 0.27048934 -0.08360875 0.34000385 0.45977575
0.3149676 0.69566894 0.035504863 -0.17032641 -0.0015570503 0.40409487 -0.64155406 -0.18190485
-0.5574794 0.25918254 -0.06319326 0.13403957 -0.18116723 0.18187185 -0.30029926 0.11838915
00000000: 690a d43d 57e5 80bc fbe1 7a3e 0313 28be
00000010: 3ac8 313e baa2 11bd 459f 81be f30e 2e3f
00000020: 311b fabe 21e2 4ebe e225 a9bd f44f 113e
00000030: 044a 29be 493c 153e 958b 9ebe ea1c ff3e
00000040: 88eb 523e c2bf 0e3f fbe5 d73e 7871 983c
00000050: 29f7 05bf 0c48 e1bd fe8e a9be 2378 b1be
00000060: 611e 3dbf 7c91 b33e 3afe 61be 7a56 15be
00000070: ef0a 6c3e c734 34be 7ce5 c2bd 0be3 e73e
00000080: e69d c9be 4ec6 59be d2a9 a73e b333 143e
00000090: 34cb 8c3e 03fc a3bd 2d34 fc3e 868a 883e
000000a0: 2a77 1b3d cc72 333e fb84 653e 5df4 57be
000000b0: 7704 83be a100 36be 293c 5cbe 93eb adbc
000000c0: 212f 59be 6f57 09be ed73 253e b8fc 3bbe
000000d0: 7388 943e 9a0e 00be 3a7c 28be 470b 1fbe
000000e0: 1f89 2f3f c943 3cbe 34f5 34be 66a9 59be
000000f0: 02c5 ac3c ab22 d53d 5baf 643b 1f26 e3be
00000100: 04fe 023e 25da 02bf b28a b8be 2e69 2bbd
00000110: 2739 70be a171 eebd 0aef c83e bb6d 663d
00000120: f461 dc3e 3623 05be e6cc c53e 9124 e83c
00000130: 7a02 abbd cecc 6b3e be29 163d 8620 4b3e
00000140: f6af 733d f289 0b3e 6c99 a7bd 1ea4 4f3d
00000150: 8ee6 1f3f a2ad f4be 42eb 383e 4dde 87be
00000160: 9825 143f 44b8 a1bc e46e 9fbd 6639 15be
00000170: 72e4 073d fdd8 073e 281f 643e 5d35 0ebf
00000180: 797a 17be 1dc8 ccbe 8fb6 ab3e 2f39 f03d
00000190: c884 cebe f32f 433d f131 83be f83f 03be
000001a0: 9584 033f 7184 113f ee03 d53e facf 3cbe
000001b0: 5241 d1bc a4f9 3fbd 196f c23d 1953 52be
000001c0: 0ec9 093f 03bd c4be 2c20 65bd 4142 6f3e
000001d0: 6557 af3e aa11 363c cca6 bc3e 9360 82be
000001e0: 38dc ae3b b950 e93d e23c fdbe abde 9d3c
000001f0: bc0a d3bb 2520 bb3d 81cd 2a3d 6fad efbe
00000200: d5a1 02bf 4996 3c3e ac7b 54be 595a 483d
00000210: 1479 7ebe 1854 a73e ae2b d2be beaa 023f
00000220: 9f55 37bf a997 0cbe 4bf8 94be cf15 4e3e
00000230: 947d 8a3e 103b abbd fc14 ae3e ba67 eb3e
00000240: 6f43 a13e 5c17 323f 8c6d 113d 0c6a 2ebe
00000250: f015 ccba 86e5 ce3e e33c 24bf 4445 3abe
00000260: f8b6 0ebf 93b3 843e 786b 81bd ab41 093e
00000270: e783 39be 9d3c 3a3e d3c0 99be 0376 f23d

fc4.bias f4 [10]
-0.33161545 -0.6207485 0.023662899 1.068696 0.111639455 -0.31805792 -0.4425012 -0.35444182
0.5965706 -0.20707527
00000000: 80c9 a9be 60e9 1ebf b2d8 c13c 08cb 883f
00000010: 3aa3 e43d 7dd8 a2be 848f e2be 6679 b5be
00000020: dab8 183f 8a0b 54be
