weights.pt (torch, 469301 bytes, 16 tensors)

conv1.weight f4 [8, 3, 3, 3]
00000000: 50ec 233e 25d4 b13d 38de 42bd 8b27 0b3e
00000010: 6c41 30be 6ce7 1a3e 329a b23d 7494 25be
00000020: 4b1e 31be 7804 283e 0261 513e 5d82 543d
00000030: 3b72 61bd 5673 0a3e c6cd cc3d 307e 6ebc
00000040: ac11 263e 613c 0d3e d164 3b3d fa52 ca3d
00000050: b6e1 29be 61fe b1bd fb75 f13c 5cb6 4b3d
00000060: 3d17 04bd b533 863d 032e 633d 7359 26be
00000070: 5db1 a63d c001 89bb 133a e0bd 67dc fc3c
00000080: 8a3f 12bd a14f a8bd 2256 29be dd70 3a3e
00000090: 405c eabd 0e26 153d 97a3 1c3e 5057 4cbc
000000a0: a575 e7bd f47c 42be 0e5d 293d 4c22 d4bd
000000b0: b837 d03c a4bc 823d ac0d 3fbd cb17 053e
000000c0: 3324 8bbc 3b54 8dbd 4219 06be e2d9 863d
000000d0: 2425 ffbd 219e 493d fa1c aabc 7624 033e
000000e0: cb84 c7bd c953 cebd 3b99 39bd 3041 10be
000000f0: 0811 843d aa43 c5bd 0e7a 3f3d 46e8 f83d
00000100: 3b39 e63d 0a96 ecbc 53e5 d43d 2579 fbbd
00000110: 1760 5cbe a8ac bfbc 3912 2ebe c511 41be
00000120: 5610 823d c0ae 313e b9c7 6fbd 9257 5dba
00000130: 2320 0abe 1f2b 293d faf5 7f3d c034 e2bc
00000140: d97c 133e 486c 2fbe 0d60 dfbc d08a efbd
00000150: 095b 2f3e 19b0 2a3e 4122 463e cad1 3f3e
00000160: 3d48 b33d 6b53 0fbe 0824 2abe ff98 f53c
00000170: 71a3 4bbe 2f65 d93d a599 8e3d d21d 093d
00000180: 4869 34be 4365 083e 02a9 ffbc 6aa4 e3bd
00000190: bf67 b03d 03cc 06bc f48d ccbd 417d 013d
000001a0: c595 10be d3a2 2f3e 8fd5 253e 103c 9f3d
000001b0: a5c6 c13d ff4f 46be 6112 e1bd a5bc 32be
000001c0: aa8b ccbd fee7 22be d2d3 2a3e 9bb1 f23d
000001d0: a97a 083e f4c5 c2bd 90d4 183e 132b edbc
000001e0: cf0f f2bc 1ac1 dd3d 24f3 043e 33f0 d3bd
000001f0: 50cc 4f3e 8e53 063c 1a90 4a3d 4efd 3ebe
00000200: b671 c53c 9a53 a9bd bb45 f3bd 1109 a2bd
00000210: 92b6 c53c 4073 28bd b671 d6bd dc78 1b3e
00000220: 7f61 943d 4a22 29be 6edb 6e3d c34c 863d
00000230: 0884 ac3c 9129 653d 8322 0a3a 8c32 d33d
00000240: 7dc7 17be 0393 bebd 4e1c 083e 8123 02be
00000250: f94c b43d 2f2b 2e3e 5b5d 48be 78f2 bebd
00000260: f3f7 243e d11e dcbc 3949 cc3c 14e3 453c
00000270: 9799 8d3d 8ba7 b4bd be48 603c 6dd4 e63d
00000280: e875 eebc 9e0d 3dbe cfe4 373d 36de 92bd
00000290: 53fe 61bd 1674 a43d bd99 763c 5b7e 0ebe
000002a0: 5552 e9bd d588 4abd 7444 8dbd 5cb0 35bd
000002b0: 1b68 04be 904c 143e 48f7 c53d c848 173d
000002c0: 89d8 333d abee 7b3c fbdc 0d3e cf70 323d
000002d0: 4b6a 013c 7bd0 03be 0d3b 4c3d 6ea6 4cbe
000002e0: b023 2d3d 8375 42be a5cb d4bd a82a a83d
000002f0: 37e0 0abe dda1 303e 1b44 bcbd df70 433e
00000300: a0ba a33d 37a7 9bbd 6516 023e b28a 21be
00000310: e91e f8bd f253 ebbd bae3 3c3d b39e 103d
00000320: ea99 1fbe 2944 553e 166b ea3b 3b1c b8bd
00000330: 1341 953c 28bf b2bd 79ac 763d f042 b83d
00000340: c6ac 18bd 2a87 cd3c 6ae8 0b3e 19c2 e5bd
00000350: 1b4b c4bc 311d 46bc 3261 f0bd 244c 093d
0.16008115 0.086830415 -0.047575206 0.13589303 -0.17212456 0.15127343 0.08720817 -0.16169912
-0.17296712 0.16407955 0.20447162 0.051882137 -0.05504058 0.1352056 0.10000186 -0.014556453
0.16217679 0.13792564 0.045750443 0.09879108 -0.16590008 -0.08691097 0.029475203 0.04973446
-0.032248724 0.06552831 0.055463802 -0.1624506 0.08139298 -0.004181117 -0.10948577 0.030866815
-0.035705127 -0.08218313 -0.16536763 0.18207116 -0.114433765 0.036413245 0.1529678 -0.012471989
-0.11301736 -0.18992978 0.04134851 -0.10358104 0.025417194 0.063836366 -0.046643898 0.12997358
-0.016985035 -0.06900831 -0.13095573 0.065845266 -0.12458256 0.04922307 -0.02076577 0.12806877
-0.09742125 -0.100745745 -0.045312148 -0.14087367 0.06448561 -0.096320465 0.04674726 0.12153678
0.112413846 -0.028880138 0.103953026 -0.12278966 -0.2152103 -0.023397759 -0.16999139 -0.18854435
0.06350772 0.17351818 -0.05854008 -0.000844353 -0.13488822 0.04130089 0.06249044 -0.027613044
0.14403094 -0.1713115 -0.02726748 -0.11696398 0.17124571 0.16668738 0.19349004 0.18732372
0.08754013 -0.13996665 -0.16615307 0.02998018 -0.19886567 0.10615002 0.06962899 0.033475704
-0.17618287 0.13319878 -0.031208519 -0.11115344 0.08613538 -0.008227351 -0.09988013 0.031613592
-0.14119633 0.17151956 0.16194747 0.07775128 0.094617166 -0.19366454 -0.109898336 -0.17454775
-0.09987576 -0.1590881 0.16682366 0.11850282 0.13328041 -0.09510413 0.14924836 -0.028951203
-0.029548554 0.10827847 0.12983376 -0.10348549 0.20292783 0.008198632 0.049453832 -0.18651316
0.024102073 -0.08267899 -0.118785344 -0.079118855 0.024134908 -0.041125536 -0.104709074 0.15182823
0.072451584 -0.16516986 0.058314733 0.0655761 0.021059051 0.055947844 0.0005269425 0.103123754
-0.14822192 -0.09305384 0.13292047 -0.12708856 0.08803744 0.1700866 -0.19566862 -0.09323591
0.1611021 -0.026870163 0.024937259 0.012078065 0.069140606 -0.08821019 0.013689218 0.11270986
-0.029108956 -0.18462226 0.044895943 -0.071712896 -0.055174183 0.08029954 0.0150513025 -0.13915388
-0.11392657 -0.0494469 -0.06897822 -0.044357643 -0.12930338 0.14482331 0.09666306 0.036934644
0.043907676 0.015376727 0.13853829 0.043564614 0.007898877 -0.12872498 0.049861003 -0.19985363
0.042270362 -0.1899014 -0.103904046 0.08211261 -0.13562094 0.17249246 -0.091926776 0.19086026
0.0799458 -0.07600253 0.12703855 -0.15775564 -0.12115271 -0.11490621 0.046115614 0.035307597
-0.15586057 0.20826782 0.007153879 -0.089897595 0.018219506 -0.087278664 0.060223076 0.08997142
-0.037274145 0.025088865 0.13662878 -0.11218662 -0.023961594 -0.012091921 -0.117372885 0.03351988

conv1.bias f4 [8]
00000000: 0d74 8bbc a973 1cbe d5c5 493d 712f 363e
00000010: 74a2 f33d 879a f1bd bd29 1e3e a13f e4bd
-0.01702311 -0.15278496 0.049260933 0.17791535 0.1189622 -0.11797052 0.1544561 -0.11144949

conv2.weight f4 [16, 8, 3, 3]
00000000: a25b 85bd d4fd 423d 2593 c93d 30eb dc3d
00000010: e711 c73d 3803 8abd 208a c93c 999c 95bd
00000020: de9f 193b 9846 dd3d 9708 8c3d dbdc ccbd
00000030: 2688 2fbd 8221 c6bd c07e 813d 069a e0bb
00000040: 241c aabd 8a6b 07bd 4ea5 ae3d d272 ab3d
00000050: b8d4 373e 9fae a93c 0744 873d dbc1 9cba
00000060: 6bcb f33b eb21 493c 9e09 253e d118 2c3d
00000070: 8802 9bbd 4939 ebbd 17f1 f7bd f62e 49bd
00000080: 0ed0 e33b 37c6 d63d 7357 8cbc f66e 1f3d
00000090: ec97 153e dd4d 97bd 2302 07be 44ee 543d
000000a0: 4f87 733d 400e acbc fb34 133d 50c0 cbbd
000000b0: 6b88 773c c4d5 67bd 34f2 9fbd f6e5 a9bd
000000c0: bb8f 30bd 07eb 01be b782 90bb 6ba7 48be
000000d0: 55ca 2bbe d7d5 45be 60e8 bdbd e888 d73d
000000e0: 4a2e c6bb d03b 82bd b7d3 223d 81c6 8cbd
000000f0: 21f1 093c 5171 893d 83fb 79bc 2319 9d3d
00000100: 6dd7 283d adb4 afbc 0e4e 953b 2181 863d
00000110: 2531 3bbd cbe8 8c3c 911d f0bc e8c7 a33d
00000120: be90 593c 42ca 07be 0aba 9b3d 74ba 183d
00000130: 09e4 0abb de44 8e3b 97dd e7bd 3d1e 49bd
00000140: ffbc bebc b30e 853d 130c d7bc 71b2 413d
00000150: 49bf 87bb f1ea f73d 0ee3 80bd 0e5b 473d
00000160: c6ee ef3d 8645 5dbd 9c52 ea3c 771c 913d
00000170: d7f6 9a3d b656 673d 59fe 483d b7c7 87bd
00000180: 8fe7 f23d 272d 653c 73ab d23d ec15 a63c
00000190: e6c0 adbc 5201 333d d896 db3d 8df8 e43d
000001a0: 51a3 e4bd 33d1 f0ba ef0b c8bd 07a1 803d
000001b0: bb29 483e 1cf4 1e3a ca8f 4b3d f2a4 e33d
000001c0: f0ab a93d 6b54 85bd 6e2a 253e 6e68 9f3d
000001d0: 12fd debc b14d 193b 37d6 603d a17d 8b3d
000001e0: 0ddf adbd 6f9c cebd a888 c1bd b91f 363d
000001f0: ae27 f4bd ea79 56bc 1df5 ee3c 20c3 e43d
00000200: 9be5 aa3d 0857 f93b efda a33d 1252 353e
00000210: 0ce1 ac3d c9ae 0a3c fcaf 8c3d 9909 853c
00000220: f592 0f3d 770d a43d ca4b 4b3d f69e 0f3e
00000230: 4b09 123e f76f 2b3e 7ef9 513d f59a b13d
00000240: b57f 253c 36d8 52bd ef93 4abd b0ca 08be
00000250: cd02 a03d 1b5d c93d 0a36 0fbe 085f 63bd
00000260: de54 ccbd 3d04 6bbc 4af9 f33d bcb3 ae3d
00000270: aaa7 d73c 04ab a23d 47cf 6d3d 538f c43d
00000280: 0a96 81bd 4866 733d 39c2 06be d917 c7bd
00000290: c32a 8fbd 428d 433c 44cf ebbd 0774 8abc
000002a0: f049 bb3c 9222 4dbd f19a 773d 0d43 e83d
000002b0: 8bd5 ecbb aa4c 5abd 1357 c8bd 540e a3bd
000002c0: 1771 5cbd 5409 a1bd 25ea 17bd d413 983d
000002d0: f774 043e c5ba 3f3e d5b4 3b3e 97dc 013d
000002e0: b323 943c cb07 a63d 03b3 36bd d3d5 f53d
000002f0: bdbc 8b3d f684 bebd 687e 9abd 4809 78bd
00000300: d035 7f3d d634 103e 2be9 063e 92c9 87bc
00000310: c94f 43bd 89a3 ccbc 7f13 f8bc a565 793c
00000320: 8be8 77bd e7fa d93d 06c4 adbd c59f 04bd
00000330: 383a 003e d6da 68bd 6073 943d 1629 19bd
00000340: af29 143e 1aba 813d 69ba da3c 167b 003e
00000350: 6bcc 1f3d c788 32bd b8df e93d 486b 2d3d
00000360: d41c 8f3d e6d7 163d a00e 453d 5d3b 8c3b
00000370: a10c 8bbc 4d00 283d ce45 a63c ff01 f2bd
00000380: 4758 8c3c 8406 85bd 31c6 98bd 6abe 1c3d
00000390: cbe2 9f3c 35f2 4f3b 7249 8cbd 556b 303d
000003a0: aaba c93d 7e73 353b e6fa 813d 7603 36be
000003b0: e3c5 293d d496 e43c 63f1 023c 6569 15bb
000003c0: d936 9dbd 6623 97bd 4f3f bc3d 3d02 903d
000003d0: 83a0 cfbd 6fb6 9a3d 853f ca3d eb35 97ba
000003e0: f34c d4bd dd7b 123c 764a 0cbd 262c 883d
000003f0: 249f 69be bd16 8fbd ecdd c8bd 95c6 3e3b
-0.06511618 0.04760535 0.09842519 0.10787046 0.097202115 -0.06738895 0.024601996 -0.07305259
0.0023441236 0.1080448 0.06837576 -0.10003062 -0.04285445 -0.0967436 0.06323004 -0.0068542985
-0.08306149 -0.03306154 0.08527623 0.083715096 0.1795224 0.020713149 0.06604772 -0.0011959629
0.007440021 0.012276153 0.1611695 0.042015854 -0.07568842 -0.11485536 -0.12106531 -0.04911705
0.0069522923 0.10487025 -0.017131543 0.03892418 0.14608735 -0.07387898 -0.13184409 0.05198504
0.059455212 -0.021002889 0.035939198 -0.0994879 0.015108208 -0.056600347 -0.078098685 -0.08295815
-0.043105822 -0.12687312 -0.0044101137 -0.19595115 -0.16776402 -0.19319855 -0.09272838 0.1052416
-0.0060479986 -0.063590646 0.03975269 -0.06873799 0.008419306 0.067110665 -0.015257719 0.0767081
0.04122107 -0.021448458 0.004556424 0.06567598 -0.045701165 0.017200848 -0.029310973 0.079971135
0.013279138 -0.13260749 0.076038435 0.03728719 -0.0021193048 0.0043417057 -0.11321562 -0.049101103
-0.02328348 0.06496944 -0.026250875 0.047289316 -0.004142676 0.121053584 -0.06293307 0.04867082
0.11715464 -0.05402138 0.028603844 0.07085507 0.07566612 0.05647918 0.04907069 -0.066298895
0.118605725 0.013987816 0.102866076 0.020274125 -0.021210145 0.04370243 0.107221305 0.1118022
-0.11163963 -0.0018372893 -0.09767901 0.062807135 0.19547169 0.0006063597 0.049697675 0.11115445
0.082847476 -0.06510242 0.16129467 0.0778359 -0.027220283 0.0023392255 0.05489179 0.06811071
-0.08489809 -0.10088431 -0.09449893 0.044463847 -0.11921631 -0.01309059 0.029169613 0.1117003
0.08344575 0.007609252 0.08000743 0.17707089 0.08441362 0.008464524 0.06869504 0.016239928
0.03505226 0.08010381 0.049632825 0.14025483 0.14261357 0.1674193 0.051263325 0.08672134
0.0101012485 -0.051475726 -0.049457487 -0.13358569 0.07813034 0.098322116 -0.13985458 -0.05551055
-0.09977125 -0.014344272 0.119127825 0.08530375 0.026325066 0.07942775 0.058059003 0.095976494
-0.06327446 0.059423715 -0.13160028 -0.097213455 -0.06990578 0.011935534 -0.11514142 -0.01690103
0.022862405 -0.050081797 0.060450498 0.11340914 -0.0072276047 -0.05329577 -0.09782233 -0.07961717
-0.05381879 -0.07863107 -0.037088532 0.07425657 0.12935244 0.1872359 0.183307 0.03170451
0.018083429 0.08106955 -0.044604313 0.12003674 0.06823108 -0.09302704 -0.07543641 -0.060555726
0.06230718 0.14082655 0.13174884 -0.016575608 -0.04768351 -0.024980323 -0.030282734 0.015221988
-0.060524505 0.10643559 -0.08484654 -0.03237893 0.12522209 -0.056849323 0.072485685 -0.0373927
0.14469026 0.06334324 0.026700215 0.12546954 0.039013308 -0.043587472 0.11419624 0.04233864
0.069879204 0.03682699 0.04810965 0.0042795376 -0.016973795 0.04101591 0.020296957 -0.11816787
0.017131938 -0.064953834 -0.07459677 0.03826753 0.019517323 0.003173006 -0.06849946 0.04307111
0.098500565 0.0027687247 0.06346683 -0.17774758 0.041448485 0.027903952 0.007992121 -0.0022798416
-0.07676477 -0.073797986 0.09191763 0.07031677 -0.10138037 0.07554328 0.09875397 -0.0011536455
-0.103662394 0.008940664 -0.0342507 0.06649046 -0.22814614 -0.06986759 -0.09807953 0.0029110063

conv2.bias f4 [16]
00000000: a4ad 743d c15b bc3d 2656 e53d 35e9 89bd
00000010: a863 a6bd f26d 85bd cfac 833d 1c66 0cbd
00000020: 03eb 0e3c 36e0 503c 00e4 8e3d 4062 9b3d
00000030: 60b6 353d b8cb 26bc cdde 733d c1fd 47bd
0.05973591 0.09197188 0.11198072 -0.06733934 -0.08124477 -0.06515111 0.06429445 -0.034277067
0.008723023 0.012748769 0.06977081 0.07587099 0.04436338 -0.010180406 0.05953865 -0.048825983

conv3.weight f4 [32, 16, 3, 3]
00000000: fd91 dbbc 5c63 a1bb d92b 24bd 3254 a13d
00000010: 22d8 24bb 2c22 083d 6b24 88ba 9597 b43b
00000020: ba28 28bd c143 35bc ed00 a8bd 6f7a 29bd
00000030: d7ba 5d3d 68c7 b9bd 66c2 c13b 8540 4d3b
00000040: 10b7 b3bd 296f 103c ec54 343d a1d7 873d
00000050: f790 773c 3a41 943d dc22 793b c926 cd3c
00000060: 0e6e fc3c 1256 87bd 2d2b 71bc d837 90bd
00000070: 62de 4f3d 095e cd3c 93cb 4abd 0db2 fabc
00000080: 5a77 4f3c 4c33 b0bd b538 f0bb 5702 f33c
00000090: 3b71 153d 855d c33c 2975 a23d a281 523d
000000a0: 9c8e 42bd 3ea3 ae3d 8db7 fdbc f449 873d
000000b0: 7620 d03d 46d6 233d 6c72 093d e914 e13c
000000c0: 679a 163c bd9f 093d d4ec 633c 1c57 fe3d
000000d0: 2829 f1ba 0159 a93d 2c40 01be 94e8 55bc
000000e0: 042e ac3c 5bc5 b7bd 6c7f 9ebd 3735 8fbc
000000f0: eede f2bd 6722 d0bd 975a dcbc 253f 2d3d
00000100: a72f 6bbd 8c5a 0dbd 9d53 e4bd 7b88 d9bd
00000110: a9b1 2f3d 13b9 213d 0147 82bd 4c7c 95bd
00000120: d346 a7bc ae77 173c a062 f8bd 30f5 afbd
00000130: f5a4 79bd cfae 80bd fc20 20bd 8f12 123d
00000140: 7cc9 7cbc e92b 38bd 2c57 b83d 062c a43d
00000150: 9b6f 173d cde0 6d3d 1b99 283d eaf6 993d
00000160: de7d 5ebd ce7d 95bc 75f0 de3b e3df 833b
00000170: b476 2cbd cdbc 95bd 7434 65bd 533f 2dbc
00000180: 2687 863d a450 903d c64e 2c3d dfb8 5e3c
00000190: e71c 3b3c 3cb2 9e3d 8143 14bd 86ee d63c
000001a0: bc40 463d f579 ef3d 944d b63c 7246 093e
000001b0: d0f2 f139 b166 83bd 57c1 953d d3a9 803d
000001c0: 68b6 90bd ae1b 50bd da3c 1c3d 9899 60bd
000001d0: 6679 573d fa50 52bd aec1 1bbd fbaf 05bd
000001e0: 8911 7c3d 2aef 32bd 0d8f 03bd 8dd5 0b3d
000001f0: 7ec0 94bd 28e3 30bc f024 88bd a019 9dbd
00000200: 5997 8dbc 8c8f 803b 1142 9b3d 3976 9dbd
00000210: 0d96 c7bc a44b b93c 1332 ff3c 5bef 983d
00000220: 07fd 3ebd 7736 7f3b ef5e 8a3d b803 42bc
00000230: ac33 de3d ae23 5dbd c19e 553d b98b 17ba
00000240: 86d1 2e3c 7bc4 6a3d 78e2 cd3d 8793 a73d
00000250: 737e 843d d6c4 a3bc 4cec 483d aa76 9a3d
00000260: ca71 8d3c 62b6 7d3d b00c 1ebd 3167 a43d
00000270: df3d 0f3c d5e8 5abd d8e8 c6bb 738b af3d
00000280: 5403 7cbc 249d 82bc 9b23 25bd 462b 2cbd
00000290: 7654 c03c 7200 7d3d b949 b83c adb9 d63c
000002a0: f2b3 743c 65d3 53bd dfa9 08bd b88c ea39
000002b0: a816 92bd efb2 0d3d 16b9 4c3c 40e0 f8bb
000002c0: c37c a9bc 21b1 833d 1b1e 7c3d 4b5a c53c
000002d0: 1a72 543d 77a6 72bd f535 b3ba 7531 88bd
000002e0: 3f27 473c 02ea c9bd fc0a f6bc 8563 3c3d
000002f0: a70f 6c3d cae4 da3d db8d 663d c510 7a3d
00000300: ff41 343c 4900 cd3d 5130 c03d 7afd c239
00000310: 12ca 6ebc e5a4 1ebd f3ab 53bd 00c3 8c3c
00000320: c90f bfbd d84c abbb 5525 683d 8c2e ad3d
00000330: 5cbe dabc 6fdd 1f3d 0339 723c b7bc f3bd
00000340: e91d 543c 1209 c0bd ccfd d0bd 8c38 97bd
00000350: 2a36 73bd 0efb babd 6acf 36bc 7d12 6b3c
00000360: bc3f 843c ac29 8c3d a2fe 0ebd 3ce8 9bbd
00000370: 7594 9cbd 8b55 81bd 89dc 42bd 2bcf 1f3d
00000380: 5a7a b6bd c2c6 35bd 1a52 423d b915 a8bc
00000390: 01e7 f23c b7b2 99bd 5dfe 783c 3f13 133d
000003a0: c5d6 a2bd 6f92 5dbc e66b 7dbc 34ae ba3d
000003b0: 1871 db3d 8b84 3dbd 5d36 653d 8ee4 b03d
000003c0: bfb2 c63d 9b55 983d 35b5 343c 531b 023d
000003d0: 1422 523d 95d0 1a3c 25c3 3a3c 4205 193d
000003e0: 9fa8 f0bc a7f9 043d ec90 1cbc 5b88 36bd
000003f0: fbce 04bd 852b cabd c3f1 893d 377e e53c
-0.026803011 -0.0049251746 -0.04008088 0.07877387 -0.002515324 0.033235714 -0.001038683 0.005511234
-0.041054465 -0.011063517 -0.082033016 -0.041376527 0.054133262 -0.09071237 0.0059130667 0.0031318974
-0.08775151 0.008815565 0.0440263 0.06632925 0.015110246 0.072390035 0.0038015163 0.025042908
0.030814197 -0.066082135 -0.014719767 -0.07041901 0.05074919 0.025069254 -0.04951055 -0.03060248
0.012662733 -0.08603534 -0.0073309788 0.029664202 0.036484938 0.023848305 0.07932503 0.05139316
-0.047499284 0.0852723 -0.030971313 0.06605902 0.101624414 0.03999927 0.033556387 0.027475791
0.009192086 0.033599604 0.013911445 0.124189585 -0.0018399106 0.08268929 -0.12622136 -0.013055939
0.021018036 -0.089731894 -0.077391475 -0.01748143 -0.11858927 -0.10162812 -0.026898665 0.042296547
-0.05741849 -0.03451018 -0.111487605 -0.10621735 0.04289404 0.03948314 -0.06361199 -0.07299098
-0.020419514 0.009244842 -0.12128186 -0.08591688 -0.06094833 -0.06283342 -0.039093956 0.03566223
-0.015428897 -0.04496375 0.09001002 0.08016209 0.03697167 0.058075715 0.041161638 0.07517798
-0.054319255 -0.018248465 0.006803567 0.004024492 -0.04210539 -0.073114015 -0.055958226 -0.01057418
0.06568746 0.07046631 0.04206731 0.013593881 0.011420465 0.07748839 -0.03619719 0.026236784
0.04840158 0.11693183 0.022253789 0.13405779 0.00046148011 -0.06416071 0.07312267 0.062823914
-0.07066041 -0.050807647 0.03814397 -0.05483398 0.05260601 -0.051346757 -0.038026504 -0.03263853
0.06154016 -0.043685116 -0.032118846 0.034139205 -0.072632775 -0.010796346 -0.0664767 -0.07670903
-0.017284082 0.003923362 0.075809605 -0.07688565 -0.024363542 0.022619076 0.031151807 0.074675284
-0.046628024 0.0038942376 0.067563884 -0.011841707 0.108496994 -0.053989105 0.052153353 -0.0005781013
0.0106700715 0.057316285 0.10052961 0.081824355 0.06469431 -0.01999132 0.049053475 0.075421646
0.017266173 0.061941512 -0.03858632 0.08027495 0.008742779 -0.053444702 -0.0060702376 0.0857152
-0.015381653 -0.015944071 -0.04031716 -0.042033456 0.023477774 0.061768003 0.022496091 0.026211584
0.01493548 -0.051715273 -0.033365127 0.00044736802 -0.071332276 0.034594472 0.0124953 -0.007595092
-0.020689374 0.06430269 0.06155215 0.024090907 0.05186663 -0.059240784 -0.0013672697 -0.06650058
0.012155353 -0.098590866 -0.030034535 0.045993347 0.057632115 0.10688169 0.056287628 0.06105115
0.011002063 0.1000982 0.093842156 0.00037191418 -0.0145745445 -0.038731474 -0.051677655 0.017182827
-0.09329183 -0.0052276663 0.056676228 0.08456144 -0.026702099 0.039029535 0.0147841 -0.11901229
0.012946584 -0.0937673 -0.10204658 -0.07383832 -0.059377827 -0.09129916 -0.01115785 0.01434767
0.016143672 0.06843886 -0.034910806 -0.076126546 -0.076455034 -0.06315144 -0.0475736 0.03901593
-0.089100555 -0.044379003 0.04744158 -0.02051817 0.029651167 -0.0750479 0.015197364 0.035907026
-0.0795112 -0.013523682 -0.0154676195 0.09115258 0.1071493 -0.04626898 0.055960048 0.08637343
0.09702062 0.07438203 0.011029531 0.03176434 0.05130203 0.009449144 0.011399065 0.03735853
-0.02937728 0.03246465 -0.009556036 -0.044563632 -0.032423954 -0.09871582 0.067355655 0.028014285

conv3.bias f4 [32]
00000000: 36d5 923d 9415 753d 26e3 24bd a650 7ebd
00000010: b1a2 66bd c24a 713c 114f 263c 205e 46bd
00000020: f299 7a3c 3abb d0bc d969 853d 8fea 53bd
00000030: e1eb 5bbd a660 fbba a7a1 6d3b af8f e93c
00000040: 23e2 933d bb72 3fbd c0a0 953d 89b3 7f3d
00000050: 4054 613d f82c 293c 9a03 063c d252 a03b
00000060: 2916 11bc 05dc 83bd 64b1 0bbd 9ca5 453d
00000070: 9b67 9b3b d308 ff3b 0260 0d3d 4e30 883a
0.07169573 0.05983503 -0.040255688 -0.06208863 -0.0563075 0.014727296 0.010150687 -0.04842961
0.0152954925 -0.025479902 0.065143295 -0.051737364 -0.05369175 -0.0019178584 0.0036259682 0.028510896
0.072208665 -0.046740275 0.07306051 0.062427077 0.055011988 0.010325663 0.00817957 0.0048926855
-0.008855381 -0.0643845 -0.03410472 0.04825364 0.0047425753 0.0077830344 0.03451539 0.0010390372

conv4.weight f4 [64, 32, 3, 3]
00000000: a8ca 58bd 7af8 4fbb 3a42 173c 9a12 3bbd
00000010: 7960 38bd 11dd 023c ba62 4fbb a8d8 d9bc
00000020: b801 92bc 2e16 e13a 0afb 7d38 787c 17bd
00000030: 89c1 8b3d 8318 57bc 8cf3 3d3d 055a 15bd
00000040: 074c 6b3c 7dd6 153c 4cda bbbd bd3a 9cbd
00000050: 5539 c3bd b39d 80bd cc90 c3bd ca05 9dbd
00000060: 0c2f 59bd 8280 00be 99f6 16bd 638c 4bbd
00000070: 8a5b 7f3d 656e 4f3c 22e5 743c f354 673d
00000080: 98e0 08bd 79de 33bb c8d8 273c be61 51bd
00000090: 1650 a33c bef2 0039 7581 45bd 1bb1 55bc
000000a0: c252 2ebd f951 663c 1aac 6e3d e7d1 7b3d
000000b0: 79cc 53bd dc27 18bd fd09 ddbd 157e 5d3b
000000c0: 8b38 f7bb 27c0 e3bd 5c45 aebd 01a8 90bd
000000d0: a72b 7ebd 9faf 4abd a5c1 07bd 181d 01bc
000000e0: eb36 36bc c2b6 893d 69de 56bd 0706 ffbc
000000f0: f327 6f3c 748a c5bc 77da 693d b0c1 7ebd
00000100: 1347 34bd 9797 0abd 5a66 38bc b121 66bd
00000110: 6648 ce3c 30a9 59bd 4069 30bd 6f56 18bd
00000120: 0e43 b7bd 177d abbd accc 043c bd1d 523c
00000130: 53ad 48bd 4263 4ebd f225 8c3a 5cee 333b
00000140: 4e57 d4bd 3238 d8bc 38e7 583d 34b8 1b3d
00000150: 8257 82bd 072b 46bc 0534 13bd 956b 01bd
00000160: 4de9 d7bc a858 893d aad3 abbd 2f89 bbbc
00000170: 42e7 8fbd 5c1f 62bd 1b50 37bc 8391 4bbd
00000180: 4d2d 09bd 4e91 79bd 5ba2 98bd 0d42 11bc
00000190: cea1 d0bd f744 87bd aac8 edbc 970b 4cbd
000001a0: a23a a9bd 69b7 30bd ce6d c2bd e8ce 0cbc
000001b0: 4314 62bd 240f 8bbd 809f 043d c4f2 d7bb
000001c0: 10c1 00bd 42b0 163d 3f8a 193d 2823 22bd
000001d0: e90a 363d 8763 78bb 5e26 48bd 8eea 70bd
000001e0: 1959 30bc 3356 55bc 1375 a0bd 149d 8abd
000001f0: eced 36bd fa7f c1bd 56b1 423b e019 853d
00000200: 75fa e43c 4d4c 623d e41b bf3c 7497 9e3d
00000210: 539f 493d 0bb5 0c3d c23d 863d 97c4 a4bd
00000220: 6100 08bd 0229 65bd 09d4 43bd ee17 30be
00000230: e228 d7bd e487 15bd fec0 04be baf7 74bd
00000240: 7fdf 953d a83f cb3c 173b 01bd 5a32 b5bc
00000250: f6d9 a4bc a902 1cbd 48ef fa3c 1be5 af3c
00000260: 8550 cd3a f053 cd3c 329b 213d 7d4a e23c
00000270: 52a3 0c3d a65b 55bc 0e1e f83c ffff d73c
00000280: 9764 02ba 519a 413d dcfa 983d e471 703d
00000290: 74a3 b8ba 2383 76bb d915 a93d 76f4 9dbb
000002a0: 42ae 063c 754b 84bc 9945 d23a 4730 2a3c
000002b0: 4b61 873d b467 2abc 9502 133c 8197 623d
000002c0: 57f1 c93c 17e5 fb3c de09 91bc 4025 5bbb
000002d0: 085e 2c3d 3f1b 153d 263b 0cbd bd27 1bbd
000002e0: 3b9c d73c 2d90 f5bc 3af3 9bbc d885 a0bc
000002f0: e78c d3bc 5574 bdbc a456 273d da2f 51bd
00000300: f36b 753d 16ab 5dbd db33 40bb bd4a 073c
00000310: f69c 923d bf64 37bd a21c 8b3b d4bc 06bd
00000320: c1be 063b cb38 583d 1ebe a63d e79e 9d3d
00000330: 2fe5 913b 555e 15bc 4f52 213d 72d5 3f3d
00000340: d571 603d 5cf7 2e3d e382 2fbc f089 6bbd
00000350: d8d2 d3bc 899f 1a3d 1915 4bbd c692 02bd
00000360: 62cb 2bbc ccf4 293b d10e 243d 63b4 633d
00000370: ec75 653d fac3 1e3d a99b ef3c eb73 20bc
00000380: b133 b2bc 56d0 53bd 6f8f c0bc 3ab4 1a3d
00000390: 7343 51bd 0fd0 66bd 7fa3 fbbc 0eec 28bd
000003a0: 24f9 7bbd 5cb0 dd3b 5bea 98bd 0d36 15bd
000003b0: c2ea e1bc 11e0 babc 5c96 4fbd 2f6f 6dbd
000003c0: a08d bebc 03cf ffbc b8f4 b83b a12b ef3c
000003d0: a0de 18bb 944d 783d 2d04 7e3c d798 593d
000003e0: d63a d3ba 1903 e9bc 00d4 29bd 17e7 743b
000003f0: f7fa a03c 47d1 b73c 779b b73c b098 07bc
-0.052927643 -0.0031733797 0.009232098 -0.045672037 -0.04501388 0.007987277 -0.003164454 -0.026592568
-0.017823085 0.0017172748 6.05537e-05 -0.036983937 0.06824023 -0.013128403 0.046374843 -0.036462802
0.014361388 0.009145376 -0.09172496 -0.07628391 -0.095324196 -0.06280079 -0.09549102 -0.0766712
-0.053023383 -0.12549022 -0.036856268 -0.04969443 0.062343158 0.012660597 0.014947208 0.0564775
-0.033417314 -0.0027445836 0.010244556 -0.051118605 0.019935649 0.0001229746 -0.048219163 -0.0130427135
-0.042559393 0.01405763 0.058269598 0.061479475 -0.051708672 -0.037147388 -0.10792921 0.0033797075
-0.0075445822 -0.111206345 -0.08509323 -0.07063294 -0.06205335 -0.04948389 -0.03314366 -0.007880472
-0.011121492 0.067243114 -0.0524582 -0.031130804 0.014596927 -0.024113871 0.05709311 -0.062196434
-0.044013094 -0.033835974 -0.011254871 -0.056184474 0.025181007 -0.053139865 -0.043069124 -0.037191804
-0.089483365 -0.08373468 0.008105438 0.012824473 -0.04899342 -0.05038763 0.0010692461 0.0027455306
-0.103682145 -0.026393984 0.052954882 0.038017467 -0.06364347 -0.012095219 -0.03593828 -0.03159674
-0.026356364 0.06706363 -0.08389981 -0.022892563 -0.07026531 -0.055205688 -0.011188532 -0.049699318
-0.033490468 -0.06092959 -0.07452842 -0.008865845 -0.10187112 -0.06604951 -0.029026348 -0.04981574
-0.082631364 -0.043143664 -0.094936 -0.008594252 -0.055195104 -0.06789997 0.032378674 -0.006590219
-0.03143412 0.036789186 0.037485357 -0.03958431 0.044444 -0.003790112 -0.048864715 -0.05881744
-0.01076343 -0.01302104 -0.0783483 -0.067682415 -0.044660494 -0.09448238 0.0029707751 0.06499076
0.027951458 0.055248547 0.023328729 0.07743731 0.04922421 0.034352344 0.06554748 -0.08045309
-0.033203486 -0.05594731 -0.047809634 -0.17196628 -0.10505845 -0.03650655 -0.12964246 -0.059806563
0.07318019 0.024810627 -0.031550493 -0.022118736 -0.020123463 -0.038088474 0.030631676 0.02147155
0.0015664255 0.025064439 0.039454646 0.02762341 0.034335442 -0.013022339 0.030287769 0.026367186
-0.00049740955 0.04726631 0.07469723 0.058702365 -0.0014086799 -0.0037614785 0.0825612 -0.004820402
0.008220257 -0.016149262 0.001604247 0.010387487 0.06610354 -0.010400701 0.008972784 0.055320267
0.024651213 0.030748887 -0.0177049 -0.003343895 0.042081863 0.036402937 -0.034236096 -0.037879694
0.026319614 -0.029975975 -0.019036878 -0.019595072 -0.025824023 -0.02312676 0.04085411 -0.051071025
0.0599174 -0.05411824 -0.0029327783 0.008257565 0.07158844 -0.044773813 0.0042453567 -0.032894924
0.0020560476 0.052788537 0.08141731 0.07696324 0.0044523696 -0.009116729 0.039385136 0.046834417
0.05479606 0.04271637 -0.010712358 -0.057504594 -0.025857374 0.0377498 -0.049580667 -0.031878255
-0.010485502 0.0025933264 0.040053193 0.055591952 0.056020662 0.038761117 0.02924903 -0.009793262
-0.021753164 -0.051712357 -0.023505894 0.037769534 -0.051089715 -0.056350764 -0.03071761 -0.041240744
-0.061516896 0.0067654084 -0.07466575 -0.0364285 -0.027577762 -0.022811921 -0.050680503 -0.05796736
-0.023260891 -0.03122664 0.005644407 0.029195609 -0.0023326054 0.06062086 0.015503925 0.053124275
-0.0016115557 -0.02844386 -0.041461945 0.0037369186 0.01965092 0.022438658 0.022412999 -0.00827615

conv4.bias f4 [64]
00000000: 27b0 b63c a349 433d 7fd3 4abc 9214 71bd
00000010: 6384 7dbc 0d1b 41bd 70e4 06bc b4a8 4a3d
00000020: 78fb edbc 6e32 23bd 256e f83c b632 f53c
00000030: 1a2d 8c3c f94b 2d3c 0c47 9c3c 4461 233b
00000040: f202 293d 54cd 353d ca8b be3c e274 033c
00000050: b5cb c7bc 6017 8cbc fcc8 3fbd fe65 e5bc
00000060: be82 563d cb7b 493d cb36 bdbc b06b cc3b
00000070: e74d 383d 24f3 603d 9ea4 9cbc 541b 873b
00000080: b688 0cbd a0a5 d13c 7a5e cd3c 02b0 58bd
00000090: e869 e73c 9859 433d d607 653b 2a6e 93bd
000000a0: 4f58 193a 7425 acbc 787a 39bc a467 5c3c
000000b0: df88 e8bb 6620 33bc d7b7 7cba dc69 acbc
000000c0: d5f9 61bd e8cb 48bd 3c3d 013d 7d60 dc39
000000d0: 7936 403c 04b1 273b 983b 61bd 605d 31bd
000000e0: f6bc 1e3c 2a90 e43b 6050 c93c 29ec c7bc
000000f0: 6701 843c 852d 70bd 9333 273d 4347 d03c
0.022300793 0.047677647 -0.012379526 -0.058857508 -0.015473458 -0.04714494 -0.008233175 0.049477294
-0.029050574 -0.039843015 0.030325959 0.029931407 0.01711135 0.010577195 0.019076847 0.00249298
0.041262574 0.04438527 0.023260016 0.0080234725 -0.024389127 -0.01710099 -0.046822533 -0.028002735
0.05237078 0.049190324 -0.023097416 0.0062384233 0.04499617 0.054919377 -0.019121464 0.004123131
-0.034310065 0.025591671 0.025069464 -0.05290223 0.028248742 0.047692865 0.0034947298 -0.071987465
0.0005849646 -0.021013953 -0.011320703 0.013452444 -0.0070963944 -0.010933017 -0.00096404314 -0.021046571
-0.0551699 -0.049022585 0.03155254 0.0004203356 0.011731737 0.0025587687 -0.054988474 -0.04330194
0.0096886065 0.0069751935 0.024574459 -0.024404602 0.01611395 -0.05863716 0.04082067 0.025424605

conv5.weight f4 [128, 64, 3, 3]
00000000: d30b 03bd c2fa 0abd d2d0 eb3b 83f4 d3bb
00000010: 133b c03c fe83 003d b03b 613d 24ad 4b3d
00000020: ce97 3b3d 9ebc 7b3d 6b36 2fbb a60b 2c3d
00000030: 4be1 943c 80c0 c83c 6af8 17bd 7402 b1bc
00000040: 3ebb 083d 66b1 c5bb 2486 30bd 8a21 a2bc
00000050: d5f4 a0bd a269 833c a5d1 26bd f551 a5bc
00000060: ee31 2e3d e2f6 113d 0cef 4e3c 4c2a 913c
00000070: 1c25 b03c 31d2 96bc 6365 41bd cb97 ab3c
00000080: 802f 35bc e558 00bc 80b7 18bd 053c c8bc
00000090: f838 51bd 2703 71bd 2ecc 7dbd c85f cebb
000000a0: a1ca 6c3c d65a cf3b 9934 b13c f66d f33c
000000b0: b7d3 2ebd fb2d 773c 20ff 3d3c 4796 1abb
000000c0: 9605 4ebb 38c2 12bd 2634 0bbd 055a 27bd
000000d0: 5c9c 903c d7f6 5b3c 454d 13bd 9480 35bc
000000e0: 17ba b3bc f0d9 f0bc b0e0 d1bb 77b1 043d
000000f0: 4881 513c bae8 60b9 8238 82bb b0f0 5a3d
00000100: 59d2 653d 98e6 673d 8286 cf3b 6067 373a
00000110: 9c66 9b3c f26a 56bd 1b42 193b 6027 8b3c
00000120: 6812 593d a24e 853d 3c0a 7a3d 78f4 af3b
00000130: 69c6 afba c335 863d a63d 073d 6f49 233d
00000140: ad8b b9bb 5508 1cbd d951 a43c 8a72 62bd
00000150: c7e2 3dbd 96f4 843b bf82 33bd 61ee a43a
00000160: 010c f1bb f6e7 1a3b fab8 cd3c ff3d 363d
00000170: c921 e13c 6d28 193d 61c1 983c f552 bfbc
00000180: 056b a6bc 77b5 b2bc 3874 963b f8e1 063d
00000190: 6b94 583d 34ac 163d 750c deb9 18f4 b8bc
000001a0: 53c1 a2bc cd6d b23c 742d 60bb 2b38 f7bc
000001b0: b39b ed3c b102 b53d 1cc0 ad3c d529 4eb9
000001c0: ca31 133d d3a1 703d 60a5 e53c 936c e13c
000001d0: fb4a 073d ae10 97bc 7dae 18bd da0e 47bd
000001e0: b893 c1ba 4dfa e13c 487f 97bb 39c9 2bbc
000001f0: 8213 8fbb 9905 203d e4df d93c b1ec eebc
00000200: c1d1 983c 2ad1 c6bc 1eed adbc 38f2 5dbb
00000210: 0b5f 37bc 5c96 e73c 36ae aa3b 3285 62bd
00000220: ef10 7dbb 3134 bf3b 1531 f9bc 290f f6bc
00000230: 287d 363d 5b45 233d 7d67 143d 5be3 303c
00000240: 7dd4 ca3c 7a1c 173d c5b5 cdbb 1f45 3f3d
00000250: b189 5fbc ebd3 09bd 348e 86bc 7c58 333d
00000260: 6518 293d d734 83bd abb9 d4bc f3d0 a0bc
00000270: 2216 1ebd 2ed8 273d 699e 073c 8d9d 953d
00000280: 1ac7 6e3d db4b b83c 0317 263d 38ee 2cbc
00000290: 8cef 00bc 7d17 9abc d2f9 f3bb fa37 d53a
000002a0: 387f f5bc 5a4a f6bc 3e56 93bb 2378 24bc
000002b0: 95ec cdbb 555b ae3c 15b8 a0bb dca8 313c
000002c0: 3814 003c d369 6fbc 3126 cc3c 7823 c63c
000002d0: bdba 00bc 0009 e1bc 97d6 b7bc e231 38bc
000002e0: e861 03bc a4d0 a63c daf1 e73b ef6d 3f3c
000002f0: 6856 a0bb cf72 793c 1952 66bc e561 1e3d
00000300: 625e 003d d4ed 06bc bba1 47bd a651 253b
00000310: b1c1 9cbc 9dfa 87ba c522 6dbc 29a7 0e3d
00000320: 915c 323d d4c8 23bd fedd f1bc 8af4 03bd
00000330: 3ef3 7dbc 7d58 03bc 84a0 63bc 568d 903b
00000340: 2985 64bd da98 acbb b2b3 0b3d d981 533a
00000350: 0c7a c63b 87ca 8dbc 4be9 203c 719d 39bc
00000360: 40ed 813c c431 93bb c006 333b 084a ce3c
00000370: 88f6 603d ed0e 97bc 199a 1b3d 964b 433d
00000380: 38ce 6b3d dd55 493d 0c0d 4fba 1346 953d
00000390: eb96 653d 1ed5 953c 9580 6c3d 78e9 943c
000003a0: 834c 813c ae9c 8b3d 32ea 31bc a857 b7bc
000003b0: 30b1 953c ad4a 113d 2628 0d3d 9cba ac3c
000003c0: 47dd 25bc b342 12bd 011d b2bc 466c b3bc
000003d0: 35bb b6bd cd87 93bd 458d 17bc b0c6 f4bb
000003e0: 1550 a03c 2504 eb3c 374c 103a 3add 09bd
000003f0: ac5e dd3c 4ecd 0fbb c9c4 7cb9 962d 80bc
-0.0319937 -0.033930548 0.007196524 -0.006468357 0.023465669 0.031375878 0.054988563 0.049725667
0.04579907 0.061459176 -0.0026735316 0.042003296 0.018173834 0.024505854 -0.03710214 -0.021607615
0.033381693 -0.0060331104 -0.043096676 -0.019791383 -0.07859198 0.01604158 -0.040727276 -0.020180682
0.042528085 0.035635836 0.012630235 0.017720364 0.02150207 -0.018410774 -0.04721583 0.020946404
-0.011058688 -0.007833694 -0.037284374 -0.024442682 -0.05107972 -0.058840897 -0.0619623 -0.006298039
0.014452607 0.006327967 0.021631526 0.02971552 -0.042682376 0.015086646 0.011596471 -0.0023588107
-0.0031436435 -0.035829753 -0.03398528 -0.040857334 0.017652683 0.01342555 -0.03596236 -0.011078019
-0.02193932 -0.029400796 -0.0064049587 0.032395806 0.012787171 -0.00021449002 -0.0039740214 0.053452194
0.056108806 0.056616396 0.0063331733 0.00069963 0.018969826 -0.052348085 0.002338535 0.016986549
0.05299607 0.06509139 0.061044917 0.005369719 -0.0013410571 0.06553223 0.033017777 0.039864954
-0.0056624026 -0.038093884 0.02005856 -0.055285014 -0.04635885 0.004057477 -0.04382586 0.001258325
-0.0073561673 0.0023636795 0.025112618 0.044492718 0.02748193 0.03739207 0.018646898 -0.023354987
-0.020314703 -0.021815045 0.004591491 0.032930344 0.052875917 0.03678532 -0.0004235242 -0.02257733
-0.019867575 0.021780873 -0.003420678 -0.03017815 0.029004907 0.08838404 0.021209769 -0.00019661275
0.035936154 0.058748078 0.028032959 0.027517593 0.03303049 -0.01844057 -0.03727578 -0.048598148
-0.0014768755 0.027585173 -0.0046233274 -0.010484987 -0.004366339 0.03906784 0.026596017 -0.029165598
0.018654706 -0.02426966 -0.02123123 -0.0033866297 -0.011192094 0.02826994 0.005208756 -0.055302806
-0.003861483 0.005835079 -0.030418912 -0.030036526 0.044552952 0.039861064 0.036231507 0.010796393
0.024759525 0.03689239 -0.006277772 0.04669678 -0.013643668 -0.033649366 -0.01642523 0.043785557
0.04128303 -0.06406563 -0.02596744 -0.019630885 -0.038595326 0.04097765 0.008277514 0.07305441
0.058295347 0.022497108 0.04054929 -0.010554843 -0.007869612 -0.018810028 -0.0074455524 0.0016267293
-0.02996789 -0.03006475 -0.004496365 -0.010038408 -0.0062843063 0.021283785 -0.004904757 0.010843482
0.0078173205 -0.014612633 0.024920555 0.024186835 -0.007857022 -0.027470112 -0.022441192 -0.011242362
-0.008018948 0.02036316 0.0070783915 0.011683925 -0.004893113 0.015225126 -0.01405766 0.03866758
0.03134001 -0.008235414 -0.048738223 0.0025225668 -0.019135328 -0.0010374371 -0.014473622 0.034827385
0.04354531 -0.039986446 -0.0295248 -0.032215632 -0.015499888 -0.008016703 -0.01389325 0.00441138
-0.055791054 -0.0052672448 0.034106918 0.000806836 0.0060570296 -0.017308487 0.009821246 -0.011329041
0.0158602 -0.0044920165 0.0027317256 0.025181785 0.05492261 -0.018439734 0.037988756 0.047679506
0.057569712 0.04915415 -0.00078983675 0.07288756 0.05605213 0.018290099 0.057739813 0.018177733
0.015783554 0.06816994 -0.010859059 -0.022380665 0.018272966 0.035471607 0.034462117 0.021085076
-0.010123557 -0.03570814 -0.021742346 -0.021902215 -0.08922426 -0.07203636 -0.00924999 -0.0074699745
0.019569436 0.0286885 0.0005504521 -0.033658244 0.027022682 -0.002194244 -0.00024105901 -0.015646737

conv5.bias f4 [128]
00000000: e932 8b3c dee3 383d a9dd 8db9 330e 2a3d
00000010: ab24 d73c 2043 e8bc 743e e23b 65f4 46bd
00000020: 1644 b8bc 0928 67bd 221a 7ebd dbf3 84bb
00000030: 0899 293d 869a 323c 6807 c8bc 2f53 22bd
00000040: abb4 cb3b 25cb 163c 810b 7cbc ac98 fe3b
00000050: 70ec d6bc 209e 2b3c a060 2e3d 9285 70bc
00000060: 65f1 d13c b983 373b 9ef5 4c3c 4534 7fbc
00000070: 3f6e db3c 9d06 263d ea3c a53c 6331 e43c
00000080: 66eb c7bc dfa4 183b aaf2 793c 0c4f 513d
00000090: 5edb b43c 1dda 013d 311b c53c 509c eebc
000000a0: 39ae e839 371c b5bb c942 823d 160d dd3b
000000b0: 3938 633d f514 953c 3779 1bbd 633a 4cbc
000000c0: 8b7d afbc ada7 b83c ec04 8cbc 5906 753c
000000d0: 8a76 0e3d c323 02bd 4a2a 383c 5b82 93bc
000000e0: 86a0 c23c fba6 2dbc b715 06bd 840b 373c
000000f0: 730c 2abc 6214 1d3b 4db5 293d 2936 eabc
00000100: 0e27 433b 7e4b 25bb b685 0dbd 24db 5dbc
00000110: 6b8a ef3c 2740 a6bc f16d ca3c 9526 4fbb
00000120: d741 80bd 848c b6bc c6f9 2a3d bbbc 303b
00000130: cdd8 ea3c d286 c03c d3cb bfbb 1082 593d
00000140: 0271 3abc cdd1 1abc f0b1 e3bc 20ec 973c
00000150: dd60 cc3c c2e2 45bc 63a1 0cbd 7265 a23b
00000160: c7ca b53c 156d 1ebc 0db7 30bd ab2f 13bc
00000170: b521 2cbb cd0f 92bc cb11 423c 9521 70bd
00000180: 51a2 a33c a0fd cfbc 5ea6 01bd a967 15bc
00000190: 33c9 263c e16e 9ebc 243c fbbb c32b ec3c
000001a0: 8051 5a3d 20f0 253c 0c9c 21bb 932a e3bc
000001b0: 3b34 503d 5bf4 36bd 3542 00bc 699e 093d
000001c0: 0cd3 323a 37d5 fabb c7ab 35bc 86c7 1fbd
000001d0: d69f 31bd 94cd fdbc 8a0b 7fbb 8734 36bd
000001e0: 2ce9 05bc 1efb 503c e032 623d 384a 4a3c
000001f0: cc90 483d 48df 063d db78 7b3b 5827 2b3d
0.01699205 0.045139186 -0.00027058765 0.041517448 0.026262602 -0.02835232 0.0069044176 -0.048572917
-0.022493403 -0.056434665 -0.06203664 -0.00405739 0.041405708 0.010901099 -0.024417594 -0.03963011
0.0062166057 0.009203707 -0.015383602 0.0077696647 -0.026235789 0.010474712 0.042572618 -0.014680283
0.025627801 0.0028002097 0.012509732 -0.015576427 0.026785968 0.04053365 0.020170648 0.02785558
-0.024404239 0.002329163 0.0152556095 0.051100776 0.022077259 0.03170215 0.024060817 -0.02912727
0.00044380294 -0.005527045 0.063603945 0.0067459447 0.05547354 0.01819847 -0.037957396 -0.012465092
-0.021422168 0.022540892 -0.01709219 0.014955127 0.034781016 -0.031772386 0.011240551 -0.018006494
0.023758184 -0.010598893 -0.032735553 0.011172179 -0.010378945 0.0023968448 0.041432668 -0.028590279
0.0029777917 -0.0025221999 -0.034551345 -0.013541017 0.029240808 -0.020294262 0.024710627 -0.003160869
-0.06262558 -0.0222838 0.04174211 0.002696796 0.028667832 0.023501787 -0.005853155 0.053102553
-0.011379482 -0.0094494345 -0.027794808 0.01854521 0.024948532 -0.012077989 -0.034333598 0.004955941
0.022191418 -0.009669562 -0.04314332 -0.008983533 -0.0026265208 -0.0178298 0.0118450625 -0.058625776
0.01997486 -0.025389493 -0.0316528 -0.009118953 0.010179806 -0.01933998 -0.0076670814 0.028829461
0.05330038 0.010128051 -0.0024659662 -0.027730262 0.05083106 -0.04466663 -0.007828285 0.033598337
0.00068216096 -0.0076548117 -0.011088318 -0.03900864 -0.043365322 -0.030981816 -0.003891679 -0.044483688
-0.008173268 0.0127551835 0.0552243 0.012346797 0.048966214 0.03292778 0.0038371596 0.041785568

fc1.weight f4 [100, 128]
00000000: 8a60 383c 2419 78bd b187 c63d b9b8 963d
00000010: 46a6 553d 01a2 d9bc 185c 3f3d 085c 03be
00000020: 7ee9 7bbb 1685 9dbc d9fa 53bd 2e51 873c
00000030: 58f1 c5ba 05a0 793c 039f 013d 8895 d1bd
00000040: 73e8 cb3d 58be e0bb 1fdb 103d 37cc 29bd
00000050: ef2e 82bd afb2 c5bc 0551 653d ce58 4abd
00000060: 5d20 25bd 4f73 e7bc b32c 52bd 7661 aabd
00000070: a89f 603b 60e0 0d3c 4363 273d ee82 a23d
00000080: 80ac f1bd 36de 803d 4ccc 27bc 030d 303d
00000090: 619e 3fbd b54c 1a3d 58ad 3dbd b205 3cbd
000000a0: e662 0abd 76df 2bbd a538 e53d 4939 e2bc
000000b0: c660 35bd 43c2 9abd 9f98 f6bd dea4 4cbb
000000c0: 6288 8bbd 7db5 1ebd 825a aabd 72dd 09bd
000000d0: b63a aebd f581 143d afe1 6dbc 2ae8 f43c
000000e0: 669a a3bd 5f44 39ba 7e70 d1bc 82b1 c7bd
000000f0: 5e05 4a3d 389f 813d 9959 d6bc 94a7 963d
00000100: 3c91 a7bd ab3f 21bd 4bb7 06bd 7554 a93c
00000110: 2d46 433d b55d b43c d8e0 ad3b 4049 ec3c
00000120: d95d 9cbd dbbe 6f3d 24ec c0bc 8dca a73b
00000130: 270f dc3d 9fd1 0c3d cb1f dd3b 6dbb bc3b
00000140: b7e7 38bd e029 ce3c ecf4 2ebd dd71 473d
00000150: 9689 22bd d832 a4bb c040 2c3d b464 52bd
00000160: edba 3f3d d924 273d a64d a2bd 5aa1 61bc
00000170: d24a dbbd cb02 8ebc 5cd1 593d c44b e0bd
00000180: 088c 6ebd 2d2a d0bd 1cc1 8ebd 3a9d d33d
00000190: f139 bd3d ff96 b43b dbbe 553c 7238 88bc
000001a0: d608 ce3d 59d9 3fbd 6e9b f9bd 7ef1 a9bd
000001b0: 8c4f 3cbd d93c 643b 1786 a63c db40 ec3c
000001c0: dabc 91bd f7b6 a83d ec88 903d fedd d33b
000001d0: f31c 7bbd 0e9e 813c b276 953d 0773 533c
000001e0: 85fb a2bd 8151 87bc 98ab 62bd 8bc1 74bc
000001f0: 2b57 87bc 7e5e 863d e1d3 0f3b b5b0 b13d
00000200: 89a6 0a3d dbf4 ef3c e9b7 b93d 04c3 573d
00000210: f1e9 c23d a62b 69bd 1d2d b9bd 9763 33bd
00000220: f810 5cbd 696b efbc ce46 533c 7fc0 c83c
00000230: 7b24 b43d 073f 59bc fa90 213d ecf4 febd
00000240: 9c4f b83d 8fbe 293d e4d1 183d 48ca 01bc
00000250: aa5d 4dbc e069 dd3c e0d5 90bd aa30 283c
00000260: c684 df3d 51ab ccba 0a6d 4abd 40de 80bd
00000270: 25e6 3ebb 519e c9bc 269a ef3c 5df8 20bd
00000280: a70c 193d 43b9 cf3d 68c9 81bd 2531 c73d
00000290: 0285 0bbd 0a81 20bd b6aa 86bd 6315 5abd
000002a0: 7cc0 18bd 2f15 6bbd 863d aabc fd27 4ebc
000002b0: 3b1a 673d d9a6 cfbd 4b69 b5bd b0ff b0bc
000002c0: d94f 9cbd ba0d 663c 3eaa 4e3d c747 eebd
000002d0: 284f abbd 61d0 aabd 2b75 22ba 7bd4 d1bd
000002e0: 147e 883c 2253 c7bd 0953 9ebd 655d 043d
000002f0: 2f7a aabb 13d2 92bd 9f58 05bd 97c7 613d
00000300: a958 ae3d ee7d 423d 2cc4 243d e5f5 13bd
00000310: ec55 a93d d689 7b3d 83de 74bd 8166 5c3d
00000320: d325 533d dbd0 fc3c d77a a13d 62a4 47bd
00000330: ae05 963d cbcf a23c 9f3a 593c ab3a 233c
00000340: 5d17 9abd 08ce bebc 755b abbd 06da 673d
00000350: 704b f2bc 056e 41bd f0b8 913c d304 433d
00000360: 033b 37bd 31bc d3bd 841d 91bd 6137 cbbc
00000370: 44aa 7b3c ab57 1a3d 8568 203d dc2d 91bd
00000380: b618 8d3d dba0 84bd 883d 55bc faa2 7ebd
00000390: 7079 90bd 06bb 91bd a6d1 3abc 5c82 c13c
000003a0: 22b8 583c 41bc 19bd 3e95 82bd bfe8 8c3b
000003b0: e6a8 2cbd bea2 c2bd 8c43 d1bd 7853 923d
000003c0: bbea 9fbc c90b 3bbd 4389 14bd 8c83 0bbc
000003d0: 5c4f 7fbc ef04 053d f2c5 8a3d f79c 02bc
000003e0: 49a5 303c 27ac f9bc 3171 ad3c 63b6 223d
000003f0: 179a dfbc 397a fabc 82a1 e23c 5d31 c03d
0.011253485 -0.06057085 0.0969385 0.07359452 0.052160524 -0.026566507 0.046718687 -0.12828076
-0.0038438733 -0.0192285 -0.0517529 0.016518202 -0.0015101833 0.015235906 0.031645786 -0.10233599
0.099564455 -0.0068586282 0.03536522 -0.04145452 -0.06356608 -0.024133055 0.05598547 -0.049401097
-0.040314067 -0.028253226 -0.05131216 -0.083193704 0.003427485 0.008659452 0.040866148 0.07935129
-0.1180048 0.062923834 -0.010241579 0.04298116 -0.0467819 0.03767081 -0.04630789 -0.04590387
-0.033785723 -0.041961156 0.11192445 -0.027615206 -0.044281743 -0.07556584 -0.12040829 -0.0031226198
-0.06813122 -0.0387473 -0.08318044 -0.033658452 -0.08507292 0.03625675 -0.014519139 0.02989586
-0.079884335 -0.0007067378 -0.025566336 -0.09750654 0.049321525 0.06329197 -0.02616577 0.07356182
-0.08181998 -0.03936736 -0.032889646 0.020670155 0.047674347 0.02201734 0.0053063445 0.028843522
-0.076350875 0.058531623 -0.0235501 0.0051205815 0.107450776 0.034379598 0.006748175 0.0057596476
-0.045142855 0.025166452 -0.042714044 0.048692573 -0.039681993 -0.005010944 0.042053938 -0.05136557
0.046809126 0.040806625 -0.079249665 -0.013771379 -0.1070763 -0.017335316 0.053178176 -0.10951951
-0.058239013 -0.101642944 -0.069704264 0.10332723 0.09239567 0.005511164 0.013045992 -0.016628478
0.10060279 -0.04683814 -0.12187849 -0.08298014 -0.0459743 0.0034826307 0.02032761 0.02883952
-0.07116099 0.08238023 0.07057366 0.0064656725 -0.061306905 0.015822437 0.0729803 0.012905843
-0.0795813 -0.016518356 -0.055339426 -0.014938722 -0.016521057 0.06560992 0.0021946358 0.08676282
0.033850227 0.02929156 0.09068281 0.052676216 0.09517277 -0.056926392 -0.09041808 -0.04379615
-0.05372712 -0.029226022 0.012895299 0.024505852 0.087960206 -0.013259656 0.0394449 -0.12449059
0.08999559 0.041441496 0.037309542 -0.007921763 -0.012534538 0.027028024 -0.070720434 0.010265509
0.109139964 -0.0015615021 -0.049420394 -0.06292391 -0.0029128876 -0.024611624 0.029248308 -0.039299358
0.03736558 0.10142758 -0.06337243 0.097261705 -0.034062393 -0.03918556 -0.06575529 -0.053243052
-0.037292942 -0.05739325 -0.02078129 -0.012582776 0.0564215 -0.101392455 -0.08857974 -0.021606296
-0.07632417 0.014041359 0.050455324 -0.11634784 -0.08364707 -0.08340526 -0.0006197269 -0.102456056
0.016661681 -0.09732653 -0.077306814 0.03231563 -0.0052025537 -0.07168975 -0.03255522 0.055121984
0.08513004 0.047483377 0.040226147 -0.036123175 0.082683414 0.061410747 -0.059782516 0.053808693
0.051549744 0.030861309 0.07884758 -0.048740752 0.07325302 0.019874474 0.013258605 0.009962718
-0.075239874 -0.023291603 -0.083670534 0.056604408 -0.029576987 -0.047224063 0.01778838 0.047612023
-0.044734012 -0.10338629 -0.07085708 -0.02480668 0.015360419 0.037681263 0.039162178 -0.07088825
0.06889479 -0.06475993 -0.0130151585 -0.062167145 -0.07054412 -0.0711575 -0.011402523 0.02362173
0.013227494 -0.03753305 -0.06376122 0.0043002064 -0.04215326 -0.09503697 -0.10217962 0.07144827
-0.019521108 -0.045665536 -0.036263715 -0.00851525 -0.015582886 0.03247541 0.06776036 -0.007971994
0.010781595 -0.030477596 0.021172138 0.03972472 -0.027295155 -0.030575858 0.027664904 0.09384415

fc1.bias f4 [100]
00000000: d3b8 a9bc 8868 ad3c e08a 5bbd dee1 e13d
00000010: 9f75 92bd 88b8 1e3b 7ad8 a53d 1298 543d
00000020: fcf0 d53c 42e8 d23d 3d3f 39bd 6d1e ba3d
00000030: 1401 773c 95f5 db3c 2714 febc 9f37 b43d
00000040: 74a8 dbbb add5 3a3d cd27 3c3d 8f56 c13d
00000050: d4e2 9abd e196 d73d 87ad 1f3d 918e 973d
00000060: 6554 25bd a0a4 843d d6fd e9bd e6ca 823d
00000070: 9156 a13c 5262 b63d d208 cdbc 5e30 babc
00000080: d0a3 013d 20fd 16bd 87a3 8c3d 05c2 a2bd
00000090: d3f1 d93c 156f c4bc 4e66 843d 6c99 c63d
000000a0: 9131 dfbd 716a 8fbd cb6f 78bd 93db 0b3d
000000b0: f9d9 673d 88c4 083d eb98 33bd 516b 2dbd
000000c0: 8b07 e239 5d8f 833d 0d0b 8e3c 176e ddbc
000000d0: 622e 833d e347 1bbd 128f e13d 40e7 80bc
000000e0: 1271 2abd 90d0 cbbc ffd3 e03d 4962 27bd
000000f0: 666e c33d 3b66 8abd d8d3 7b3c 3283 9a3d
00000100: 33e9 a33a 0935 8ebb 5217 a3bc 074d a3bd
00000110: 34c0 8f3d cda5 0d3d d113 4f3d a978 393d
00000120: d44e 233d 868c e5bc e3ad 4e3d 9099 eb3c
00000130: 84c5 20bc 8f08 163b 5c4d b13d d7cf f83c
00000140: bafc 053d 816f a53d b185 853d 6cba 19bd
00000150: fe40 123c b258 943d 8022 88bc 4206 9b3d
00000160: 4643 d3bc b4c1 b03d 9e64 f43d 6cbb 8bbd
00000170: 82b8 8a3d a4d8 ac3b be31 42bb e395 a2bd
00000180: cf52 203d 8b48 4ebd 69aa 013d 3a92 6b3d
-0.020718014 0.021168008 -0.05359924 0.11029409 -0.07151341 0.0024218876 0.0809793 0.051902838
0.026115887 0.10298206 -0.045226324 0.090878345 0.015075941 0.026850501 -0.031015469 0.087996714
-0.006703431 0.045613933 0.045936394 0.09440338 -0.07562795 0.10526825 0.038983848 0.07400239
-0.040363688 0.06476712 -0.114253685 0.06386356 0.019694598 0.08905472 -0.02502862 -0.022728141
0.031650364 -0.036862493 0.06867128 -0.079471625 0.026604569 -0.02397875 0.064648256 0.09697232
-0.10898126 -0.07002724 -0.06065349 0.03414495 0.05660436 0.03339055 -0.043847006 -0.042338673
0.000431117 0.06423829 0.017339254 -0.027030034 0.06405331 -0.037910353 0.110136166 -0.015735269
-0.04161174 -0.024879724 0.10977935 -0.040865216 0.09542541 -0.0675778 0.015370332 0.07544555
0.0012505412 -0.0043398184 -0.01990858 -0.07973676 0.07019082 0.034581948 0.050556008 0.045281086
0.0398701 -0.028021108 0.0504588 0.028759748 -0.009812716 0.0022893285 0.08657333 0.030372543
0.032711722 0.08077908 0.0651964 -0.0375313 0.008926628 0.0724348 -0.016618013 0.07569553
-0.025788914 0.08630696 0.11933254 -0.06822857 0.06773473 0.005274849 -0.00296317 -0.07938745
0.039141472 -0.05036215 0.031656656 0.0575125
