weights.pt (torch, 469301 bytes, 16 tensors)

conv1.weight f4 [8, 3, 3, 3]
0.16860862 0.09429757 -0.051886328 0.14397071 -0.16818324 0.16193442 0.10377116 -0.14459768
-0.15946814 0.15958215 0.19890927 0.029005066 -0.06433227 0.12147782 0.0950304 -0.015505538
0.16256464 0.13438138 0.04741885 0.09942503 -0.17995268 -0.09002821 0.022410147 0.05061132
-0.028663505 0.070611775 0.05738413 -0.17271432 0.06733544 -0.009238457 -0.1260995 0.013057042
-0.04167557 -0.096714295 -0.1704882 0.16761911 -0.12204077 0.023088505 0.15143768 -0.027855266
-0.12977906 -0.19160566 0.027729876 -0.1029787 0.011336679 0.065627396 -0.049066387 0.13586709
-0.0196519 -0.07147624 -0.12271087 0.06316822 -0.11510244 0.04637034 -0.023696192 0.1310406
-0.10023845 -0.09784488 -0.034691524 -0.12928674 0.06757311 -0.08340785 0.0657269 0.117194965
0.11517998 -0.037356187 0.10617647 -0.110126145 -0.20291394 -0.020886337 -0.15280154 -0.16289525
0.049512696 0.16316573 -0.08130514 -0.013887316 -0.14874125 0.02296409 0.0491917 -0.041606396
0.13424282 -0.1550212 -0.024051722 -0.10410044 0.1725501 0.16796876 0.19404627 0.18272965
0.08168803 -0.14339086 -0.13259107 0.045865633 -0.17038561 0.12330587 0.08663785 0.049034875
-0.16403562 0.143609 -0.018241696 -0.081773795 0.10093388 0.017403908 -0.08281629 0.048824802
-0.124913886 0.18424855 0.17350034 0.09203586 0.117054686 -0.17785265 -0.09433169 -0.16876918
-0.088183984 -0.14462213 0.16633627 0.12681046 0.13700403 -0.079678826 0.14849418 -0.026319137
-0.044009868 0.104935646 0.13380453 -0.117043495 0.20286906 0.0006628981 0.06780163 -0.17569016
0.036129463 -0.07803347 -0.106916 -0.0645611 0.024474803 -0.031104885 -0.09894755 0.13044484
0.050895683 -0.18452024 0.033923637 0.041518975 0.0011291889 0.039486818 -0.022631919 0.07807906
-0.13526952 -0.081005305 0.14604802 -0.11828781 0.09573442 0.17840245 -0.17622997 -0.083106525
0.16494969 -0.018584225 0.032050095 0.02231432 0.073274314 -0.08461843 0.019350609 0.12429425
-0.022195138 -0.18224344 0.065747716 -0.04870623 -0.04100428 0.10079941 0.03221908 -0.11592711
-0.088702835 -0.03083993 -0.047746968 -0.03097082 -0.11828329 0.1488402 0.11057028 0.04689006
0.055680778 0.033935826 0.1521957 0.055033624 0.029234713 -0.10451811 0.063941374 -0.17927499
0.06003398 -0.16624449 -0.079033904 0.10075145 -0.11405118 0.1694291 -0.09272485 0.19036508
0.073937066 -0.075764336 0.12154766 -0.16214053 -0.122530214 -0.12048189 0.04501452 0.036539916
-0.15458234 0.20345095 0.010213883 -0.09683665 0.016132273 -0.08362619 0.053608425 0.08644522
-0.040077385 0.020547401 0.12958391 -0.11637273 -0.037056997 -0.019156346 -0.12599117 0.017937941
00000000: bda7 2c3e 161f c13d c286 54bd 0f6d 133e
00000010: 3a38 2cbe 23d2 253e f985 d43d 6a11 14be
00000020: 9e4b 23be 8169 233e dfae 4b3e 089c ed3c
00000030: a3c0 83bd 5dc9 f83d 4c9f c23d f10a 7ebc
00000040: 5877 263e 469b 093e 453a 423d 5a9f cb3d
00000050: 8445 38be b660 b8bd 7c95 b73c d14d 4f3d
00000060: bacf eabc e89c 903d 9f0b 6b3d 06dc 30be
00000070: 2ae7 893d e65c 17bc 3a20 01be 34ed 553c
00000080: 01b4 2abd 2512 c6bd 7594 2ebe 58a4 2b3e
00000090: 83f0 f9bd 1b24 bd3c 7b12 1b3e ba30 e4bc
000000a0: cde4 04be 4634 44be c429 e33c 7fe6 d2bd
000000b0: 7abd 393c a867 863d d6f9 48bd be20 0b3e
000000c0: 05fd a0bc 2362 92bd d64f fbbd 575e 813d
000000d0: d4ba ebbd d3ee 3d3d 841e c2bc 822f 063e
000000e0: d149 cdbd e562 c8bd b318 0ebd be63 04be
000000f0: c563 8a3d bcd1 aabd d39b 863d ea03 f03d
00000100: 7be3 eb3d cd02 19bd 0d73 d93d d189 e1bd
00000110: acc8 4fbe d319 abbc 0278 1cbe 03ce 26be
00000120: d3cd 4a3d eb14 273e 4f83 a6bd a087 63bc
00000130: a04f 18be 301f bc3c 3c7d 493d 786b 2abd
00000140: f376 093e e1bd 1ebe 1e08 c5bc 9d32 d5bd
00000150: f9b0 303e 0100 2c3e 11b4 463e 7b1d 3b3e
00000160: 0e4c a73d 0ed5 12be f4c5 07be 9add 3b3d
00000170: 9179 2ebe ca87 fc3d 2f6f b13d cbd8 483d
00000180: f4f8 27be 3d0e 133e 9c6f 95bc 0579 a7bd
00000190: 6cb6 ce3d a492 8e3c 969b a9bd 84fc 473d
000001a0: dad2 ffbd a7ab 3c3e 13aa 313e 4c7d bc3d
000001b0: 5eba ef3d 011f 36be f930 c1bd d4d1 2cbe
000001c0: ce99 b4bd d317 14be 0e54 2a3e 9ada 013e
000001d0: c94a 0c3e a72e a3bd dc0e 183e 3b9b d7bc
000001e0: b143 34bd 80e8 d63d 0e04 093e 80b4 efbd
000001f0: e8bc 4f3e 57c6 2d3a 95db 8a3d 1fe8 33be
00000200: 7dfc 133d 03d0 9fbd c7f6 dabd 9c38 84bd
00000210: 627f c83c accf febc 03a5 cabd 5593 053e
00000220: fe77 503d e0f2 3cbe 83f3 0a3d cd0f 2a3d
00000230: 4b01 943a eebc 213d 9366 b9bc eae7 9f3d
00000240: 1884 0abe 1ce6 a5bd 9d8d 153e e140 f2bd
00000250: 6810 c43d 22af 363e a175 34be c133 aabd
00000260: 92e8 283e f23d 98bc f646 033d 85cc b63c
00000270: d810 963d 6d4c adbd 2b85 9e3c fc8d fe3d
00000280: 94d2 b5bc 069e 3abe bda6 863d 2f80 47bd
00000290: 1bf4 27bd ec6f ce3d 27f8 033d 316b edbd
000002a0: d5a9 b5bd 05a4 fcbc 5392 43bd 84b6 fdbc
000002b0: 823e f2bd 9169 183e ac72 e23d cb0f 403d
000002c0: 8711 643d 4b00 0b3d 31d9 1b3e f06a 613d
000002d0: a37d ef3c 970d d6bd b2f3 823d dd93 37be
000002e0: 31e6 753d ff3b 2abe 87dc a1bd c756 ce3d
000002f0: aa93 e9bd d27e 2d3e 87e6 bdbd 10ef 423e
00000300: 516c 973d 552a 9bbd fbed f83d 2b08 26be
00000310: 1ff1 fabd 36bf f6bd 2561 383d e1aa 153d
00000320: d54a 1ebe 7255 503e 2158 273c 4b52 c6bd
00000330: d427 843c 3544 abbd 8294 5b3d 310a b13d
00000340: 2f28 24bd 0653 a83c a5b1 043e d354 eebd
00000350: 14c9 17bd c5ed 9cbc d403 01be 97f2 923c

conv1.bias f4 [8]
0.0017129306 -0.1515264 0.04211952 0.18501717 0.12694493 -0.11106296 0.17580853 -0.115560666
00000000: 6a84 e03a bd29 1bbe 8585 2c3d 2475 3d3e
00000010: dafd 013e fa74 e3bd 2707 343e 12ab ecbd

conv2.weight f4 [16, 8, 3, 3]
-0.055356935 0.056655377 0.09821483 0.11632962 0.10467768 -0.061149992 0.031066898 -0.07004735
0.0077010547 0.096063025 0.057072278 -0.10931006 -0.05088004 -0.09832831 0.05603474 -0.015202047
-0.08623529 -0.03889242 0.05424184 0.034343433 0.12703578 0.019428492 0.051696185 -0.030576361
0.027846076 0.009814616 0.10509718 0.04707952 -0.07041514 -0.10940929 -0.11592032 -0.048027333
0.011414515 0.10789729 -0.014176458 0.04490443 0.07952918 -0.080354325 -0.08200672 0.06187149
0.07967243 -0.028709063 0.045566846 -0.08333805 0.03293414 0.029303677 0.00056435616 -0.019492608
0.047691494 -0.03385425 0.08933617 -0.102619246 -0.06576239 -0.094596475 -0.094282344 0.096023835
-0.017952323 -0.079679936 0.03649286 -0.078480035 0.01809284 0.06856281 -0.011079053 0.09761332
0.0633262 -0.05895225 0.061118208 0.107277736 -0.015914813 0.049042996 0.03871055 0.035576455
0.028042475 -0.11617615 0.087528184 0.051961567 0.014336661 0.020592598 -0.09391816 -0.033988245
-0.0051027834 0.031318318 -0.060549635 0.015714968 -0.03666858 0.08807749 -0.0979712 0.013200719
0.08248948 -0.089144394 -0.008944809 0.05471924 0.046869747 0.01596765 0.056846056 -0.07937608
0.108997874 0.0067426795 0.0681092 0.025234671 -0.013901452 0.04902683 0.11228242 0.115170844
-0.10155309 0.0054340786 -0.08835269 0.066968605 0.11130838 -0.06574152 -0.014234479 0.07119068
0.07097417 -0.09445302 0.06948637 -0.023891872 -0.099767625 0.021238137 0.053654168 0.072194204
-0.07843574 -0.084379226 -0.077404656 0.06630034 -0.10245137 0.00219872 -0.028778045 0.05485974
0.025741197 -0.05356806 0.026755562 0.11505149 0.024830462 -0.050908457 0.011181492 -0.13036904
-0.06685714 -0.010636156 -0.05306528 0.12644672 0.038010396 0.118436486 -0.005927118 -0.04150836
0.025423057 -0.03888291 -0.04323917 -0.12037431 0.08428384 0.10293503 -0.12031887 -0.042596985
-0.094273984 -0.045523833 0.091367826 0.06366124 -0.007895243 0.050697625 0.03662725 0.06543491
-0.09440323 0.037170555 -0.11338629 -0.08293241 -0.049972557 -0.02383055 -0.11842211 -0.0035037738
0.0138364155 -0.05007309 0.028505234 0.10532796 -0.017188348 -0.058749005 -0.10003039 -0.080910884
-0.06208155 -0.08223791 -0.041122265 0.06822908 0.017666135 0.08959074 0.094415404 -0.052728903
-0.054103464 0.0028321305 -0.11403107 0.042419836 -0.036195304 -0.09987665 -0.089375004 -0.07955782
0.032050893 0.087851696 0.094207875 -0.03218916 -0.069283806 -0.052495316 -0.09111395 -0.03919476
-0.115810566 0.05287211 -0.11996253 -0.08247308 0.07157875 -0.09882086 0.018730609 0.06068823
0.08708664 0.031423368 -0.06032976 0.039726816 -0.030961176 -0.056686997 -0.016891923 -0.0053502936
0.08424583 0.054407045 0.0619919 0.022276666 -0.0012402983 0.05454783 0.033783484 -0.10900241
0.023504484 -0.0540513 -0.064774856 0.043444395 0.022444008 0.019247456 -0.056434296 0.051878262
0.10960422 0.013365975 0.06571028 -0.08725664 0.08834771 0.06544149 0.07715676 0.06350692
-0.0105201965 0.0033847347 0.11999893 0.085603796 -0.08474669 0.09304769 0.1160796 0.012256454
-0.09471934 0.0222196 -0.025581958 0.08342153 -0.0922713 0.050752528 0.013558343 0.025965655
00000000: f4bd 62bd 780f 683d db24 c93d 393e ee3d
00000010: 4061 d63d 6a78 7abd 0280 fe3c fc74 8fbd
00000020: 2159 fc3b b1bc c43d 9fc4 693d f4dd dfbd
00000030: 9767 50bd 5a60 c9bd af84 653d 0212 79bc
00000040: 219c b0bd a84d 1fbd b12c 5e3d b3ab 0c3d
00000050: ab15 023e 8028 9f3c 61bf 533d 477b fabc
00000060: 741d e43c 7ccd 203c 313d d73d 74d6 403d
00000070: d035 90bd fa11 e0bd a267 edbd 4fb8 44bd
00000080: f203 3b3c 41f9 dc3d 6044 68bc b5ed 373d
00000090: 32e0 a23d cf90 a4bd 24f3 a7bd f66c 7d3d
000000a0: 4d2b a33d 452f ebbc 4da4 3a3d 24ad aabd
000000b0: f3e5 063d 440e f03c 4df1 133a f6ae 9fbc
000000c0: 2858 433d c1aa 0abd e2f5 b63d 0a2a d2bd
000000d0: 6fae 86bd ccbb c1bd 1a17 c1bd 25a8 c43d
000000e0: c010 93bc 3c2f a3bd 8a79 153d 24ba a0bd
000000f0: 7037 943c a96a 8c3d eb84 35bc 7ee9 c73d
00000100: 2bb1 813d ea77 71bd 1657 7a3d 6eb4 db3d
00000110: c85f 82bc 4fe1 483d f48e 1e3d 9eb8 113d
00000120: 55b9 e53c c3ed edbd fa41 b33d a7d5 543d
00000130: 51e4 6a3c cfb1 a83c 2a58 c0bd 4237 0bbd
00000140: 4035 a7bb a347 003d e502 78bd adbc 803c
00000150: cb31 16bd f961 b43d 20a5 c8bd d447 583c
00000160: 3ff0 a83d 5691 b6bd 408d 12bc 4821 603d
00000170: 7efa 3f3d 97ce 823c 69d7 683d ed8f a2bd
00000180: 473a df3d b2f1 dc3b d67c 8b3d f1b8 ce3c
00000190: eac2 63bc 5bd0 483d 53f4 e53d b1de eb3d
000001a0: 11fb cfbd 5b10 b23b 41f2 b4bd d626 893d
000001b0: a6f5 e33d 7da3 86bd bb37 69bc 6bcc 913d
000001c0: e85a 913d 9670 c1bd df4e 8e3d e3b8 c3bc
000001d0: f852 ccbd 9afb ad3c 79c4 5b3d 8eda 933d
000001e0: eba2 a0bd 04cf acbd 5586 9ebd 79c8 873d
000001f0: 06d2 d1bd 6618 103b efbf ebbc 9bb4 603d
00000200: 34df d23c 2f6a 5bbd 7b2e db3c 1ea0 eb3d
00000210: 4169 cb3c 6385 50bd 9432 373c 767f 05be
00000220: 65ec 88bd 4643 2ebc fb5a 59bd 407b 013e
00000230: cab0 1b3d d48e f23d 4538 c2bb ac04 2abd
00000240: 0444 d03c b043 1fbd 8e1b 31bd ce86 f6bd
00000250: 029d ac3d 9acf d23d bd69 f6bd 2d7a 2ebd
00000260: b812 c1bd 3377 3abd 0e1f bb3d d360 823d
00000270: 0d5b 01bc 50a8 4f3d 7506 163d bd02 863d
00000280: 7b56 c1bd 2740 183d 1237 e8bd 78d8 a9bd
00000290: 06b0 4cbd 4938 c3bc 4b87 f2bd 929f 65bb
000002a0: 22b2 623c 7119 4dbd cf83 e93c 2fb6 d73d
000002b0: 94ce 8cbc cca2 70bd bcdc ccbd 9bb4 a5bd
000002c0: 3949 7ebd 596c a8bd d26f 28bd b0bb 8b3d
000002d0: 92b8 903c 5a7b b73d dd5c c13d 43fa 57bd
000002e0: 989b 5dbd 449b 393b 1f89 e9bd 6cc0 2d3d
000002f0: 8741 14bd 218c ccbd 3e0a b7bd 36ef a2bd
00000300: cc47 033d 97eb b33d 0ff0 c03d c8d8 03bd
00000310: abe4 8dbd 5405 57bd f399 babd af8a 20bd
00000320: 172e edbd 6d90 583d eaae f5bd a5e7 a8bd
00000330: e197 923d 9762 cabd ef70 993c 3994 783d
00000340: 7b5a b23d cab5 003d 571c 77bd 96b8 223d
00000350: 4ba2 fdbc a030 68bd ee60 8abc 8451 afbb
00000360: 1489 ac3d ecd9 5e3d 38eb 7d3d 8e7d b63c
00000370: 8191 a2ba 8c6d 5f3d 8d60 0a3d a83c dfbd
00000380: 7a8c c03c e564 5dbd aea8 84bd c0f2 313d
00000390: 7fdc b73c d7ac 9d3c a627 67bd 4d7e 543d
000003a0: 2d78 e03d f6fc 5a3c 1c93 863d 9cb3 b2bd
000003b0: a5ef b43d 3006 863d 5d04 9e3d eb0f 823d
000003c0: e75c 2cbc 6dd2 5d3b 00c2 f53d 0b51 af3d
000003d0: ac8f adbd ca8f be3d 24bb ed3d 4bcf 483c
000003e0: 37fc c1bd e105 b63c 4191 d1bc e8d8 aa3d
000003f0: bcf8 bcbd e2e1 4f3d d023 5e3c edb5 d43c

conv2.bias f4 [16]
0.057068173 0.09515816 0.09900884 -0.03179025 -0.07304374 -0.07073013 0.04727043 -0.0459029
0.0073170913 0.015414798 0.06868031 0.0723794 0.06113754 0.001926467 0.05951528 -0.05018557
00000000: 51c0 693d 48e2 c23d 26c5 ca3d 7e36 02bd
00000010: f597 95bd f5da 90bd a39e 413d ae04 3cbd
00000020: 36c4 ef3b 598e 7c3c 43a8 8c3d a73b 943d
00000030: 5b6b 7a3d 8281 fc3a 4bc6 733d 628f 4dbd

conv3.weight f4 [32, 16, 3, 3]
-0.03264719 -0.012762615 -0.047446385 0.075584896 -0.011345739 0.025782967 -0.0012711646 0.00045420238
-0.042158782 -0.0076593217 -0.07664619 -0.041787393 0.06280564 -0.0799358 0.012653287 0.011733028
-0.08195859 0.015769556 0.040828004 0.06248424 0.016981887 0.06797904 0.004589102 0.033083033
0.027698655 -0.060256846 -0.016758787 -0.059042316 0.06390192 0.039456062 -0.03591665 -0.015879324
0.022314008 -0.073635556 0.002280708 0.039770085 0.022840213 -9.296614e-05 0.07062505 0.05022547
-0.060598157 0.06220352 -0.053851034 0.061282966 0.079391226 0.026098475 -0.013382177 -0.019936569
-0.017436441 0.002869684 -0.015697066 0.10253997 -0.015997808 0.052273087 -0.07540911 0.04377966
0.072507784 -0.0578617 -0.02012738 0.020902403 -0.07846025 -0.052049786 0.030185102 0.07660138
-0.02530006 0.0013441597 -0.07914868 -0.078461096 0.07175583 0.07276149 -0.026582122 -0.033477496
-0.0014794875 0.041931376 -0.077027544 -0.042096566 -0.023459803 -0.032883473 0.0018332757 0.06429064
0.022317585 -0.065084785 0.08474339 0.07371538 0.035477363 0.048738092 0.045664072 0.07481293
-0.070833236 -0.041998018 -0.010439745 -0.016694581 -0.056687266 -0.080366805 -0.06411009 -0.011892653
0.06980228 0.055947546 0.0240648 -0.03682914 -0.01770813 0.022204129 -0.0626887 0.010654401
0.036419127 0.091797665 -0.0055279615 0.10119011 0.0057547316 -0.058359936 0.078873016 0.07160801
-0.0659646 -0.04780358 0.039678376 -0.050939243 0.057161927 -0.042622864 -0.028496241 -0.02597773
0.07754092 -0.030668031 -0.018127935 0.048163254 -0.059215643 -0.0022790122 -0.06569444 -0.077790454
-0.019142298 0.0080253435 0.07022704 -0.080680035 -0.02537344 0.022140201 0.030519536 0.06464244
-0.054269604 -0.010314573 0.03932437 -0.055062495 0.053434115 -0.06599454 0.0632939 0.0354005
-0.016510434 0.03343938 0.07673593 0.06740737 0.0562835 -0.042567603 0.029874466 0.06851279
0.020358909 0.056309097 -0.05132248 0.05933796 -0.0026843795 -0.07426766 -0.021016974 0.074236564
-0.028953994 -0.014035069 -0.037520792 -0.048703987 0.010653598 0.04686373 0.0062673376 -0.00833103
0.0003842227 -0.066985466 -0.04866891 0.00889811 -0.062397737 0.045294218 0.016489478 0.004800607
-0.00134723 0.0745818 0.079983026 0.04464814 0.061875783 -0.021054344 0.054602347 -0.03632941
0.05473128 -0.043255623 0.020193297 0.08035585 0.07569297 0.08972243 0.041119263 0.047129385
0.034943756 0.07449397 0.060466453 0.041250993 -0.01446457 -0.024361199 -0.026596127 0.03451731
-0.049806055 0.018124241 0.06857481 0.065955766 -0.06646554 0.018837547 0.049655493 -0.082403846
0.048250902 -0.056178212 -0.065417595 -0.039840054 -0.034938887 -0.03842886 0.020639459 0.028957702
0.031408876 0.05678755 -0.0535182 -0.08017912 -0.06792003 -0.046933904 -0.040265456 0.034771003
-0.06236 -0.038025323 0.063015714 -0.03472082 0.032610193 -0.047034997 0.048681114 0.065993644
-0.056377035 0.04426581 -0.03828003 0.0584849 0.07967009 -0.066295624 0.035243046 0.05997501
0.07923897 0.06556906 0.019664176 0.03779898 0.046790868 -0.016663183 0.015677158 0.032410316
-0.020199196 0.026600435 0.016000241 0.0061720926 -0.020584928 -0.07856717 0.08390178 0.045283288
00000000: 0fb9 05bd 4a1a 51bc 2457 42bd 41cc 9a3d
00000010: 7ae3 39bc cd36 d33c 359d a6ba 0322 ee39
00000020: b0ae 2cbd 0cfb fabb adf8 9cbd 4229 2bbd
00000030: 3ea0 803d 61b5 a3bd bb4f 4f3c e33b 403c
00000040: e8d9 a7bd 282f 813c 443b 273d 79ef 7f3d
00000050: 991d 8b3c 9838 8b3d 2e60 963b 1382 073d
00000060: 4ae8 e23c e2cf 76bd b949 89bc 5bd6 71bd
00000070: 03df 823d ae9c 213d 561d 13bd 5b15 82bc
00000080: decb b63c 3dce 96bd ee77 153b f5e5 223d
00000090: 661b bb3c d1f6 c2b8 dea3 903d 39b9 4d3d
000000a0: c635 78bd 1ec9 7e3d e792 5cbd d903 7b3d
000000b0: de97 a23d 78cc d53c eb40 5bbc 0452 a3bc
000000c0: ded6 8ebc 4f11 3c3b 2297 80bc 7a00 d23d
000000d0: d60d 83bc 4e1c 563d 1770 9abd 4d52 333d
000000e0: f67e 943d 6400 6dbd 2de2 a4bc 843b ab3c
000000f0: c4af a0bd 2832 55bd bf46 f73c 2fe1 9c3d
00000100: 1242 cfbc 842e b03a b418 a2bd 36b0 a0bd
00000110: b8f4 923d fa03 953d c0c2 d9bc b31f 09bd
00000120: 5deb c1ba 3cc0 2b3d 9ec0 9dbd 736d 2cbd
00000130: c62e c0bc d2b0 06bd 864a f03a d0aa 833d
00000140: 5ed3 b63c 2c4b 85bd f18d ad3d 17f8 963d
00000150: b650 113d 98a1 473d 400a 3b3d 8537 993d
00000160: 0411 91bd 1d06 2cbd 770b 2bbc 13c3 88bc
00000170: e830 68bd 5a97 a4bd 274c 83bd 67d9 42bc
00000180: 7ff4 8e3d 4129 653d 8b23 c53c 27da 16bd
00000190: a410 91bc 6fe5 b53c ef62 80bd cc8f 2e3c
000001a0: 392c 153d 6a00 bc3d e723 b5bb c33c cf3d
000001b0: 3092 bc3b d40a 6fbd 2d88 a13d 38a7 923d
000001c0: 7318 87bd b0cd 43bd cb85 223d aba5 50bd
000001d0: a022 6a3d 5095 2ebd f370 e9bc 40cf d4bc
000001e0: c6cd 9e3d 863b fbbc 0981 94bc d546 453d
000001f0: 1a8c 72bd 7b5b 15bb ce8a 86bd 9a50 9fbd
00000200: 4fd0 9cbc bb7c 033c 32d3 8f3d 933b a5bd
00000210: f6db cfbc 5e5f b53c 1b04 fa3c 4163 843d
00000220: ce49 5ebd 74fe 28bc 9712 213d 3689 61bd
00000230: bbdd 5a3d 2528 87bd 3ba0 813d 1d00 113d
00000240: e440 87bc bbf7 083d ba27 9d3d e00c 8a3d
00000250: 8789 663d 5e5b 2ebd 4cbb f43c 6f50 8c3d
00000260: bac7 a63c 5ea4 663d 8537 52bd 5c0c 733d
00000270: 6aec 2fbb a519 98bd ca2b acbc 5709 983d
00000280: ed30 edbc 59f3 65bc 67af 19bd d57d 47bd
00000290: 6e8c 2e3c 2ff4 3f3d 3d5e cd3b df7e 08bc
000002a0: 7f71 c939 ad2f 89bd 0d59 47bd 61c9 113c
000002b0: c594 7fbd 6e86 393d f114 873c 694e 9d3b
000002c0: 8a95 b0ba 58be 983d 24ce a33d f8e0 363d
000002d0: 7671 7d3d 297a acbc b6a6 5f3d 26ce 14bd
000002e0: e82d 603d cf2c 31bd 6a6c a53c 9c91 a43d
000002f0: ea04 9b3d 65c0 b73d ac6c 283d be0a 413d
00000300: 2f21 0f3d 4b90 983d acab 773d cdf6 283d
00000310: cefc 6cbc 2391 c7bc 1fe0 d9bc 0662 0d3d
00000320: 6f01 4cbd 4a79 943c f370 8c3d d113 873d
00000330: 161f 88bd 3351 9a3c 8f63 4b3d 59c3 a8bd
00000340: bda2 453d 201b 66bd a9f9 85bd 532f 23bd
00000350: 141c 0fbd 9567 1dbd 1514 a93c b438 ed3c
00000360: 98a6 003d 109a 683d e635 5bbd f334 a4bd
00000370: a819 8bbd c43d 40bd 64ed 24bd 0a6c 0e3d
00000380: 336d 7fbd 71c0 1bbd 620e 813d 6b37 0ebd
00000390: 4492 053d c5a7 40bd d965 473d ad27 873d
000003a0: 9beb 66bd 1150 353d 85cb 1cbd dd8d 6f3d
000003b0: 122a a33d 00c6 87bd 035b 103d 5ba8 753d
000003c0: 0b48 a23d 1249 863d c416 a13c 1ad3 1a3d
000003d0: c8a7 3f3d 3a81 88bc 626d 803c aec0 043d
000003e0: c978 a5bc 28e9 d93c f012 833c 443f ca3b
000003f0: b9a1 a8bc d3e7 a0bd b2d4 ab3d f87a 393d

conv3.bias f4 [32]
0.075927936 0.0624123 -0.02583277 -0.05523474 -0.047463305 0.004322254 0.01636632 -0.04625476
0.019755045 -0.01543861 0.054918732 -0.035479642 -0.04943532 0.0058615934 0.0006806984 0.041486982
0.074665 -0.04166967 0.072816335 0.04819155 0.06658357 0.019535447 -0.011721554 0.0077930517
-4.4474696e-06 -0.06750447 -0.03126097 0.057067886 0.011806391 0.019438133 0.01287953 0.011213201
00000000: 1b80 9b3d 0aa4 7f3d 3f9f d3bc d33d 62bd
00000010: e268 42bd b2a1 8d3b a912 863c a275 3dbd
00000020: 55d5 a13c 39f2 7cbc 77f2 603d 1a53 11bd
00000030: b17c 4abd 9c12 c03b e570 323a 41ee 293d
00000040: f7e9 983d d1ad 2abd bb20 953d 8164 453d
00000050: f75c 883d cd08 a03c c30b 40bc db5c ff3b
00000060: 793b 95b6 c93f 8abd 810b 00bd 04c0 693d
00000070: 986f 413c b83c 9f3c aa04 533c 93b7 373c

conv4.weight f4 [64, 32, 3, 3]
-0.046381656 -0.020259878 -0.020156132 -0.024064545 -0.049306367 -0.017433954 -0.00948299 -0.03312468
-0.027305549 -0.022195965 -0.013701777 -0.051383086 0.043980096 -0.036033917 0.026246632 -0.056175664
-0.0069616004 -0.009564134 -0.061398625 -0.013182293 -0.058456838 0.0068907994 0.023376916 -0.025912033
-0.00471207 -0.04118215 0.0058363476 -0.061977025 0.0522692 -0.009707049 0.0057521393 0.043271407
-0.05544785 -0.03710208 0.00401274 -0.06496749 0.0061211623 -0.012704059 -0.06288297 -0.021911347
-0.051437188 -0.0027812372 0.035833754 0.048329107 -0.06268098 0.0103936205 -0.05525736 0.01109917
0.023429489 -0.06710936 -0.05214929 -0.063077256 -0.016124954 0.009208547 -0.046872176 -0.007675674
-0.024600198 0.049595494 -0.058331516 -0.03683741 -0.004746701 -0.050189998 0.041532308 -0.07104244
-0.038060028 -0.04182921 -0.017376857 -0.047567163 0.024642156 -0.06836547 -0.051289145 -0.045531582
-0.06280023 -0.06533729 0.013919492 0.04902272 -0.016146315 -0.029823763 0.019175768 0.027696602
-0.059314974 -0.038794357 0.039301664 0.015060599 -0.065208435 -0.010365023 -0.056441776 -0.05560961
-0.039730735 0.048573952 -0.036797196 0.03756443 -0.05570172 -0.00795784 0.050337587 -0.015150935
-0.022454053 -0.028072566 -0.04531984 0.012154116 -0.050853964 -0.045100983 0.04454528 0.036531463
-0.037524454 -0.006303905 -0.023852682 0.03802568 -0.06056373 -0.060591977 0.021459835 -0.0044650272
-0.025202207 0.02198255 0.016708247 -0.048009127 0.026135823 0.022633327 -0.020726813 -0.06313067
0.012258598 0.022079544 -0.07096309 -0.06693654 -0.019914838 -0.063900955 -0.033097357 0.041748267
0.0066433083 0.031343956 0.009371562 0.05267706 0.019758133 0.013128001 0.04023572 -0.037219685
0.030560683 -0.012947597 0.033230864 -0.05488739 -0.06334152 0.021359839 -0.05139612 -0.009562095
0.055716433 0.010817822 -0.04200996 -0.035508547 -0.03290675 -0.040409856 0.031205053 0.008004186
-0.0056904242 0.007445033 0.025085354 -0.0041573085 0.02880453 -0.01768843 0.012861804 0.003328585
-0.0090537155 0.033347074 0.05478644 0.04479334 -0.017388716 -0.021148715 0.044525158 -0.028630182
0.005327731 -0.037141863 -0.017696908 -0.017525734 0.04171597 -0.020905359 -0.020721266 0.030047175
0.0016824978 0.010292918 -0.039510842 -0.021624431 0.026149364 0.023147454 -0.05816107 -0.045130733
0.0129236905 -0.050387606 -0.03526723 -0.03747167 -0.048583947 -0.03185388 0.037815455 -0.057918884
0.03590044 -0.05488812 -0.02007899 -0.023278724 0.034201253 -0.051070325 -0.026107924 -0.05273798
-0.011959729 0.028909344 0.06049247 0.056339085 -0.011944807 -0.027196435 0.01767612 0.036698923
0.050311286 0.037263516 -0.003958849 -0.05180647 -0.03837701 0.03290832 -0.053161673 -0.045290742
-0.03895892 -0.017223535 0.02598156 0.039465092 0.04351169 0.02576778 0.01155733 -0.01736443
-0.037504703 -0.047987238 -0.020781532 0.032854706 -0.038394142 -0.029359598 -0.01811458 -0.048946425
-0.04703762 -0.0024772536 -0.04987408 -0.013677141 -0.02614064 0.003576831 -0.017779179 -0.04074438
-0.028667904 -0.02554759 0.011904528 0.011581707 -0.020780839 0.04407437 0.0033530775 0.0298478
-0.024719601 -0.052108373 -0.05903243 -0.021807218 0.018474652 0.017005509 -0.0012017472 -0.0054481844
00000000: b1fa 3dbd 0bf8 a5bc 791e a5bc 0223 c5bc
00000010: 79f5 49bd a7d1 8ebc 8b5e 1bbc bfad 07bd
00000020: e3af dfbc 50d4 b5bc 6b7d 60bc 1277 52bd
00000030: 7924 343d 4d98 13bd 2d03 d73c 7418 66bd
00000040: 231e e4bb e3b2 1cbc 207d 7bbd 8bfa 57bc
00000050: 7070 6fbd 37cc e13b f280 bf3c 7945 d4bc
00000060: b567 9abb 9dae 28bd d53e bf3b 9fdb 7dbd
00000070: 3b18 563d 500a 1fbc 717c bc3b 5c3d 313d
00000080: 491d 63bd 5af8 17bd 4e7d 833b ad0d 85bd
00000090: 0894 c83b af24 50bc c9c8 80bd 6d7f b3bc
000000a0: cdaf 52bd 6b45 36bb 6ac6 123d bef4 453d
000000b0: e35e 80bd 014a 2a3c 8b55 62bd 4bd9 353c
000000c0: 33ef bf3c a270 89bd 7e9a 55bd a62e 81bd
000000d0: 7b18 84bc 72df 163c 0afd 3fbd 3884 fbbb
000000e0: 5b86 c9bc a524 4b3d 07ed 6ebd d3e2 16bd
000000f0: 378a 9bbb 0794 4dbd c81d 2a3d b37e 91bd
00000100: d5e4 1bbd 1b55 2bbd e959 8ebc c9d5 42bd
00000110: 59de c93c 3203 8cbd 9114 52bd 537f 3abd
00000120: 689d 80bd 8fcf 85bd 950e 643c 0ccc 483d
00000130: 4745 84bc f750 f4bc 8016 9d3c fce3 e23c
00000140: 42f4 72bd d5e6 1ebd c8fa 203d bbc0 763c
00000150: 008c 85bd 0fd2 29bc 7e2f 67bd e7c6 63bd
00000160: b2bc 22bd 7bf5 463d a8b8 16bd 29dd 193d
00000170: 7d27 64bd 9a61 02bc c92e 4e3d a13b 78bc
00000180: 90f1 b7bc 70f8 e5bc 4ca1 39bd 0f22 473c
00000190: 3f4c 50bd cfbb 38bd 1d75 363d 04a2 153d
000001a0: 3eb3 19bd fd90 cebb b366 c3bc d1c0 1b3d
000001b0: ac11 78bd 4b2f 78bd 89cc af3c 5d4f 92bb
000001c0: dc74 cebc c014 b43c bcdf 883c 38a5 44bd
000001d0: cb1a d63c 8769 b93c 47cb a9bc a74a 81bd
000001e0: 49d8 483c 29e0 b43c 1955 91bd 0616 89bd
000001f0: 7124 a3bc 81de 82bd 1891 07bd 3b00 2b3d
00000200: 1cb0 d93b 8562 003d 2e8b 193c e7c3 573d
00000210: cfdb a13c d416 573c 36ce 243d ab73 18bd
00000220: 665a fa3c 2822 54bc 161d 083d 9ad1 60bd
00000230: 33b9 81bd d4fa ae3c bd84 52bd 55aa 1cbc
00000240: ea36 643d 3c3d 313c a312 2cbd 6971 11bd
00000250: 3ac9 06bd ce84 25bd bda1 ff3c fd23 033c
00000260: bd76 babb 77f5 f33b cd7f cd3c 083a 88bb
00000270: 7af7 eb3c 54e7 90bc 51ba 523c 6424 5a3b
00000280: 0956 14bc f196 083d bf67 603d 3979 373d
00000290: c872 8ebc 1240 adbc 0360 363d d889 eabc
000002a0: 3f94 ae3b 1122 18bd 1bf9 90bc 2192 8fbc
000002b0: 5dde 2a3d b741 abbc a5bf a9bc 7e25 f63c
000002c0: 4287 dc3a a1a3 283c 1fd6 21bd b825 b1bc
000002d0: 3137 d63c bb9f bd3c 4d3a 6ebd 01db 38bd
000002e0: e3bd 533c 3c63 4ebd 5f74 10bd e57b 19bd
000002f0: f6ff 46bd 3779 02bd 61e4 1a3d 5a3c 6dbd
00000300: 570c 133d 5ed2 60bd b27c a4bc 06b3 bebc
00000310: 9d16 0c3d 1e2f 51bd 49e0 d5bc c803 58bd
00000320: bdf2 43bc 4ad3 ec3c f4c6 773d d0c3 663d
00000330: 27b4 43bc 0fcb debc 83cd 903c 9c51 163d
00000340: 3513 4e3d a1a1 183d 3bb9 81bb 0533 54bd
00000350: 3631 1dbd e0ca 063d 0ec0 59bd c982 39bd
00000360: 6393 1fbd 5f18 8dbc 48d7 d43c 26a6 213d
00000370: 5039 323d f416 d33c f55a 3d3c d93f 8ebc
00000380: 889e 19bd 448e 44bd 083e aabc a892 063d
00000390: 2d43 1dbd 8a83 f0bc 0765 94bc 0c7c 48bd
000003a0: 85aa 40bd 6b59 22bb c348 4cbd 1616 60bc
000003b0: e524 d6bc 4469 6a3b a4a5 91bc 94e3 26bd
000003c0: f4d8 eabc 2e49 d1bc 360b 433c 33c1 3d3c
000003d0: 943c aabc 5487 343d 4ebf 5b3b 6083 f43c
000003e0: c380 cabc 976f 55bd fdcb 71bd 0da5 b2bc
000003f0: 2758 973c 234f 8b3c f283 9dba af86 b2bb

conv4.bias f4 [64]
-0.0033424136 0.043125648 -0.04398749 -0.059776664 -0.005164816 -0.05112466 0.0076364083 0.052753642
-0.03599557 -0.04168527 0.04346091 0.040487107 -0.013787755 -0.008176307 0.041516315 -0.023999127
0.053757593 0.025161138 0.050603095 0.0056387 -0.017800916 -0.013946037 -0.048380725 -0.048046026
0.050993033 0.054080423 -0.012880763 -0.01650815 0.038348306 0.03463694 -0.01325947 0.0379485
-0.024611002 8.728212e-05 0.03241347 -0.04971568 0.02139324 0.03750252 0.006517722 -0.04613894
0.015115281 -0.048631154 -0.0047292337 -0.009026695 -0.018013578 -0.0012692742 0.017655639 -0.020119786
-0.031716723 -0.042208105 0.03403155 -0.02631397 -0.01777546 0.0133950915 -0.038976543 -0.05127715
0.018607689 0.018437741 0.028638965 -0.048288107 0.00778763 -0.054160126 0.046304546 0.022742307
00000000: 650c 5bbb 85a4 303d 3a2c 34bd 60d8 74bd
00000010: 9e3d a9bb 1768 51bd d63a fa3b 3414 583d
00000020: 1770 13bd 2cbe 2abd 1104 323d cfd5 253d
00000030: 09e6 61bc ebf5 05bc 030d 2a3d d199 c4bc
00000040: ec30 5c3d bb1e ce3c 3145 4f3d d8c4 b83b
00000050: 3ad3 91bc eb7d 64bc de2a 46bd e9cb 44bd
00000060: 12de 503d 6f83 5d3d d609 53bc 1a3c 87bc
00000070: 1d13 1d3d 77df 0d3d 403e 59bc e36f 1b3d
00000080: 039d c9bc 3b0b b738 fdc3 043d aba2 4bbd
00000090: e040 af3c 3e9c 193d 9d92 d53b 2ffc 3cbd
000000a0: 15a6 773c 7631 47bd b0f7 9abb b4e4 13bc
000000b0: 3691 93bc c65d a6ba 8fa2 903c 40d2 a4bc
000000c0: 65e9 01bd 68e2 2cbd ab64 0b3d 6590 d7bc
000000d0: d79d 91bc 1677 5b3c dea5 1fbd fd07 52bd
000000e0: 276f 983c bf0a 973c 439c ea3c c0c9 45bd
000000f0: 602f ff3b 02d7 5dbd d6a9 3d3d 134e ba3c

conv5.weight f4 [128, 64, 3, 3]
0.03526344 -0.025412014 0.017966028 -0.0009179852 -0.0038474263 0.024772434 0.009502221 0.03229995
0.04008728 0.03732916 -0.019213276 0.030349016 -0.00039209175 0.014162928 -0.042233404 -0.023043372
0.025958724 -0.01597727 -0.0044069067 0.017799886 -0.03760797 0.005710741 -0.039286673 0.0019526588
0.015127294 0.020156037 0.02508808 0.0194272 0.02459478 -0.021166189 -0.034707878 0.0380844
0.004959452 0.008920458 -0.015484466 -0.009725446 -0.01539452 -0.027700033 -0.035227213 0.015510034
0.016479762 0.017871598 0.036094427 0.027828187 -0.03237013 0.0073259794 0.0018793241 -0.01574306
0.001942307 -0.027931407 -0.027862368 -0.02939101 0.02604799 0.025752576 -0.038728107 -0.026205176
-0.039532233 -0.025744818 0.002503653 0.02780953 0.01903179 -0.007073572 0.0034237602 0.02117553
0.036472157 0.039723996 -0.0010383495 -0.00319162 0.0073502837 -0.039418116 -0.0037998168 0.0041335947
0.03431958 0.03612077 0.022278681 -0.027478421 -0.042885613 -0.0007964031 0.017435 0.026883287
-0.019073285 -0.015548233 0.0001436194 0.0028232317 0.00094064185 0.019617924 -0.009043836 0.0035110326
-0.0313196 -0.018978655 -0.0046513095 0.033095025 0.028051332 0.027712462 0.018643321 -0.02385119
-0.014436898 -0.020202173 -0.007065947 0.009249244 0.028432135 0.0106226 -0.013048514 -0.03009569
-0.03243983 0.017986963 -0.009963946 -0.037069377 0.008103979 0.028124701 -0.029071556 -0.0038033882
-0.004558973 0.018299384 0.026348172 -0.004674645 0.0016568493 -0.009926627 -0.009057632 -0.017248057
0.0077683753 0.017829848 -0.022941597 -0.03793202 -0.022611985 0.018510872 0.021742882 -0.03962007
0.0011681785 -0.031105852 -0.0264135 -0.017214322 -0.006171417 0.027867485 -0.004391706 -0.026905114
0.038357854 0.022276238 -0.027595486 -0.012506371 0.04294755 0.02114861 0.02965308 0.012304655
0.010308901 0.025682524 -0.022663772 0.03655246 -0.011366997 -0.039711837 -0.0015036532 0.038781308
0.02928577 -0.024509115 -0.020654839 0.0066038407 -0.029002503 0.014315216 -0.004566124 0.029718071
0.021372365 0.00044266635 0.030081809 -0.019615328 -0.020110676 -0.013273133 0.0019078298 0.001026094
-0.014205285 -0.0340725 -0.005968367 -0.031879954 -0.024124598 0.008276738 -0.01645064 0.005506829
0.006366995 -0.011772276 0.02613756 0.02184318 -0.02206836 -0.04120198 -0.04152272 -0.006074301
-0.005667493 0.01816415 0.013793083 0.01751093 0.0009784686 0.011599242 -0.013555444 0.036958583
0.035190273 0.0029506865 -0.03992725 0.0061962893 -0.005109801 0.015090209 -0.023456706 0.028464202
0.02758617 -0.033218864 -0.022961011 -0.024088891 -0.0061642937 0.00046346543 0.0026813105 0.00944253
-0.0374567 -0.0021872064 0.008938385 -0.010154384 0.023928348 -0.016801395 -0.003170479 0.022086682
0.02986115 -0.012591459 0.005768128 0.017412681 0.0268913 -0.024631057 0.00846361 0.020015094
0.033301637 0.016854139 -0.03379247 0.036689352 0.026719475 -0.003793176 0.026900658 0.008600147
0.0029048536 0.038992114 -0.025407804 -0.030672714 0.009508683 0.02593308 0.02550477 0.018355878
-0.002248782 -0.038443692 -0.019344999 -0.013408566 -0.037446737 -0.028129235 0.011759952 0.01716043
0.03245143 -0.004908365 -0.017497817 -0.034411862 -0.010250298 -0.018384414 -0.011624605 -0.029368438
00000000: 6670 103d db2c d0bc 7e2d 933c f2a4 70ba
00000010: 1a25 7cbb 8fef ca3c 34af 1b3c f44c 043d
00000020: 8f32 243d 76e6 183d 2965 9dbc 809e f83c
00000030: aa91 cdb9 a00b 683c effc 2cbd 74c5 bcbc
00000040: 64a7 d43c c4e2 82bc d067 90bb 11d1 913c
00000050: d10a 1abd 2b21 bb3b 10eb 20bd 5bf0 ff3a
00000060: 78d8 773c 461e a53c 8485 cd3c cb25 9f3c
00000070: fe7a c93c b764 adbc d929 0ebd 63fe 1b3d
00000080: e682 a23b 1d27 123c 8fb2 7dbc 7a57 1fbc
00000090: 4c39 7cbc 2eeb e2bc 694a 10bd cc1d 7e3c
000000a0: 9100 873c 7567 923c c0d7 133d f0f7 e33c
000000b0: 8b96 04bd c50e f03b a753 f63a 97f7 80bc
000000c0: 0295 fe3a 68d0 e4bc 9f3f e4bc 6ac5 f0bc
000000d0: 9862 d53c 11f7 d23c 5da1 1ebd 3dac d6bc
000000e0: 8dec 21bd cce6 d2bc 5414 243b d0d0 e33c
000000f0: 8ee8 9b3c 6cc9 e7bb 2a61 603b 4e78 ad3c
00000100: d463 153d a1b5 223d 3a19 88ba 802a 51bb
00000110: a6da f03b e474 21bd 5906 79bb 1b73 873b
00000120: b092 0c3d 5ff3 133d c881 b63c 6d1a e1bc
00000130: d3a8 2fbd b5c5 50ba d8d3 8e3c 573a dc3c
00000140: 943f 9cbc 04be 7ebc 8a98 1639 f805 393b
00000150: 6895 763a c5b5 a03c 992c 14bc 5a19 663b
00000160: fb48 00bd 2079 9bbc 036a 98bb a68e 073d
00000170: e8cb e53c 3f05 e33c e1b9 983c 9263 c3bc
00000180: bd88 6cbc 077f a5bc 7689 e7bb 248a 173c
00000190: 82ea e83c 6a0a 2e3c 6fc9 55bc 3d8b f6bc
000001a0: a1df 04bd 6559 933c d23f 23bc 0fd6 17bd
000001b0: 8dc6 043c c665 e63c 7927 eebc 4442 79bb
000001c0: 7063 95bb 97e8 953c 1fd8 d73c c42d 99bb
000001d0: a32a d93a 4ba3 22bc 7666 14bc cc4b 8dbc
000001e0: db8d fe3b e70f 923c 04f0 bbbc 9b5e 1bbd
000001f0: c53c b9bc 1da4 973c 211e b23c a848 22bd
00000200: 911d 993a b3d1 febc 2061 d8bc 0d05 8dbc
00000210: 9939 cabb 5a4a e43c 4de8 8fbb 1d68 dcbc
00000220: 201d 1d3d a87c b63c ee0f e2bc 86e7 4cbc
00000230: c5e9 2f3d da3f ad3c 04eb f23c 7799 493c
00000240: aae6 283c 2864 d23c 60a9 b9bc 08b8 153d
00000250: a43c 3abc e1a8 22bd 3b16 c5ba 26d9 1e3d
00000260: b6e8 ef3c 57c7 c8bc 5634 a9bc 0865 d83b
00000270: a896 edbc 5e8a 6a3c 6d9f 95bb 5073 f33c
00000280: 1915 af3c ac15 e839 206e f63c 53b0 a0bc
00000290: 25bf a4bc 8e77 59bc 2510 fa3a 007e 863a
000002a0: 49bd 68bc 9b8f 0bbd 4b92 c3bb 8e94 02bd
000002b0: f3a0 c5bc 289b 073c 7ec3 86bc a172 b43b
000002c0: 3aa2 d03b 81e0 40bc 701e d63c 78f0 b23c
000002d0: b5c8 b4bc 68c3 28bd ba13 2abd ee0a c7bb
000002e0: 61b6 b9bb fccc 943c 62fc 613c 1573 8f3c
000002f0: f53f 803a bf0a 3e3c a717 5ebc e261 173d
00000300: ad23 103d 4e60 413b c28a 23bd 3e0a cb3b
00000310: 1e70 a7bb ed3c 773c 4728 c0bc c22d e93c
00000320: 64fc e13c 8110 08bd bb18 bcbc 1156 c5bc
00000330: d8fd c9bb 47fd f239 edb8 2f3b d7b4 1a3c
00000340: 326c 19bd 3c57 0fbb 4e72 123c 935e 26bc
00000350: 6205 c43c 14a3 89bc d0c7 4fbb 21ef b43c
00000360: 5f9f f43c 684c 4ebc 9102 bd3b 0aa5 8e3c
00000370: 254b dc3c 12c7 c9bc f4aa 0a3c b2f6 a33c
00000380: 4c67 083d b111 8a3c f969 0abd 9347 163d
00000390: cde2 da3c ef96 78bb c55e dc3c a2e7 0c3c
000003a0: 5b5f 3e3b 32b6 1f3d 0724 d0bc 5845 fbbc
000003b0: 4fca 1b3c 9c71 d43c 61ef d03c 115f 963c
000003c0: 4d60 13bb 2277 1dbd 6779 9ebc 9aaf 5bbc
000003d0: c061 19bd 486f e6bc d0ac 403c 0894 8c3c
000003e0: caeb 043d 5ad6 a0bb 9557 8fbc 74f3 0cbd
000003f0: def0 27bc e99a 96bc 2175 3ebc 1496 f0bc

conv5.bias f4 [128]
-0.0050954684 0.04144864 -0.038806714 0.020648181 -0.014988551 0.005521808 0.016409751 -0.037135836
-0.030055683 -0.041721806 -0.034035467 -0.0008833693 0.012399839 -0.02488432 -0.02420427 -0.02521654
-0.030699624 0.0009795913 -0.016870873 -0.024996264 -0.029455805 0.012405589 0.035960108 -0.011921938
-0.0085937595 0.004698673 0.020873133 -0.01529081 0.0061413273 0.014629298 0.0021937797 -0.000779579
-0.023157125 -0.035199426 -0.008799468 0.03515652 0.007636663 -0.01048578 0.030027624 -0.032915402
0.00010017461 0.010157482 0.031734407 -0.0070427326 0.04006053 -0.0021028228 -0.036553487 -0.03317957
-0.019073052 -0.0045342054 -0.023345765 0.022440704 0.028636765 -0.02204009 0.0039307056 0.0008917253
0.02914473 -0.03046225 -0.021369884 0.024881126 0.0065291114 0.008954702 0.004553803 -0.03308365
0.011911978 0.004153224 -0.032227848 -0.018783892 0.036455784 -0.031231562 0.016322333 0.010846265
-0.03906176 -0.014964892 0.03264772 -0.029914664 0.01911232 0.009943484 -0.027369993 0.038611025
-0.031207493 -0.0077616274 -0.023562407 -0.007836309 0.036735103 -0.015615877 -0.03308352 -0.023998396
0.023115788 -0.005922371 -0.042240217 -0.027418379 -0.0026496216 -0.03136573 0.008752452 -0.043457277
-0.0027275635 -0.016982382 -0.020333676 -0.03306695 -0.006850374 -0.003880358 0.008658066 0.0261559
0.0326624 0.0063001555 0.0027726446 -0.03566889 0.022050142 -0.034413263 0.011972111 0.032954525
-0.0013861893 -0.021272369 -0.0039649606 -0.041000504 -0.042398486 -0.013242051 -0.0019179088 -0.03424709
-0.0071131387 0.017956516 0.020644711 0.023124805 0.02871782 0.02412652 -0.013794752 0.0128928935
00000000: e3f7 a6bb 0dc6 293d caf3 1ebd 6026 a93c
00000010: 8a92 75bc 48f0 b43b be6d 863c bf1b 18bd
00000020: 5637 f6bc 7ce4 2abd c668 0bbd e991 67ba
00000030: b228 4b3c 34da cbbc 0948 c6bc eb92 cebc
00000040: c77d fbbc a165 803a c934 8abc f7c4 ccbc
00000050: 4d4d f1bc d040 4b3c e84a 133d 3b54 43bc
00000060: d7cc 0cbc 53f7 993b 22fe aa3c 4e86 7abc
00000070: 303d c93b b9af 6f3c 84c5 0f3b a95c 4cba
00000080: 03b4 bdbc 462d 10bd a52b 10bc 4800 103d
00000090: f93c fa3b 8dcc 2bbc 7efc f53c 4dd2 06bd
000000a0: d614 d238 916b 263c f0fb 013d b9c6 e6bb
000000b0: 8316 243d 83cf 09bb 1cb9 15bd 4de7 07bd
000000c0: 173f 9cbc ac93 94bb 9e3f bfbc 91d5 b73c
000000d0: a697 ea3c 6b8d b4bc 26cd 803b acc2 693a
000000e0: eec0 ee3c f88b f9bc e50f afbc 81d3 cb3c
000000f0: 28f2 d53b beb6 123c 1138 953b b982 07bd
00000100: 752a 433c c517 883b 5901 04bd ade0 99bc
00000110: a952 153d 55d9 ffbc 6ab6 853c 88b4 313c
00000120: 39ff 1fbd 4e2f 75bc 9eb9 053d 990f f5bc
00000130: 7191 9c3c ffe9 223c 0937 e0bc 9826 1e3d
00000140: dba6 ffbc 4055 febb f305 c1bc dd63 00bc
00000150: 8c77 163d bcd9 7fbc 9682 07bd 4998 c4bc
00000160: 525d bd3c 7310 c2bb 1404 2dbd 829c e0bc
00000170: 46a5 2dbb 5a79 00bd 7266 0f3c 4200 32bd
00000180: ecc0 32bb a31e 8bbc cf92 a6bc 3671 07bd
00000190: 1a79 e0bb 9b4d 7ebb 90da 0d3c e644 d63c
000001a0: 02c9 053d 8971 ce3b 42b5 353b 8b19 12bd
000001b0: 80a2 b43c ecf4 0cbd ac26 443c 53fb 063d
000001c0: cbb0 b5ba 6443 aebc 80ec 81bb 25f0 27bd
000001d0: 09aa 2dbd 30f5 58bc 5762 fbba ad46 0cbd
000001e0: 5515 e9bb 8b19 933c 191f a93c 3b70 bd3c
000001f0: a241 eb3c fba4 c53c 6203 62bc b73c 533c

fc1.weight f4 [100, 128]
0.012748639 -0.06388135 0.06194469 0.06958352 0.034534022 0.009569712 0.05516433 -0.079420194
0.014261889 0.002002848 0.016275277 0.0013100165 -0.024446296 -0.0006187699 0.08214746 -0.043937977
0.08709188 -0.01039129 0.056310307 -0.04724718 -0.06546102 -0.047838494 0.049057838 -0.017022058
-0.0482306 -0.030392181 -0.037471194 -0.060966417 0.028687356 0.025451262 0.031260602 0.06846252
-0.09041717 0.03828968 0.03791109 0.035026863 -0.070608914 0.020407086 -0.04646806 -0.012181533
-0.019643206 0.0140912365 0.103022054 -0.026882162 -0.049600966 -0.055613 -0.08614327 -0.009169718
-0.07206501 -0.045007985 -0.052466165 -0.034284364 -0.05711062 0.070994206 0.022882238 0.058770496
-0.08531738 0.02212929 -0.0065511633 -0.07153919 0.06920007 0.073600695 -0.032821514 0.08837237
-0.07912638 -0.027838035 -0.045037773 0.0281202 0.056964535 0.003131501 0.048445687 0.07044314
-0.060607348 0.08122143 -0.049754955 -0.00046818386 0.10289372 0.018150128 0.0016582954 -0.009971533
-0.041614495 0.024965106 -0.0030108432 0.024198795 -0.020099994 -0.0064630755 0.06435993 -0.07581017
0.045392107 0.074536614 -0.095182635 -0.008089156 -0.06858116 -0.0063057863 0.04676101 -0.10556295
-0.06837652 -0.07206893 -0.06889276 0.08342468 0.09096444 0.052312687 0.042981368 -0.03196708
0.09018812 -0.049618766 -0.09149707 -0.058832806 -0.051574506 0.040814072 0.058567133 0.031276748
-0.059004273 0.078945324 0.0647581 0.0020701753 -0.03243105 0.05604089 0.07189096 0.06862367
-0.045376107 -0.0031355452 -0.061024778 0.026120543 -0.02420167 0.076312505 0.025476726 0.059277143
0.028398853 0.011700778 0.06186484 0.03512339 0.074067526 0.0415273 -0.08779879 -0.016165918
-0.009806853 -0.018732982 0.08873594 0.020717211 0.061126366 -0.031364437 0.08329683 -0.08273029
0.06506153 0.021526784 0.047756158 -0.026888298 -0.03549767 0.011483639 -0.06494625 0.033456467
0.086272836 0.015534376 -0.043957356 -0.05662896 0.020032628 -0.0037407859 0.0045569814 -0.06686507
0.055205286 0.07364447 -0.0323286 0.07051582 -0.06768753 -0.04730233 -0.07585919 -0.020801323
-0.022864668 -0.023121996 -0.040620916 0.005111084 0.038430337 -0.06792533 -0.055728577 -0.043714494
-0.07743864 -0.0041896217 0.0749818 -0.085476786 -0.06691766 -0.060411982 0.03041193 -0.07608332
0.005936434 -0.059445906 -0.071286604 0.05400453 0.0031415767 -0.07154635 -0.049316406 0.05125779
0.07684686 0.050727163 0.05674062 -0.049064387 0.06077316 0.044559494 -0.040147275 0.078853466
0.057368405 0.05476492 0.045868043 -0.063846335 0.051540174 -0.007593827 -0.012162232 -0.018654319
-0.044305313 -0.03788475 -0.04970817 0.04566675 -0.011559766 -0.03767977 0.028814545 0.016066931
-0.064791724 -0.085829355 -0.07415348 0.0070363684 0.030272674 0.049850676 0.038822453 -0.068923734
0.038264997 -0.05109899 -0.035218507 -0.07666396 -0.08324199 -0.04750257 0.011579469 -0.0020935284
-0.017778998 -0.054662585 -0.03685841 0.03547038 -0.06134106 -0.06599918 -0.07739779 0.084299214
-0.016882382 -0.022771282 -0.030903867 -0.030427607 0.0042590457 0.057879817 0.05597356 0.032504782
0.017001547 -0.056107644 0.004677695 0.056946717 -0.04447075 -0.044548757 0.06043513 0.07345341
00000000: abdf 503c 3ad4 82bd b7b9 7d3d ce81 8e3d
00000010: 8c73 0d3d 48ca 1c3c fef3 613d 0ea7 a2bd
00000020: b3aa 693c 3742 033b bb53 853c dcb4 ab3a
00000030: 9943 c8bc f234 22ba ed3c a83d 4ff8 33bd
00000040: 3a5d b23d 3b40 2abc a3a5 663d 4286 41bd
00000050: 6d10 86bd 4cf2 43bd dff0 483d d871 8bbc
00000060: 738d 45bd 06f9 f8bc 657b 19bd ecb7 79bd
00000070: bf01 eb3c 2a7f d03c 1e0b 003d 1436 8c3d
00000080: a32c b9bd a4d5 1c3d a948 1b3d 5478 0f3d
00000090: 689b 90bd c32c a73c 4b55 3ebd 0d95 47bc
000000a0: caea a0bc eede 663c 3afd d23d fb37 dcbc
000000b0: 622a 4bbd 75ca 63bd e26b b0bd 963c 16bc
000000c0: d296 93bd 4b5a 38bd c3e6 56bd c36d 0cbd
000000d0: d3ec 69bd 6965 913d 8873 bb3c 55b9 703d
000000e0: e1ba aebd 7c48 b53c 24ab d6bb 2483 92bd
000000f0: c4b8 8d3d f6bb 963d da6f 06bd 93fc b43d
00000100: 030d a2bd 970c e4bc 8779 38bd 555c e63c
00000110: a553 693d de39 4d3b fc6e 463d 7e44 903d
00000120: 693f 78bd 6c57 a63d dacb 4bbd 9376 f5b9
00000130: f1b9 d23d 94af 943c 295b d93a a45f 23bc
00000140: f673 2abd 9f83 cc3c 9151 45bb 8d3c c63c
00000150: bea8 a4bc 35c8 d3bb 24cf 833d 5d42 9bbd
00000160: 13ed 393d a7a6 983d 1def c2bd 6188 04bc
00000170: 4774 8cbd c5a0 cebb 7988 3f3d 6331 d8bd
00000180: fd08 8cbd e098 93bd a617 8dbd 8fda aa3d
00000190: 904b ba3d d445 563d 3b0d 303d eaef 02bd
000001a0: 8db4 b83d 0c3d 4bbd d162 bbbd abfa 70bd
000001b0: ca3f 53bd a82c 273d 17e4 6f3d 0c1c 003d
000001c0: 77ae 71bd 16ae a13d e59f 843d c7ab 073b
000001d0: 6cd6 04bd 228b 653d 913b 933d 918a 8c3d
000001e0: 4cdc 39bd b87d 4dbb 1ef5 79bd c0fa d53c
000001f0: 9542 c6bc bb49 9c3d 91b4 d03c 97cc 723d
00000200: b6a4 e83c 9fb4 3f3c fd65 7d3d 8bdd 0f3d
00000210: b7b0 973d 8818 2a3d dacf b3bd 636e 84bc
00000220: ecac 20bc e975 99bc 30bb b53d 24b7 a93c
00000230: a45f 7a3d ff77 00bd 8797 aa3d 806e a9bd
00000240: fb3e 853d f058 b03c f69b 433d d944 dcbc
00000250: 0166 11bd df25 3c3c 8a02 85bd a609 093d
00000260: d0af b03d e583 7e3c a10c 34bd c5f3 67bd
00000270: 771b a43c f927 75bb bb52 953b 8ef0 88bd
00000280: f01e 623d e9d2 963d fe6a 04bd 996a 903d
00000290: c29f 8abd 17c0 41bd 105c 9bbd 8967 aabc
000002a0: af4e bbbc 576a bdbc 1e62 26bd e17a a73b
000002b0: 2169 1d3d 6f1c 8bbd a643 64bd f80d 33bd
000002c0: 2698 9ebd 1849 89bb 0f90 993d 740e afbd
000002d0: 200c 89bd 8e72 77bd 7122 f93c 92d1 9bbd
000002e0: 6b86 c23b 8d7d 73bd b6fe 91bd db33 5d3d
000002f0: e9e2 4d3b e586 92bd 0000 4abd b0f3 513d
00000300: e361 9d3d 49c7 4f3d da68 683d bdf7 48bd
00000310: 47ed 783d 0484 363d 7871 24bd ed7d a13d
00000320: 22fb 6a3d 2e51 603d 21e0 3b3d dec1 82bd
00000330: ca1b 533d a3d5 f8bb 1944 47bc f1d0 98bc
00000340: 7d79 35bd 0a2d 1bbd cb9a 4bbd 0f0d 3b3d
00000350: 2c65 3dbc 1a56 1abd 7b0c ec3c cc9e 833c
00000360: 86b1 84bd 4dc7 afbd c8dd 97bd 5691 e63b
00000370: 66fe f73c 3930 4c3d 4b04 1f3d e327 8dbd
00000380: c2bb 1c3d 2d4d 51bd 4841 10bd ff01 9dbd
00000390: c77a aabd 0e92 42bd d0b7 3d3c 9433 09bb
000003a0: 43a5 91bc e0e5 5fbd d8f8 16bd 6449 113d
000003b0: c340 7bbd 942a 87bd bc82 9ebd 11a5 ac3d
000003c0: ec4c 8abc d78a babc 1b2a fdbc 5143 f9bc
000003d0: 778f 8b3b 6313 6d3d 8844 653d bc23 053d
000003e0: d446 8b3c 21d1 65bd 5a47 993b f640 693d
000003f0: f626 36bd c278 36bd d48a 773d be6e 963d

fc1.bias f4 [100]
-0.052797236 -0.004157798 -0.073097385 0.06354307 -0.09568073 -0.0053881304 0.07278453 0.034088846
0.042739373 0.058482435 -0.061846897 0.059317946 -0.013832434 -0.009558332 -0.07192387 0.07709004
0.010713151 0.019084599 0.016616812 0.061595924 -0.03228324 0.07771106 0.029288106 0.07919514
-0.05103489 0.057467174 -0.063442536 0.059851844 -0.016369559 0.060543846 -0.08291271 -0.05503743
0.017668681 -0.06812879 0.038714003 -0.0910066 0.0060501336 -0.042111598 0.029533194 0.08990188
-0.0589178 -0.084477484 -0.05844007 0.04310224 0.065208375 0.022134282 -0.06257116 -0.07352735
-0.02225456 0.046488736 -0.01407988 -0.013209294 0.0307961 -0.06013812 0.06767348 -0.047262616
-0.08403369 -0.038019665 0.08660515 -0.031853575 0.050722294 -0.0612161 -0.0223666 0.06042943
-0.013016373 -0.04231315 -0.054270882 -0.08520703 0.03111216 0.009116519 0.029367028 0.05000835
0.011188235 -0.06857041 0.031170573 -0.010948373 -0.051370863 -0.023598963 0.07295174 0.018088307
0.019665264 0.05298268 0.012870182 -0.041124616 -0.02168307 0.042874783 -0.04047283 0.055322144
-0.07161681 0.056743503 0.08660921 -0.09052972 0.060694877 -0.012418743 -0.035050347 -0.085972816
0.014130363 -0.06833112 0.0044073146 0.030153854
00000000: ea41 58bd 233e 88bb 15b4 95bd de22 823d
00000010: 42f4 c3bd ea8e b0bb 0e10 953d bfa0 0b3d
00000020: 7b0f 2f3d 478b 6f3d 2c53 7dbd 60f7 723d
00000030: 6fa1 62bc 8d9a 1cbc d24c 93bd 62e1 9d3d
00000040: 3686 2f3c 4e57 9c3c fb1f 883c 024c 7c3d
00000050: 6e3b 04bd fa26 9f3d 9ced ef3c 1031 a23d
00000060: f609 51bd b362 6b3d 29ee 81bd 3527 753d
00000070: 7419 86bc d3fc 773d 24ce a9bd ee6e 61bd
00000080: e9bd 903c 1b87 8bbd 9392 1e3d ab61 babd
00000090: 3340 c63b 367d 2cbd 99ef f13c 7a1e b83d
000000a0: cb53 71bd 8802 adbd db5e 6fbd f98b 303d
000000b0: f88b 853d f452 b53c 4f25 80bd 8295 96bd
000000c0: 324f b6bc f96a 3e3d 4caf 66bc cb6b 58bc
000000d0: 1a48 fc3c 6453 76bd 6598 8a3d 7296 41bd
000000e0: db19 acbd 82ba 1bbd 0a5e b13d e578 02bd
000000f0: 2ec2 4f3d bcbd 7abd 293a b7bc da84 773d
00000100: a042 55bc 8e50 2dbd 254b 5ebd 0681 aebd
00000110: eede fe3c 745d 153c 1f93 f03c 8ed5 4c3d
00000120: dc4e 373c a56e 8cbd 6e59 ff3c ce60 33bc
00000130: 416a 52bd 9d52 c1bc b967 953d ee2d 943c
00000140: 0c19 a13c 5e04 593d 75dd 523c 4972 28bd
00000150: b2a0 b1bc 789d 2f3d d7c6 25bd 7999 623d
00000160: d6ab 92bd e06b 683d 2b60 b13d a567 b9bd
00000170: 319b 783d fc77 4bbc f490 0fbd 8412 b0bd
00000180: 0a83 673c 30f1 8bbd 3c6b 903b 3705 f73c
