weights.pt (torch, 469301 bytes, 16 tensors)

conv1.weight f4 [8, 3, 3, 3]
00000000: b0e7 253e 4309 b43d f116 57bd 0ab7 0e3e
00000010: 77e4 2fbe 5603 1f3e 72b1 c43d c8f7 1bbe
00000020: 3f74 29be 1f0e 273e ab8a 4e3e 130b 2b3d
00000030: de50 67bd d99c 043e b1c8 cb3d b92c 25bc
00000040: d6d4 2b3e 1b8f 103e 4ad8 393d 585d c73d
00000050: a9fe 32be 9a81 b5bd effb c33c 48da 483d
00000060: 3e75 f3bc 3be6 8d3d 742a 6b3d e91a 29be
00000070: eed6 9d3d 4c3a 9bb8 3f3a f1bd 70e0 ac3c
00000080: 12fa 0fbd 5395 b7bd d1ad 29be 2099 333e
00000090: ee8b f8bd 9043 e13c 9422 203e c3a9 d8bc
000000a0: f659 04be e1da 44be 6462 e83c 4402 dbbd
000000b0: 8718 6b3c d0a0 803d 1336 4abd ff42 0b3e
000000c0: afb4 b6bc 9fe2 99bd 64b6 02be 0f11 763d
000000d0: accc f9bd b83f 373d 5e48 b5bc 04d7 063e
000000e0: b992 c8bd 9f14 ccbd c17a 1abd 12e5 05be
000000f0: aaee 853d 583e afbd 1dcf 7e3d 35ec eb3d
00000100: cb3d e53d 2d9c 20bd bdba ca3d 6b7b f8bd
00000110: 79e8 58be 6397 efbc 3eda 27be 5fe5 32be
00000120: 2bff 7a3d 7290 323e 85dd 82bd 9b8b 51bb
00000130: 280e 0abe f2b2 253d 9a37 763d c8e4 d3bc
00000140: 9bf8 173e 2353 22be 1cbd c2bc 6b6d dabd
00000150: b2b7 313e 8e13 2d3e dbf4 473e d302 3c3e
00000160: 0a85 ac3d b0a5 12be cb0b 19be cca8 0d3d
00000170: 6835 3ebe 402d e53d 5f7a 9a3d f25b 1a3d
00000180: 244c 34be dbf7 083e cb0c 02bd 6982 bcbd
00000190: 3133 c23d 442a 003c 19bc b5bd 9380 2e3d
000001a0: 4230 06be 5127 363e 68b0 2c3e 5620 ad3d
000001b0: c80e d53d d198 44be a2d1 d8bd 42d1 37be
000001c0: 91fa c5bd 4974 1bbe 2389 233e a2cb f53d
000001d0: 2208 073e 3b06 b8bd ea84 0c3e e000 09bd
000001e0: a5ab 50bd b329 ce3d 888d 063e 7c4d f7bd
000001f0: c62d 4b3e 914f 82ba 724c 6f3d 1d51 3ebe
00000200: 7188 e53c ea55 b0bd 4374 e9bd 41fc 8ebd
00000210: fb54 9c3c ce8c 19bd 3229 d3bd b67d 053e
00000220: 0213 543d d244 3dbe c6cb 113d c61c 3a3d
00000230: 227f e63b 367c 253d 4eb6 babc 4707 a73d
00000240: d931 11be f69e b0bd 41a8 0e3e 5757 fbbd
00000250: 583e c13d efb7 373e b439 3abe 2b21 b8bd
00000260: 7bd8 263e 3ae7 9cbc fdc1 043d 6015 ad3c
00000270: 389e 973d 050d a7bd 76e9 c63c 447b fe3d
00000280: 7677 c0bc a037 38be 547d 743d f341 60bd
00000290: 2505 45bd c09b c23d d33c de3c 008c fbbd
000002a0: c39a c0bd eeed 11bd 08de 5bbd 4a01 0bbd
000002b0: d127 f5bd 7eb5 143e da5a de3d f78b 383d
000002c0: eb45 5e3d 9632 093d 3444 1a3e cb4b 5b3d
000002d0: a14e f13c 47cf d2bd 739b 823d f383 36be
000002e0: 0039 7b3d b782 28be 97e0 9cbd 14d7 d13d
000002f0: e0e1 e5bd 8e94 263e 1cb7 c8bd f09e 3b3e
00000300: 0fc7 843d 8d6b aebd 62c3 e13d 83f3 32be
00000310: f529 0cbe a71d 0fbe 7007 1b3d 1fcd fd3c
00000320: 6837 26be af3b 463e 069c a239 3746 e1bd
00000330: e658 ab3a 3382 d1bd 9938 e53c 850e a93d
00000340: 5abc 28bd 224e 9d3c 0601 fe3d 4b3e f3bd
00000350: d6cf 22bd b424 cbbc 0de3 03be 7cbd 2d3c
0.16201663 0.08790829 -0.052512113 0.13937011 -0.17176996 0.15528616 0.096041575 -0.1523124
-0.1654825 0.1631398 0.20170085 0.041758608 -0.056473605 0.12950458 0.09950388 -0.0100814635
0.16780409 0.1411709 0.045372285 0.09734601 -0.17479958 -0.0886261 0.023923842 0.049036294
-0.029718991 0.069286786 0.057413533 -0.16514172 0.0770701 -7.4018346e-05 -0.11778688 0.021103114
-0.035150595 -0.08964028 -0.16570212 0.17538881 -0.121360645 0.027498037 0.1563819 -0.026448136
-0.12924942 -0.1922412 0.028367229 -0.106937915 0.0143491095 0.062806726 -0.049367975 0.13599776
-0.022302954 -0.07513928 -0.12764889 0.060074862 -0.12197241 0.0447385 -0.022129234 0.1316796
-0.0979361 -0.09964871 -0.037714723 -0.13075665 0.06539662 -0.08556813 0.062209237 0.11519662
0.11193427 -0.03921144 0.09898899 -0.12132915 -0.21182431 -0.029246992 -0.16391847 -0.1747031
0.061278503 0.17437914 -0.06389908 -0.003197408 -0.13481963 0.04045386 0.06011162 -0.025865927
0.14840929 -0.15852027 -0.023771815 -0.10665401 0.1735523 0.16901991 0.19526999 0.18360452
0.08423813 -0.14321017 -0.14945905 0.034584805 -0.1857506 0.111902714 0.07542872 0.037685342
-0.1760717 0.133758 -0.03175048 -0.09204561 0.0948242 0.007822577 -0.088737674 0.042603087
-0.13104346 0.17788436 0.16864169 0.08453433 0.1040321 -0.1919892 -0.10586859 -0.1795092
-0.096669324 -0.15181078 0.15970282 0.120017305 0.13186696 -0.08985563 0.13722578 -0.0334481
-0.050944943 0.10066547 0.13139927 -0.12075326 0.1984168 -0.0009941926 0.058422513 -0.1858563
0.028019162 -0.08610137 -0.11399128 -0.06981707 0.01908349 -0.037487797 -0.10310592 0.13036236
0.05177594 -0.18483284 0.035594724 0.045437597 0.0070341984 0.04040166 -0.022792008 0.08155685
-0.14179172 -0.086240694 0.13931371 -0.12272518 0.09435719 0.17941259 -0.18186074 -0.08990701
0.16293518 -0.019153226 0.032411564 0.021128356 0.07403225 -0.0815678 0.024281245 0.12425855
-0.023494463 -0.17989969 0.059689835 -0.054750394 -0.04810061 0.09502363 0.027128613 -0.12282562
-0.094045185 -0.035627298 -0.053678542 -0.033936776 -0.11970485 0.14522359 0.10857172 0.045055356
0.054265898 0.033495508 0.1506508 0.05353908 0.029456438 -0.10293441 0.06377306 -0.17823772
0.061333656 -0.16456114 -0.076600246 0.10246101 -0.11224723 0.16267607 -0.0980055 0.18322349
0.0648328 -0.085166074 0.110235944 -0.17475705 -0.1368788 -0.13976155 0.03784889 0.030981598
-0.16232073 0.19358705 0.00031015294 -0.109997205 0.0013072758 -0.10229912 0.02798109 0.082547225
-0.04119525 0.019202296 0.12402539 -0.11877116 -0.03974899 -0.024797775 -0.12879582 0.010604259

conv1.bias f4 [8]
00000000: 4f29 18bc 7432 18be 690c 5d3d 86d3 423e
00000010: 8689 013e 6603 d4bd 7fad 333e 033a f7bd
-0.0092871925 -0.14862996 0.053966913 0.19026002 0.12650117 -0.10352211 0.17546652 -0.12071612

conv2.weight f4 [16, 8, 3, 3]
00000000: 87f2 65bd 8aea 653d 0864 c73d fe0a ec3d
00000010: 4ed8 d33d 83d8 7abd e26d f83c 561b 8ebd
00000020: cdca f53b 9e28 c33d 5115 613d 2e4a e3bd
00000030: ef75 59bd c699 cdbd 6b61 5e3d cb80 7dbc
00000040: 199a b4bd 7fee 26bd d803 a13d a40c 603d
00000050: 2130 0e3e a82b 0f3d a012 7f3d 9b16 e0bb
00000060: 0034 273d e04f d93c a57a 023e 4152 233d
00000070: b93d 9fbd f484 f0bd 10ee f9bd 4bed 64bd
00000080: f5ff 443b ad35 cb3d 7328 abbc 089d 1e3d
00000090: dfd1 b13d 2517 9cbd 6674 bcbd 2e0f 373d
000000a0: 521c 823d bed3 c4bc fba4 173d aa35 abbd
000000b0: 242a e33c c828 d03c cb7d bcbb fbe4 ecbc
000000c0: 1368 2c3d ccc5 2cbd 9b5e 9f3d 8102 d7bd
000000d0: 534b 95bd aada cdbd 006d e8bd 3657 923d
000000e0: 341c 1abd 9b28 ccbd 4a47 733c 5d94 c8bd
000000f0: 5f37 babb fcc1 363d ea39 0fbd 3930 d43d
00000100: 6519 833d 4cc3 89bd 406a 613d 75ec b83d
00000110: 272a 48bd 975f b33c 44d2 a63c cd7c 153d
00000120: 5053 a73c 6f45 01be af9d a63d 6d02 3f3d
00000130: 93ef fb3b 8327 513c 29e1 d0bd 90cc 29bd
00000140: 011e 64bc fa3e 343d 40c7 3fbd 09fd e23c
00000150: f20c d7bc 8e5a cb3d 04f9 abbd 6a24 e03c
00000160: 98f9 c63d e28c 97bd 3ff7 c7bc 37da 0c3d
00000170: efa5 103d 7174 92ba d993 293d e672 c1bd
00000180: 1e30 c93d 0eae f3bb efbe 6f3d b4e7 d73c
00000190: eedd 59bc f4f9 4a3d fee9 e63d 1a69 ec3d
000001a0: c8cc d6bd eb93 1b3b 15a8 bfbd 7d27 873d
000001b0: 93a4 073e c585 0dbd dc1f 8a3c 363f a93d
000001c0: 3e81 a33d e905 a9bd 6693 ca3d 6a7a 823b
000001d0: 938e 8dbd 93d7 983c bdff 6f3d b396 9b3d
000001e0: b1e2 95bd 8283 acbd 805d a2bd da53 843d
000001f0: eed5 d2bd 8c36 7fba 5fb5 bfb9 3c98 a73d
00000200: 11d7 4e3d a72b febc 5a93 643d 83cb 123e
00000210: 4394 5b3d 8750 b5bc b0c1 263d ef34 cebd
00000220: 5e71 69bd d163 ab3c a712 f0bc 5db0 103e
00000230: 937d 953d 1035 063e 6a09 c33b 6669 83bc
00000240: ea78 da3c fa1f 20bd 6672 2bbd f053 f8bd
00000250: 45c2 ab3d 885a d23d 018b f5bd b603 30bd
00000260: b50d c1bd 7119 33bd f55b bf3d 6222 863d
00000270: 36ae a3bb dbef 5b3d ebba 213d 587d 893d
00000280: 923e babd 6951 253d f7c1 fbbd ae67 cebd
00000290: fd53 9bbd c228 22bd 0363 0bbe 0ef6 c4bc
000002a0: 514e f4b9 380c 84bd e66b 263c 0587 e43d
000002b0: fdce 3fbc 4799 5dbd 858d c0bd 5f51 9cbd
000002c0: 0a63 69bd eae1 99bd 4b26 16bd 30de 973d
000002d0: 7e4c 733c cfef ae3d eeb8 b73d 6324 3dbd
000002e0: 7118 5dbd 5031 0bbc 3772 e1bd 621c 4e3d
000002f0: e200 02bd 42b3 c6bd 058f b4bd 109e 9bbd
00000300: ca8d 0d3d b3ec b73d b4c4 c43d ab1a f7bc
00000310: 7a8a 8cbd e7ca 49bd 44b4 85bd e124 95bc
00000320: c997 bebd e619 a43d 1f0b cabd e3dc 7ebd
00000330: 3fbc cf3d 86a8 97bd ee79 433d aeba 8a3d
00000340: 26f2 aa3d 54ca e83c aaf2 7abd 9f16 413d
00000350: ddec 1dbd 57bb 08bd e27a 13bb f46f 46bc
00000360: 9a58 a03d c31f 433d 48b6 5f3d 6e03 6f3c
00000370: 88d7 d0bb e930 433d 762f e23c 0b4e e5bd
00000380: 4442 a73c e9c1 51bd b202 80bd 220d 423d
00000390: c50e d43c 953c 983c 8ac8 69bd a592 5d3d
000003a0: 97f6 dd3d bfbb 343c b77a 713d 28eb acbd
000003b0: 3399 933d 21d4 6a3d 5ed9 873d c739 5d3d
000003c0: b1f0 c7bc 87e9 63bc fb6d f33d a557 913d
000003d0: 1bb5 c6bd 075f a13d d51d d03d be33 c639
000003e0: be31 d8bd 845c 213c 9d5b 15bd 2130 943d
000003f0: dadc cebd ff9c 473d ac8d 0c3c 8d7e 983c
-0.056139495 0.056131877 0.09735876 0.11525534 0.10343991 -0.061241638 0.030325834 -0.06938808
0.0075009824 0.095292315 0.05495197 -0.11098133 -0.053090986 -0.100390956 0.054292124 -0.015472601
-0.08818454 -0.04075479 0.07862061 0.054699555 0.13885547 0.034953743 0.06227362 -0.0068386323
0.040821075 0.026527345 0.12742098 0.039873365 -0.077754445 -0.11744109 -0.1220361 -0.055890363
0.003005979 0.09922347 -0.020893311 0.038723975 0.08682608 -0.07621602 -0.09201889 0.04469221
0.06353058 -0.024026748 0.037022572 -0.08359845 0.027730055 0.025410071 -0.0057523004 -0.02891778
0.04209144 -0.04218082 0.077817164 -0.104985245 -0.072897576 -0.100514725 -0.11348915 0.071455404
-0.037624553 -0.099686824 0.01484854 -0.09793923 -0.0056828703 0.04461859 -0.03496734 0.1036076
0.06401328 -0.06726703 0.05503297 0.090294756 -0.048868325 0.021896167 0.020363934 0.036495972
0.020425469 -0.12624143 0.081355445 0.046633173 0.0076884716 0.012765768 -0.10199196 -0.04145485
-0.013923169 0.04400537 -0.04682088 0.027708547 -0.02625129 0.09929381 -0.08397105 0.027361114
0.09715575 -0.07399918 -0.024409888 0.034387793 0.035314497 -0.0011173618 0.041400764 -0.09445743
0.09823631 -0.0074365204 0.058531698 0.026355602 -0.013297541 0.04955478 0.11275099 0.11543484
-0.10488278 0.002373929 -0.09358231 0.06599329 0.13246374 -0.0345514 0.016860895 0.0826401
0.07983635 -0.082530804 0.09891395 0.003981878 -0.069119595 0.018657481 0.0585935 0.07597103
-0.073186286 -0.084235206 -0.0792799 0.06461306 -0.1029471 -0.0009735606 -0.0003656549 0.08183333
0.050498072 -0.031026674 0.055804588 0.14335446 0.05360819 -0.022133125 0.04071206 -0.1006869
-0.05699288 0.02092162 -0.02930577 0.14129777 0.07299342 0.13106179 0.00595205 -0.016041469
0.026668984 -0.039092995 -0.041857146 -0.12125385 0.08386663 0.10271174 -0.119894035 -0.04297229
-0.094264425 -0.043725435 0.09343711 0.06549527 -0.004995133 0.05369554 0.0394849 0.067133605
-0.090939656 0.040360842 -0.12292855 -0.10078369 -0.07584379 -0.03958965 -0.13611989 -0.02404311
-0.00046597657 -0.06447643 0.010157561 0.111585654 -0.011707065 -0.054101255 -0.09401993 -0.07632708
-0.056979217 -0.07513793 -0.036657613 0.07415426 0.01484978 0.085418336 0.089708194 -0.04617728
-0.053978387 -0.008495644 -0.11008113 0.050320037 -0.031739123 -0.097021595 -0.08816341 -0.075985074
0.03455905 0.08980694 0.09607831 -0.030164083 -0.0686235 -0.04926577 -0.065285236 -0.018206062
-0.093062945 0.08012752 -0.098654024 -0.062222373 0.10143327 -0.0740519 0.047723703 0.067738876
0.083469674 0.02841679 -0.06126658 0.047140714 -0.03855597 -0.033381786 -0.0022503664 -0.012111653
0.078293994 0.047637712 0.054617196 0.01458822 -0.0063733496 0.047654066 0.027610522 -0.11196526
0.02041734 -0.051210318 -0.06250514 0.047375806 0.025885949 0.018583575 -0.057076015 0.05409493
0.10838049 0.01103109 0.05895492 -0.0844329 0.07206955 0.05733121 0.066332564 0.05401018
-0.024406763 -0.013910658 0.118862115 0.07096795 -0.09702512 0.07879453 0.1016194 0.00037804054
-0.105563626 0.009848718 -0.036464322 0.07235742 -0.10100718 0.048733708 0.008578699 0.018615032

conv2.bias f4 [16]
00000000: 6414 453d feee c33d 2a50 da3d 9593 37bd
00000010: a180 a4bd ecc5 77bd b2ee 653d d519 10bd
00000020: 8bdd 223b 73f4 063c 7cad 7e3d 5c87 a03d
00000030: e400 5c3d 35bb 1ebb 3d8e 743d 9403 58bd
0.04811515 0.095670685 0.10659821 -0.04481848 -0.080323465 -0.060491487 0.05613584 -0.035180885
0.0024851288 0.008236992 0.062177166 0.07838318 0.053711787 -0.002422047 0.05970596 -0.052737787

conv3.weight f4 [32, 16, 3, 3]
00000000: fd95 cfbc 7aa5 dcbb 2b2d 2bbd bb29 a13d
00000010: b1c6 18bc 8d5a ef3c 72d2 273b a852 d73b
00000020: 3350 10bd 36a4 98bc 3b79 b6bd 5f90 57bd
00000030: 0b83 513d f5ca babd 15e6 223a ecf5 383b
00000040: 968b babd 2a30 af3b 7209 203d b9d1 703d
00000050: dd8f 4f3c 8489 863d 4718 4bb9 79f3 dc3c
00000060: a74c be3c b224 80bd 8eca 98bc d5b1 7cbd
00000070: 63d0 743d 2cf3 0f3d f377 27bd ccdb a3bc
00000080: b539 9c3c ca0a 9dbd 8bd6 3eba 59b5 1d3d
00000090: 2da3 5f3d d514 2b3d e033 c43d f20f 8e3d
000000a0: a9fd 00bd e393 cd3d 734c c6bc ec7c a13d
000000b0: 1397 e63d 99de 193d f8a6 243b 061b 45bc
000000c0: b488 34bc 1be6 373c 1b20 13bc c7a7 ef3d
000000d0: 19dc cdbb a701 833d cf8f acbd e4f1 113d
000000e0: 8a85 873d 36d4 81bd 5ab0 edbc 6f11 493c
000000f0: 8763 acbd d318 77bd 9131 a13c 88d4 3a3d
00000100: 467e 6bbd e993 08bd 448c dbbd dad5 e1bd
00000110: 2ce4 2b3d ec62 353d 6bff 67bd 0773 85bd
00000120: 88be c4ba 5e1b 233d fb42 a5bd a502 36bd
00000130: efe2 efbc 5f77 19bd 06e5 7439 8f30 7d3d
00000140: 1efa 9a3c 9e4d 00bd 01bc ce3d 045b af3d
00000150: cabe 463d 35bc 933d 83d7 613d 025c b13d
00000160: 2f3b 38bd a8bb 53bc f6ed 18bc e08f 97bc
00000170: c6cd 73bd b1b4 a5bd 5812 8dbd 15e2 8ebc
00000180: b975 803d 73e4 6c3d 2d77 ee3c 2360 533c
00000190: c87f a83c 7589 883d f716 b4bc c204 5e3d
000001a0: b778 8d3d c913 023e d678 233d d032 0a3e
000001b0: 81b9 703b 49e4 74bd 2d7e 9d3d 7a47 8c3d
000001c0: 6ff0 87bd 4231 47bd 071e 1c3d d27a 59bd
000001d0: 3ae3 5e3d 720c 4fbd a02c 1abd cbfc 12bd
000001e0: 3d54 8a3d 86b7 20bd aa2e e4bc 0799 203d
000001f0: 8fe7 8abd 8ee3 1ebc d497 9dbd 6ef8 b0bd
00000200: 27d6 eebc 55ee 3fbb 11ff 7c3d cb9d b5bd
00000210: 5841 0fbd 33b0 3b3c 4603 af3c d852 763d
00000220: af9d 4dbd 039d e63b dbd5 003d 9b42 66bd
00000230: 6f72 7f3d f1ab 7bbd d18a 893d b656 3f3d
00000240: bd79 1cbc 018b 2a3d 19cc a53d cfbe 933d
00000250: b52f 773d 3fa3 1abd 07b4 113d 8820 993d
00000260: 87dc e23c 9e78 3f3d 66a2 78bd 95d2 4b3d
00000270: 125e 58bc 8ef6 abbd c460 f9bc 0134 853d
00000280: 955c 1abd 6503 bbbc 37b1 1ebd f9a7 54bd
00000290: 75b4 043c 0ac3 333d 9b32 803b 081c 27bc
000002a0: 9a7e c6ba e83c 8ebd bb2c 4ebd 98c5 bc3b
000002b0: 5d32 86bd 6987 293d 6775 3a3c 5c77 c839
000002c0: 4511 b1bb 002c 913d 4c6f 9c3d 6afb 2a3d
000002d0: 037f a93d 2551 0c3c ea05 933d 5775 80bc
000002e0: d03c a23d b8b9 80bc 4c28 313d 948e d33d
000002f0: e0e9 bf3d 7b96 bd3d 4ed8 3c3d b091 453d
00000300: 0458 1f3d 0a7e 983d 818b 7d3d 67c7 3c3d
00000310: ffa8 0fbc 6fbf 9abc e249 13bd c75c d73c
00000320: 3fa9 6fbd a120 263c cb1e 7a3d 22af 6d3d
00000330: 5fad 98bd 90a3 383c 61dc 2d3d 8839 e6bd
00000340: 0eff 893c 1595 aebd 4e41 bcbd 9552 8dbd
00000350: 3464 84bd cb2b 93bd 1284 1abc f866 bc38
00000360: 5027 e43c f211 5a3d 40e3 70bd 0d2d aebd
00000370: edbf 91bd c400 58bd dd51 34bd 5237 f63c
00000380: e881 81bd 93ae 83bc ce6c a23d 1ac5 85bc
00000390: 8d2a 393d 2798 05bd 127a 813d 2857 a43d
000003a0: 1450 20bd 8f72 723d 60c2 1ebd f941 5c3d
000003b0: f3e4 993d b382 91bd c4c6 fa3c c0e1 5e3d
000003c0: ad25 983d daa8 843d b43f 6b3c bbc2 453d
000003d0: 70fb 6d3d 28c5 53bc 4c85 563c 888a fd3c
000003e0: c27d 5dbc fd00 123d 53c0 e83c b4fc 693c
000003f0: 4d41 b3bc 0f40 a4bd 5582 a93d 3e64 313d
-0.025340075 -0.0067335935 -0.041791122 0.078692876 -0.0093247155 0.029217983 0.0025607613 0.0065711327
-0.035232734 -0.01863299 -0.089098416 -0.052627917 0.051150363 -0.09120742 0.00062140945 0.0028222753
-0.09108655 0.005346318 0.039071508 0.058793757 0.012668577 0.06569198 -0.00019368633 0.026971566
0.02322991 -0.06256999 -0.018651273 -0.06169303 0.059769046 0.035144016 -0.040885877 -0.020002268
0.019070486 -0.076680735 -0.0007279894 0.038503025 0.054598976 0.041767914 0.09580207 0.06936635
-0.03149191 0.10037973 -0.024206376 0.07885155 0.11259284 0.0375658 0.0025123935 -0.012030369
-0.011018921 0.011224295 -0.0089798225 0.11701923 -0.006282341 0.063967995 -0.08425867 0.035631076
0.066172674 -0.06339304 -0.029014755 0.012272223 -0.08417421 -0.06032641 0.019676955 0.04561284
-0.05749347 -0.033344183 -0.10720113 -0.11027117 0.04196565 0.044283792 -0.05664007 -0.0651608
-0.0015010396 0.03982102 -0.08069416 -0.044436116 -0.029283015 -0.037467357 0.00023354971 0.061813887
0.018918093 -0.03132402 0.10094453 0.08562282 0.048521794 0.07213632 0.05513717 0.08660127
-0.044978317 -0.012923159 -0.009334078 -0.018501222 -0.059522413 -0.08091105 -0.068882644 -0.017441789
0.06272454 0.057835054 0.029109562 0.012901339 0.020568743 0.06666843 -0.021983607 0.054203756
0.0690779 0.1270286 0.03991016 0.13495946 0.0036731663 -0.059788022 0.07690082 0.068495706
-0.06637656 -0.04863096 0.038114574 -0.053095646 0.05441592 -0.05054898 -0.037640214 -0.035885613
0.067543484 -0.03923752 -0.027854282 0.03920844 -0.067824475 -0.009697808 -0.076949745 -0.08641134
-0.02915485 -0.0029286344 0.061766688 -0.08867987 -0.034974426 0.011455583 0.021363866 0.0601376
-0.050199207 0.00703776 0.03145395 -0.056215864 0.06236499 -0.061443273 0.0671593 0.046713553
-0.009550509 0.04163647 0.08095569 0.07214128 0.06034823 -0.03775334 0.035572078 0.07476908
0.027693046 0.04674589 -0.06070175 0.049761374 -0.013206022 -0.08396636 -0.03044165 0.065040596
-0.03768595 -0.022828767 -0.038743224 -0.051918004 0.008099665 0.043887176 0.0039122826 -0.010199554
-0.0015143931 -0.06945211 -0.050335627 0.0057608597 -0.06552575 0.041388903 0.01138053 0.00038235902
-0.00540367 0.070884705 0.07638416 0.041743673 0.08276179 0.008564268 0.071788624 -0.015680952
0.07921755 -0.015713558 0.04325132 0.10329929 0.0937078 0.092572175 0.04610472 0.04823464
0.038902298 0.07445915 0.06190062 0.046088602 -0.008768319 -0.01889011 -0.035959132 0.026289357
-0.058511015 0.010139615 0.061064523 0.058028348 -0.07454943 0.011269465 0.042446498 -0.11241442
0.016845252 -0.08524529 -0.091921434 -0.06900517 -0.06464425 -0.07186087 -0.009430902 8.983718e-05
0.027850777 0.05323977 -0.058810472 -0.085046865 -0.07116685 -0.052735105 -0.044023383 0.030055676
-0.06323606 -0.016074454 0.07930909 -0.016329337 0.045206595 -0.032615807 0.06322111 0.08024436
-0.03913887 0.059191283 -0.03875959 0.053773854 0.07514372 -0.07105007 0.030612357 0.05441451
0.07429061 0.064775184 0.01435845 0.048281413 0.058101118 -0.012925424 0.013093304 0.030949846
-0.0135187525 0.035645474 0.02841202 0.0142814405 -0.021881724 -0.08020031 0.08276812 0.04330849

conv3.bias f4 [32]
00000000: 5920 873d 4290 713d 1c61 0abd 313b 7dbd
00000010: 1bbd 59bd f3f7 2036 2b24 1d3c 7b75 43bd
00000020: 26ca 193c 2fc4 aabc 5aa0 483d c22f 30bd
00000030: 7ec0 6abd 14fa 32bb 184f b5bb 02d0 173d
00000040: eb9f 9c3d 1490 40bd 693a 9c3d 439b 893d
00000050: 3dd3 873d a898 9e3c e747 593b 5804 6f3b
00000060: 1695 73bb 82e5 8fbd b068 0fbd 4702 6c3d
00000070: 1fa5 af3b e9dc 8d3c 75a4 f83c b406 b03b
0.06597967 0.058975466 -0.033784017 -0.061824027 -0.05315886 2.3986183e-06 0.009591143 -0.04771946
0.009386575 -0.0208455 0.04898105 -0.043014295 -0.05731248 -0.0027309703 -0.0055331104 0.037063606
0.076476894 -0.047012404 0.07628328 0.06719067 0.066320874 0.019359902 0.003315443 0.0036471095
-0.003716772 -0.07026197 -0.035011947 0.05761936 0.00536026 0.017317252 0.030351857 0.005371893

conv4.weight f4 [64, 32, 3, 3]
00000000: 637c 78bd a5df d0bc a48e eabc 9095 d1bc
00000010: df41 4bbd 5480 d9bc 1c10 24bc d52c f1bc
00000020: 2e1b fbbc cb25 5ebb 2a68 ed3b cf14 f7bc
00000030: bd53 863d 5de9 53bc 2c22 423d 8e17 0cbd
00000040: 7ac0 6d3c 0cf4 233c 1475 dbbd 125f 72bd
00000050: 1360 d4bd e612 19bd d091 05bd a9ba 8dbd
00000060: a3f8 45bd 3612 c2bd c1e4 15bd 197d 74bd
00000070: 446e 703d fc35 d2bb ba48 653c e8a5 513d
00000080: 27c9 5cbd 62a3 e2bc 7222 1f3c ac05 80bd
00000090: 193b 873c d0b1 df39 904d 53bd 31b1 09bc
000000a0: 0238 20bd 487e da3b 9827 513d bb07 7a3d
000000b0: a069 56bd dd6b 70ba 1a37 6cbd d059 413c
000000c0: 9371 e53c 18c2 84bd 52e7 57bd 7fdf 62bd
000000d0: ee98 88bc 2a10 b639 ca32 05bd c7dd fc3b
000000e0: 5a1e 1dbc 2514 853d 669b 2bbd 10e5 aebc
000000f0: 5a8f 313c 1754 0abd 9e9d 643d 7d8b b4bd
00000100: 0b92 55bd 7d4d 5abd 4c0d eabc 2952 7ebd
00000110: 8379 ee3b e7b7 a6bd 3df6 7fbd cf9f 7bbd
00000120: 4930 72bd e31d 74bd 542b a33c 399f 6d3d
00000130: 6e2e d9bb 416f d1bc 9261 e73c 4b94 163d
00000140: 8ed7 64bd 79f6 38bd d0a1 123d d68c 263c
00000150: 7e28 8dbd 16fb 7abc 7e7a 81bd 5739 6ebd
00000160: daeb 25bd 679d 223d 42d8 4bbd e763 d73c
00000170: 2064 94bd 2343 3dbc d77a 123d 6afd 1fbd
00000180: 0e6d d5bc 1252 0dbd 973c 61bd a15e 46bc
00000190: 1ed6 8fbd 4a70 80bd 4d6d e13c 8d9e 873c
000001a0: 5545 77bd fad7 d2bc abd7 28bd 49f7 8b3c
000001b0: fb79 91bd 670a 86bd b3ca 8f3c 6b2f 0abc
000001c0: fc82 dbbc 9b9b 743c 2e2d 8e3c 6710 3dbd
000001d0: 00da 9e3c f76f 2a3c 7d68 d4bc c260 8abd
000001e0: 60be 2a3c 2509 903c 9a5f a2bd 3114 87bd
000001f0: 51ac b4bc 1c8b 94bd e368 afbc 20bf 6b3d
00000200: 8673 ab3c 9024 493d a71d d93c 6619 893d
00000210: f0bf 153d 66d3 f43c 8590 583d f055 f6bc
00000220: a451 303d 58f5 39ba c361 493d 79b3 32bd
00000230: 862e 4dbd ab4c 1b3d 8b3e 2cbd 32b6 6abb
00000240: f74c 963d dd98 ee3c 16e7 c4bc 123d 95bc
00000250: 5794 75bc 4dbc bbbc ff30 493d 8e1e d73c
00000260: 22b9 373c 2b23 773c df92 0e3d 52fa 983b
00000270: 51fc 2b3d 3131 6ebb 752a a63c ed63 6d3c
00000280: 09e4 573b 4e1d 293d 36e4 983d 28a4 883d
00000290: de9a e93b f483 7e3b 81d5 943d 20ff d3bb
000002a0: fe89 f63c 89d3 e7bb 86ee cc3b f8ac 873c
000002b0: a638 993d 37dc 503c 6ac3 473c 4015 7c3d
000002c0: 0cda 0f3d c13a 313d 4c2a d5bb c9cf 4e3c
000002d0: c213 2b3d 04a2 1e3d b53b 30bd 2289 e5bc
000002e0: b043 f13c 0ffd 14bd 5453 a0bc 7ecc b0bc
000002f0: dc59 0dbd 829c 82bc fcfd 5f3d 2f50 2cbd
00000300: 3c76 593d eaa5 1bbd 6ebe 62bb 2aab 99bb
00000310: b4e6 523d 9611 0abd eb35 3a3b 9590 ecbc
00000320: 6644 8c3c 36a6 593d 61ad b23d 5cd5 a73d
00000330: 2a5b 3e3c 4f6b 84ba 103c 343d 0ae3 333d
00000340: d642 713d c6ed 3e3d 3b3f 703b f83c 2dbd
00000350: 173c f1bc 705a 293d e715 35bd 4004 15bd
00000360: 73c5 c3bc caf9 1cbb 75c3 283d 4e1b 5e3d
00000370: c574 6f3d acb5 263d 8e25 da3c 7fe5 2dbb
00000380: c324 b8bc c69d 40bd 8412 b5bc 32f1 eb3c
00000390: 3d55 31bd 75e5 e9bc 3384 d9bc 6309 53bd
000003a0: 26b0 3bbd 3c08 28bb ec84 a1bd ab1d 1fbd
000003b0: d90b 40bd b3a4 95bc f68e 28bd 750f 88bd
000003c0: accb 4ebd cd35 3abd 5d3b 1ebc e76f 093d
000003d0: 1dfc ed3a c06f 873d 7d7f da3c c20c 593d
000003e0: 2fcd 3bbb c245 e2bc aa63 12bd 72e3 f7b7
000003f0: 10bc 643c 3a87 a73c 2e0e 013a 2b9c b13b
-0.0606655 -0.025497267 -0.02863247 -0.025584012 -0.049623366 -0.02655045 -0.010013606 -0.029440323
-0.030652609 -0.0033897038 0.0072450833 -0.03016129 0.065589406 -0.012934056 0.04739587 -0.03420215
0.014511222 0.010006916 -0.1071569 -0.059172697 -0.10369887 -0.03737154 -0.03260976 -0.06920368
-0.04833282 -0.0947613 -0.03659511 -0.059689615 0.058698907 -0.006415127 0.01399439 0.05118361
-0.05390277 -0.027665798 0.009712802 -0.06251082 0.016507672 0.00042666355 -0.05158764 -0.008404062
-0.039115913 0.006667886 0.05106315 0.06104253 -0.052346826 -0.00091713463 -0.057669736 0.011801198
0.028008258 -0.06482333 -0.05271084 -0.055388924 -0.016674485 0.00034725788 -0.03251914 0.0077168676
-0.009589756 0.06497983 -0.041896246 -0.02134946 0.0108374 -0.0337716 0.055814378 -0.08815668
-0.05214123 -0.053296555 -0.028570794 -0.062090073 0.007277669 -0.08140545 -0.06249069 -0.061431702
-0.05912808 -0.059598815 0.019918121 0.058013175 -0.0066278493 -0.025565745 0.028244767 0.036762517
-0.05586963 -0.04515693 0.035798848 0.010165414 -0.06892489 -0.015318653 -0.06322192 -0.058160152
-0.04050813 0.03970089 -0.049766786 0.026292754 -0.0724566 -0.011551651 0.03576168 -0.039060034
-0.026052978 -0.034502096 -0.054989424 -0.012107522 -0.070232615 -0.062714174 0.027517939 0.016555095
-0.060368855 -0.025737751 -0.041221302 0.017085688 -0.07103344 -0.06544953 0.01755271 -0.008434157
-0.026795857 0.014929677 0.017355528 -0.04615822 0.01939106 0.010402671 -0.02592873 -0.06756736
0.0104213655 0.017582485 -0.07928391 -0.06595648 -0.022054823 -0.072530955 -0.021412319 0.057555318
0.02092911 0.049107134 0.026503397 0.066942975 0.03656 0.029885959 0.0528722 -0.030070275
0.04304661 -0.0007093749 0.0491655 -0.04362819 -0.050093196 0.037914913 -0.042051833 -0.0035814163
0.07338899 0.029125625 -0.024035972 -0.018217597 -0.01498898 -0.022916937 0.049118992 0.026259687
0.011213573 0.015084068 0.034808036 0.0046685124 0.041988675 -0.0036345238 0.020283917 0.014489156
0.0032942316 0.041287713 0.07465403 0.06671935 0.0071290573 0.0038835974 0.07267285 -0.0064696223
0.030095097 -0.0070747775 0.00625402 0.01656197 0.07481508 0.012747816 0.012192586 0.061543703
0.035120055 0.043268923 -0.0065052863 0.012622782 0.04176689 0.03872873 -0.04302569 -0.028019492
0.029451221 -0.036374148 -0.019570984 -0.021581884 -0.034509525 -0.01594377 0.054685578 -0.042068657
0.053091273 -0.038000025 -0.0034598368 -0.004689594 0.051489547 -0.033708178 0.0028413485 -0.028877536
0.017122459 0.053137027 0.08724476 0.08194992 0.011618415 -0.0010102781 0.044002593 0.043917693
0.05890163 0.046613477 0.0036658782 -0.042294472 -0.029447598 0.041346014 -0.04421034 -0.036381006
-0.023897862 -0.0023952597 0.041202027 0.05422526 0.05846097 0.0407006 0.026629236 -0.0026534495
-0.022478467 -0.047025464 -0.022103556 0.028801534 -0.04329418 -0.028551796 -0.026552295 -0.051522624
-0.045822285 -0.0025639674 -0.07886681 -0.038846653 -0.0468863 -0.018267011 -0.041151963 -0.06643573
-0.050487205 -0.045461465 -0.009657708 0.033553984 0.0018156801 0.066131115 0.02667212 0.052990682
-0.0028656234 -0.027621154 -0.03573958 -2.9550607e-05 0.013960853 0.020450223 0.00049230724 0.005420228

conv4.bias f4 [64]
00000000: ac8d cc3c c1a0 223d 2570 2cbd 0ac8 83bd
00000010: 9f14 2cbc 90e2 34bd 1851 bc38 1a92 443d
00000020: caf9 1cbd 13e1 3fbd e270 253d 9f66 163d
00000030: ff0b 75bc 3740 3f3c 4b50 183d 0751 98bb
00000040: 19e5 2c3d baf8 3e3d d72f 4b3d b4b0 3c3a
00000050: d579 a1bc e905 90bc 61c9 44bd 4772 1abd
00000060: 3660 803d 5900 4c3d d9f8 9dbc 3c5f c73b
00000070: 1065 073d 53c1 813d cf36 b9bc d3e5 1c3d
00000080: db83 edbc 1941 c73c 75fa e63c cc13 4dbd
00000090: 6058 203d 9026 003d b289 013b c03f 1ebd
000000a0: d6c7 403c db56 c7bc 586e 2cbc 1f6e 523c
000000b0: 8435 283b cbea e0bb d954 813c fa36 c1bc
000000c0: 9573 33bc 9737 3cbd 7251 e33c c163 feba
000000d0: d617 073c e906 cf3c 84cb 47bd afd8 46bd
000000e0: 67c9 013d 1c5b 903c fcef 9d3c 50ca ffbc
000000f0: 3e97 c33c 4608 11bd e8ff 453d a7ef 1a3d
0.024969898 0.039704088 -0.042099137 -0.06434639 -0.010502963 -0.04416138 8.9796435e-05 0.047990896
-0.038324155 -0.046845507 0.040390857 0.03671896 -0.014956473 0.011673025 0.03718595 -0.004648331
0.042210672 0.046623923 0.04960617 0.00071979617 -0.019711414 -0.017580943 -0.048043612 -0.03770664
0.06268351 0.04980502 -0.019283699 0.006084351 0.033055365 0.06335702 -0.022609143 0.038305115
-0.028993538 0.024323033 0.0281956 -0.050067708 0.03914678 0.031286776 0.001976591 -0.038635015
0.011766395 -0.024333408 -0.010524355 0.012843638 0.0025666663 -0.006863927 0.015787529 -0.023585785
-0.01095285 -0.045951452 0.027748797 -0.0019408391 0.008245429 0.02527185 -0.048778072 -0.04854649
0.031686213 0.01762157 0.019279473 -0.0312244 0.023875829 -0.03540828 0.048339754 0.037826207

conv5.weight f4 [128, 64, 3, 3]
00000000: f4bc 4f3d 894b 01bc f219 113d fba6 3b3c
00000010: 2cba 413c 96dd 2a3d 439b aa3c 304a 383d
00000020: a8d1 5c3d 977c 053d 16af a3bc c8a9 f53c
00000030: 7292 18ba c135 933c f051 25bd dcb4 a3bc
00000040: 59b7 dc3c b231 6abc 7771 7cbb 096e 893c
00000050: 2683 1dbd 6310 ca3a 1944 31bd 9c73 c1ba
00000060: 67db 083c 6c50 853c 4778 b13c 0df8 033c
00000070: 78de 833c db4d eebc 858a 2bbd 9d1a 083d
00000080: b9bc 73b8 419e 053c 1bac a6bc 7056 78bc
00000090: cf81 c6bc 901a 0abd 8a16 28bd f7f1 193c
000000a0: 5d1c 3d3c ce13 5b3c 4685 0e3d 4de9 b93c
000000b0: 23bc 13bd 1114 26bc 39a9 5abc 466e 02bd
000000c0: ba20 60bc 22cc 2fbd e412 22bd 0fcb 1abd
000000d0: 809b 5a3c bc4f 6b3c bcd0 36bd eaf3 f2bc
000000e0: e93c 36bd 20d6 e0bc ab81 c63a 4a5e d53c
000000f0: 3191 ae3c 39d2 04bc 3f9c 813a 1951 a33c
00000100: f5d6 1c3d 05e8 233d 6dc7 ac3a 1bca 283a
00000110: 1274 163c 9e6f 0ebd 8a7f 06bb 4770 cc3b
00000120: 0fa2 c33c f29e f33c 0e4f 793c ca07 0abd
00000130: da37 4abd a364 d5bb 0921 953c c2c7 b73c
00000140: 2e36 cebc 668f ddbc 893f fabb 057d 88bb
00000150: 43b7 cdbb cfc2 7b3c 25ab 65bc d4ad 443b
00000160: 452b 11bd 5a8c c0bc 5237 fbbb 6237 163d
00000170: db6c ed3c e042 f03c 28ba b23c 7e25 babc
00000180: 54c1 15bc b78b 96bc 74af d5bb dad3 21bb
00000190: 6935 a53c f368 2d3b aca2 a0bc 50fe 09bd
000001a0: e7c6 14bd 3d01 943c 60dc 59bc 3d90 25bd
000001b0: 31aa 823b 0e05 c53c 95bc 08bd 1248 f1bb
000001c0: d4e0 06bc a42b 303c 17e0 d03c 430d 4dbc
000001d0: 342a daba 25bb 333c cce6 103c 59a6 9b3a
000001e0: b8e6 cb3c a773 093d a399 e6bb 1732 b6bc
000001f0: fb0c 13bc ecb2 083d fab0 903c 9f2b 25bd
00000200: dd5f 58ba 5935 04bd 946e c9bc 3e60 88bc
00000210: 3650 82bb ba07 de3c 026d 71bb cbf7 49bc
00000220: e22e 543d 2424 0f3d f0b1 61bc b6cf acba
00000230: 5e0d 5e3d e8a2 063d 6a48 273d f11d c03c
00000240: d328 ea3b 74d2 d13c 90a2 cabc b387 183d
00000250: be2b 13bc 35c0 21bd 1a02 4d3b 6bbd 203d
00000260: 6910 f73c 594f 82bb 7e7f acba a7c4 e13c
00000270: f611 3cbc 4f5d f93c 84bf 563c bab6 3d3d
00000280: 67e5 1b3d b6b1 873c a10f d73c 65d3 adbc
00000290: 08ba b7bc 3569 52bc 99f8 163b 9922 4e39
000002a0: c30d 2ebc 3bbe 0abd 4730 e6bb ed91 3abd
000002b0: 383b 06bd db48 823a e5a2 ccbc 9e43 e6ba
000002c0: 59e6 8f3a 183f 5abc 72f5 a13c 9ddd 8e3c
000002d0: f2ce 03bd e4e9 4abd 5ce0 4cbd b7eb 5bbc
000002e0: a934 31bc c354 5b3c 3793 483c 9b40 443c
000002f0: ace5 91bb c18a a23b 3d86 87bc d0b1 073d
00000300: 18de 0a3d 20f1 673b e626 25bd 544e f73b
00000310: fa0f b4bb 30cd 5e3c f24e 17bd 83aa 8f3c
00000320: 1c28 783c 63f3 2abd 71fd fbbc 85e6 00bd
00000330: 8a12 0dbc 26b6 ecbb 2bcc 92bb 9dcb ecbb
00000340: 3d38 59bd 7879 8cbc 395a 43bc 1ea2 fcbc
00000350: 4a8c e13b 958b 1fbd 50ed 7bbc f0b8 403c
00000360: 8f96 313d fe79 d13a db72 c23c 961d ed3c
00000370: 13d7 1b3d 9291 41bc 4a70 a03c e590 063d
00000380: 78d5 373d 13da 173c b0d2 2fbd a393 ea3c
00000390: 8205 c23c 0795 d5bb bc0a be3c ac58 2a3c
000003a0: 0e3b c53a ca74 153d 733a f7bc 2790 05bd
000003b0: fe14 fe3b 91c2 d23c ca28 d23c 4ec0 943c
000003c0: 2ab5 973a c858 1cbd a63f 9abc 0c90 e93b
000003d0: eaf6 9dbc 077e 0cbc 684b e93c 433b 053d
000003e0: 0e3a 493d 076e 0e3c fb65 6ebb 566b bcbc
000003f0: f361 2cbc 603f 86bc d5e8 3fbc ae05 dabc
0.05071731 -0.007891544 0.035425134 0.011453385 0.011824172 0.041715227 0.020825988 0.044992626
0.05391088 0.03258952 -0.019980948 0.029988185 -0.0005820162 0.017969968 -0.040361345 -0.019983701
0.026942896 -0.014294075 -0.0038519779 0.016776102 -0.03845515 0.001541626 -0.043277834 -0.0014759186
0.008353091 0.0162737 0.021663798 0.008054745 0.016097292 -0.029089859 -0.04188015 0.033228505
-5.8111476e-05 0.008155406 -0.020345738 -0.015157327 -0.02423182 -0.03371674 -0.04103712 0.009396068
0.011542407 0.013371421 0.03479507 0.022694254 -0.036068093 -0.01013662 -0.01334601 -0.031843446
-0.013679678 -0.042919286 -0.039568797 -0.037791308 0.013342738 0.014362272 -0.04463266 -0.029657323
-0.044491682 -0.027445853 0.0015144845 0.026045937 0.021309467 -0.008106762 0.0009888484 0.019936131
0.038290936 0.040016193 0.0013181992 0.00064388075 0.009182947 -0.034774415 -0.0020522797 0.0062389704
0.023880986 0.029738877 0.015216602 -0.033698834 -0.04936967 -0.006512241 0.018204229 0.02243412
-0.02517232 -0.027045917 -0.0076369685 -0.004165294 -0.00627795 0.01536627 -0.014017855 0.0030010836
-0.035441656 -0.023504425 -0.007666507 0.03667391 0.02898257 0.029328763 0.021817282 -0.022722956
-0.009140331 -0.018377168 -0.00652116 -0.0024692924 0.02016707 0.002646026 -0.019608818 -0.033689797
-0.0363225 0.018066997 -0.01329717 -0.04042076 0.0039875736 0.024050262 -0.03338297 -0.007363328
-0.008232314 0.010752592 0.02549748 -0.012515369 -0.0016644658 0.010969912 0.008844089 0.0011875137
0.024890289 0.03355756 -0.007037358 -0.022240682 -0.008975263 0.03337376 0.017662514 -0.040324803
-0.0008254031 -0.03227744 -0.02458886 -0.016647454 -0.003976847 0.027103294 -0.0036838655 -0.012327145
0.051802523 0.034946576 -0.013775334 -0.0013184461 0.054211967 0.032870203 0.040840544 0.023451777
0.00714598 0.025613047 -0.024735719 0.037238788 -0.008982597 -0.039489944 0.003128177 0.039243143
0.030159192 -0.003976744 -0.0013160554 0.027559591 -0.011478892 0.03044 0.013107184 0.04631684
0.038060572 0.016564231 0.02625257 -0.021218965 -0.022427574 -0.012842466 0.002303636 0.0001965858
-0.010623398 -0.033872824 -0.007024798 -0.045549322 -0.03277132 0.0009939926 -0.024980018 -0.0017567759
0.0010978683 -0.013320707 0.019770358 0.017439658 -0.03217978 -0.04953946 -0.050018653 -0.013422898
-0.010815778 0.013386908 0.01224213 0.011978294 -0.004452428 0.0049603884 -0.016543502 0.03312856
0.03390321 0.0035391524 -0.0403203 0.0075471792 -0.0054950686 0.013598725 -0.036940522 0.017537361
0.015146282 -0.041736018 -0.030760499 -0.03146984 -0.008610377 -0.007223862 -0.004479905 -0.007226421
-0.05303215 -0.017147765 -0.011923366 -0.030839022 0.006883179 -0.038951475 -0.015376404 0.011762843
0.043356474 0.0015981791 0.023736408 0.028944772 0.038046908 -0.011814492 0.019584794 0.032853026
0.044881314 0.009268302 -0.042925537 0.028634852 0.023684267 -0.0065180096 0.023198478 0.010397118
0.0015047507 0.03648833 -0.030179238 -0.032608178 0.0077539673 0.025727542 0.025654215 0.018158104
0.0011574377 -0.038170606 -0.018829178 0.0071277674 -0.019282777 -0.008574969 0.02847834 0.03252722
0.04912763 0.008693225 -0.0036376703 -0.0230004 -0.0105214 -0.016387641 -0.011713226 -0.026614036

conv5.bias f4 [128]
00000000: 849b f43b 3360 2f3d 826b d7bc 634c ad3c
00000010: 381c 10bc e566 ebb8 dc72 5d3c 1366 e3bc
00000020: 1bd2 0bbd 6310 f1bc 80a2 02bd 3402 1bbb
00000030: 895a 263c 52ea ccbc 4fda dbbc 717e d8bc
00000040: a263 08bd 6107 d83a 9574 213b bc9a b1bc
00000050: 8f92 07bd 00a1 083d d60f 1d3d 4835 e33a
00000060: 24ce 8ebb ea44 053c 721f d93c 6a20 04bc
00000070: 1f0c d23c 9b7b 103d 4345 01bb a299 7abb
00000080: 09f1 88bb d366 efbc cf65 933c 7002 fd3c
00000090: be23 cc3b d0a4 18bc bf18 d73c 9e79 e6bb
000000a0: 0f33 893c ee1e e93c 8e06 083d 1630 a43c
000000b0: 126e 2d3d 815f b53c 2309 c8bc 266a f9bc
000000c0: 508d 96bc 34ff b0bb 58a5 cebc fe7b 053d
000000d0: 56c8 e23c 091e 44bb 5c09 ee3c 5c5c 373c
000000e0: 19b7 cd3c 5156 e6bc e824 d8bc a9f0 1a3d
000000f0: ad3b ac3c a517 a83b 986d 023c ad97 1ebd
00000100: 4aaf 473c 1e97 213c 846f f7bc abc6 1ab9
00000110: b32d 073d d988 07bd 8f9a bc3c f87d 5a3c
00000120: 3d71 46bd ce0c f7bb d474 1b3d 2045 08bd
00000130: 0a28 9a3c 4e56 e93b 753d c7bc e61b 323d
00000140: da0d 92bc 8182 87bb 5587 cebc 7396 19bc
00000150: b9db 4a3d e2f0 38bc 828c c5bc df54 0fbc
00000160: 3f4a b53c f93d 763b 56ec d9bc 33bf febc
00000170: a48b 7b3c 1909 31bc 6e19 d23c e937 60bd
00000180: 2d52 f1b9 19ae 04bc 7628 b3bc f751 03bd
00000190: 4d14 24ba aad3 46bb f065 e43c 9e1f ca3c
000001a0: 58da 0e3d 311a d53b 77b7 df3c a1e5 0dbd
000001b0: 9b04 bd3c ad4b 8abc 087e e03c 69b0 203d
000001c0: 9c2a 823c 8e21 46bc 695a cbba a579 16bd
000001d0: 0d38 a4bc aa65 92bb 1481 653b 59e3 12bd
000001e0: 3d16 4dbb 3404 4a3c 5bcd 9f3c b516 213d
000001f0: 0951 183d 0a85 eb3c d2f7 fcbb 08bd 823c
0.007464828 0.042816352 -0.02629638 0.021154588 -0.00879579 -0.00011224839 0.013516154 -0.027758634
-0.03413592 -0.02942676 -0.031893253 -0.0023652436 0.010153421 -0.025014076 -0.026837496 -0.02642748
-0.033298142 0.0016481691 0.0024636139 -0.021680228 -0.033098754 0.033356667 0.03834518 0.0017334605
-0.00435807 0.008134106 0.026504252 -0.008064369 0.025640545 0.03527413 -0.001972512 -0.0038238545
-0.0041791243 -0.029223835 0.017992882 0.030884951 0.0062298467 -0.009316638 0.026256917 -0.007033541
0.01674798 0.028457131 0.033209376 0.02004246 0.0423413 0.022140266 -0.02441842 -0.030446123
-0.01837793 -0.0054015163 -0.025225326 0.03258895 0.027683418 -0.002992513 0.029057197 0.011191454
0.025111722 -0.02811733 -0.026384786 0.037827168 0.02102455 0.005129772 0.0079606995 -0.038718868
0.012187788 0.009862689 -0.030204542 -0.00014760594 0.033002567 -0.033089492 0.023022918 0.013335697
-0.048447836 -0.0075393682 0.037953213 -0.033269048 0.01881792 0.007120884 -0.024321297 0.043483637
-0.01782887 -0.0041354303 -0.025211016 -0.009374249 0.04952595 -0.0112879 -0.02411485 -0.008748262
0.02213013 0.003757356 -0.026601952 -0.03109703 0.015353117 -0.010805392 0.025646891 -0.05474082
-0.00046028328 -0.008098149 -0.02186988 -0.03206059 -0.00062591286 -0.0030338564 0.027880639 0.02467328
0.034876198 0.0065033664 0.027309163 -0.03464282 0.023073485 -0.016881788 0.027403846 0.039230738
0.015889458 -0.012092961 -0.0015514615 -0.036737103 -0.020046258 -0.0044676857 0.0035019564 -0.035861347
-0.0031293773 0.012330104 0.0195071 0.039328296 0.037186656 0.028749961 -0.007719972 0.015959278

fc1.weight f4 [100, 128]
00000000: 2d4e aebb 4c89 58bd 6953 623d 2ac9 a73d
00000010: 06bb 753d f868 09bc 9e09 9f3d f638 d3bd
00000020: 7540 1f3c f458 c3bc b585 e23c ba53 7bbc
00000030: d92a 1ebc 792b a83c db64 c03d 2879 03bd
00000040: e6a9 da3d 62f8 b439 3595 e73c d0e6 09bd
00000050: 78b4 5fbd b221 a1bd 1770 783d 7958 24bd
00000060: cc33 14bd 90b6 a8bc 754d e1bc bd13 cebc
00000070: 71a8 8c3c a680 a73b 6aa5 053b e4fd a63d
00000080: 07ba e2bd 5ad8 953d c015 b73c 3907 173d
00000090: 2e70 aebd ca5b a6bc c2ae 02bd cc37 11bd
000000a0: f2e2 eabc 7f3f 8abb 90cf ec3d 27dd 5abd
000000b0: fe66 23bd 0ff4 89bd 4b86 e1bd 8b27 f8b9
000000c0: 99fe c4bd a081 06bd 7206 88bd de85 49bd
000000d0: 5427 c5bd 6782 383d 02ec 20bc 7851 2b3d
000000e0: af7b cfbd 6441 873d 7f21 25bd ad69 c1bd
000000f0: bbb8 123d c60c 5c3d eb1e 9fbc 1f68 ca3d
00000100: 9c00 bfbd d7d1 58bc 2de8 54bd a05a e4bc
00000110: 7a98 673d 2b32 99bc 3b0c 723d a73c 3e3d
00000120: 04c7 92bd de18 523d ffa8 13bd fe0d 193c
00000130: d2af ee3d 5628 45b9 2992 753c 6dd9 083c
00000140: 6d9e 60bd 88e4 143d abaa 83bc 8986 853c
00000150: 9326 58bd 46a3 d6bc 8dd0 443d f576 c2bd
00000160: a56e 6d3d 3aa8 523d 9520 e6bd e35f dcbb
00000170: a4ad d2bd f357 04bd 5235 b93c 1fc4 fbbd
00000180: 9d36 71bd ddb1 b8bd aec9 74bd d1c0 ec3d
00000190: f423 d13d c2fa 813d d5c3 df3c fecf 4bbd
000001a0: 8e28 d33d 9aac 23bd cac2 fabd 5936 38bc
000001b0: 9448 23bd a7a6 9e3c 330a 013d f788 df3a
000001c0: c37e acbd bbb0 b73d fa20 cd3d 9f07 c73c
000001d0: f5dd 3abd 7a9a 103d c191 a63d 8380 923d
000001e0: 8762 81bd 5098 3fbc 094e 48bd f342 85bc
000001f0: dc66 3abc 0e7b 993d 51c1 503d 1141 c33d
00000200: 72c8 d83c abe3 4c3c 0e4d 753d e134 173d
00000210: eecf a93d ed32 343d 361a 9cbd 50f9 95bc
00000220: 3fbc 0a3b 8f3e b1bc 305b b53d a824 a83c
00000230: efa2 7e3d dc06 e6bc f95b ae3d 85d8 a3bd
00000240: 149b 903d 1965 ce3c 0e89 543d d5e2 d1bc
00000250: 713d f7bc a0b3 323c 6710 86bd 94a5 ec3c
00000260: bf2b b93d 0211 9f3c 144a 2cbd c7ed 33bd
00000270: a7e6 3c3c 83b8 14bc cf27 8e3b cad9 89bd
00000280: c4cc 5e3d 2baa b13d 8ad0 04bd da6b 893d
00000290: 7fd4 8dbd 5d17 5cbd a83a 98bd 19b3 afbc
000002a0: 7704 a5bc 856b f7bc 9dd1 20bd 1512 5c3b
000002b0: 059d 243d 8c56 99bd 6bd1 73bd a53f 30bd
000002c0: 44e6 9cbd 486c 6139 e238 a03d 2c42 bbbd
000002d0: 99bf 94bd 1211 79bd 2d08 eb3c d86a b1bd
000002e0: 6603 14bb d250 5fbd 818c 92bd 63ea 553d
000002f0: 86e0 c63a 5793 96bd 1829 3cbd f7db 593d
00000300: 38aa 9e3d cac5 5d3d 4373 5e3d 67b8 48bd
00000310: 49e2 6d3d df45 343d f1cf edbc 131d 943d
00000320: 95d9 8c3d c098 383d a231 363d 395b 70bd
00000330: adb7 5c3d 3c81 02bc f9ec 1fbc ff13 05bc
00000340: b320 56bd e956 0ebd 8f3c 2bbd eb96 763d
00000350: 1104 87bc b6b4 19bd e6a8 ca3c a892 ef3b
00000360: 44bb 81bd 08cc b7bd 06a1 a4bd 6465 d33b
00000370: ef7c 0c3d 7ed0 4a3d 49ae 173d d652 86bd
00000380: a793 1c3d acd7 3ebd ba17 05bd 4252 9bbd
00000390: 94ca a5bd 8b41 30bd ccdf 6e3c 64e3 cdbb
000003a0: c5db 77bc 7762 65bd 2fdb 22bd b092 2b3d
000003b0: 8dc1 79bd cbd8 86bd ebb0 a0bd 4c12 a33d
000003c0: bff1 96bc 2bdf a5bc ee9a d4bc f7f0 b7bc
000003d0: 1f28 213a da08 443d 365d 6d3d 9c6b 123d
000003e0: 06a2 013c 85c3 73bd 1075 d93b b2dd 6d3d
000003f0: 87fa 2ebd ed9a 3dbd 5588 863d d98c a43d
-0.005319378 -0.05286531 0.055255327 0.08192666 0.059992813 -0.008386843 0.07765506 -0.10313599
0.009719958 -0.023846127 0.027651647 -0.015339786 -0.00965377 0.020528542 0.09394237 -0.032097965
0.10676937 0.00034517335 0.02826939 -0.033667386 -0.054615468 -0.07867755 0.060653772 -0.040123437
-0.03618221 -0.020594865 -0.027502755 -0.025155896 0.017170163 0.0051117716 0.0020392784 0.081538945
-0.11070638 0.073166564 0.022349238 0.036872122 -0.0851749 -0.02030744 -0.031904943 -0.035453603
-0.02867267 -0.004218995 0.11563027 -0.053433564 -0.039893143 -0.067360036 -0.110119425 -0.00047331708
-0.09618873 -0.032838464 -0.06641854 -0.04919993 -0.09626642 0.045046236 -0.009821894 0.04182574
-0.10131013 0.06604269 -0.040315147 -0.09443984 0.035820704 0.05372312 -0.019423923 0.09883141
-0.09326288 -0.0132336235 -0.051979233 -0.027875245 0.056541897 -0.01870068 0.059093695 0.04644456
-0.071668655 0.051293246 -0.03604984 0.009341715 0.11654629 -0.0001880241 0.014988461 0.00835262
-0.054838587 0.036350757 -0.016072592 0.016299503 -0.052771162 -0.026200902 0.048050452 -0.094953455
0.057966847 0.051429965 -0.11236683 -0.006725298 -0.102870256 -0.032310437 0.022608433 -0.122932665
-0.058889974 -0.090183 -0.05976265 0.11560214 0.10211936 0.063466564 0.02731506 -0.049758904
0.103104696 -0.039959528 -0.12244184 -0.011243426 -0.039864138 0.019366575 0.031503867 0.0017054369
-0.084226154 0.089692555 0.100160554 0.024295626 -0.04562183 0.03530357 0.08133269 0.07153418
-0.06317621 -0.011694029 -0.048902545 -0.016267275 -0.011377063 0.07494174 0.05096561 0.09533895
0.026462767 0.012505452 0.05988794 0.036915664 0.082916126 0.04399388 -0.07622187 -0.018307358
0.0021169332 -0.021636276 0.08855283 0.020525292 0.062167104 -0.028079443 0.08513636 -0.08000282
0.07060829 0.025194691 0.051888518 -0.025620857 -0.030180665 0.010907084 -0.06546097 0.028887548
0.09041547 0.01941729 -0.042062834 -0.043927934 0.011529601 -0.009077194 0.0043382416 -0.06730993
0.0543945 0.08675035 -0.03242544 0.06710024 -0.06925296 -0.05373322 -0.07433063 -0.021447705
-0.02014373 -0.030202636 -0.039262403 0.0033580114 0.040188808 -0.07487211 -0.05952589 -0.043029446
-0.07661107 0.0002149801 0.078233495 -0.09143481 -0.07263107 -0.060807295 0.028690422 -0.08662957
-0.0022585033 -0.054520436 -0.07155705 0.05222548 0.0015173114 -0.073523216 -0.045937628 0.05318829
0.077473104 0.054143704 0.05430914 -0.049003985 0.05807713 0.044011947 -0.029029818 0.07232108
0.06877438 0.04506755 0.044480927 -0.058680747 0.053886104 -0.007965382 -0.0097610885 -0.008122443
-0.05227728 -0.034750853 -0.0418058 0.06020252 -0.016481431 -0.037525855 0.02473874 0.007311184
-0.06334546 -0.08974463 -0.08038525 0.0064512957 0.034298833 0.04951524 0.037031446 -0.065587685
0.03822675 -0.0465924 -0.03249333 -0.07584049 -0.08095279 -0.043031257 0.0145797245 -0.0062832106
-0.015128081 -0.056002107 -0.03975981 0.04188794 -0.0609756 -0.06584319 -0.078462444 0.07962474
-0.01842582 -0.020248016 -0.025952782 -0.022453768 0.0006147641 0.047860004 0.05795022 0.035747156
0.007912165 -0.059512634 0.0066362694 0.058072753 -0.04271939 -0.046290327 0.06568972 0.08034677

fc1.bias f4 [100]
00000000: 9fc4 45bd 5742 26bc 6fe0 9ebd 78b8 883d
00000010: 3364 9fbd 153d f83b b058 933d e565 3a3d
00000020: ef73 2c3d 3ccf 703d fd37 7dbd db6c 763d
00000030: f736 f6bc 7f54 a83c 9777 48bd c0d5 a73d
00000040: 664e 813c c82c 883c 6e79 8a3c 9e33 883d
00000050: 1cbe 31bd f703 a03d aaec 0a3d 6ccf a23d
00000060: b8ba 41bd b331 8a3d 6630 7ebd 1dad 603d
00000070: c2b7 113b a996 813d c55d 9abd 3662 7dbd
00000080: 482a 9c3c b5d6 69bd 8c92 363d be5f a3bd
00000090: f317 023c 27d3 03bd 6208 da3c 784d a53d
000000a0: a2d1 8ebd 001d 84bd 3b6b 51bd 35c4 2b3d
000000b0: cc15 8b3d 6c88 e53c 197d 88bd efe3 95bd
000000c0: 9ffb 8bbc a525 3f3d b7fd 1cbc 7877 d1bb
000000d0: 2eda 063d 7a98 43bd 0a8d 933d bb6c 3bbd
000000e0: cc69 cbbd 4624 04bd 4e4b a83d a32e d2bc
000000f0: 27b9 623d f4c5 3cbd d03e cfbc a051 963d
00000100: 63df ed3b c15b 1abd 0188 6ebd 934f 99bd
00000110: 4b70 e53c 6dae 2e3c 8e24 f43c eab6 3f3d
00000120: 1843 703c c7ce 3ebd 58e0 0e3d 8c44 043c
00000130: 5f7e 5ebd a9b9 17bc 25a0 9f3d 4c3a 073d
00000140: d085 803c 5d21 763d aaa2 8e3c fe5e 1cbd
00000150: aecf d0bc 762f 2c3d 020d 3dbd 55c2 763d
00000160: fe36 94bd 84d7 843d 1834 b83d b7f5 b2bd
00000170: 8d12 813d f502 4bbc 036a 28bd 92a4 81bd
00000180: 7007 b43c 5517 6bbd 4e46 af3b f241 083d
-0.048283216 -0.010147653 -0.07757651 0.066758096 -0.07782783 0.007575641 0.0719465 0.04550733
0.04210275 0.058791384 -0.061820973 0.060162406 -0.030055506 0.020548103 -0.048942175 0.081950665
0.015784454 0.016622916 0.016903605 0.0665047 -0.043394193 0.07813256 0.033917107 0.07949719
-0.04729721 0.067477606 -0.062057875 0.054852594 0.0022234772 0.06327564 -0.07537416 -0.06186124
0.01906313 -0.057089526 0.04457335 -0.07977246 0.00794028 -0.032183792 0.026615325 0.080714166
-0.06973578 -0.06450844 -0.051127654 0.041935164 0.06791267 0.028019153 -0.066644855 -0.073188655
-0.017087756 0.04666676 -0.009581975 -0.0063924156 0.032922916 -0.047752835 0.072046354 -0.04575799
-0.099322885 -0.032261156 0.08217488 -0.025657004 0.055352356 -0.04608722 -0.025298506 0.073397875
0.007259296 -0.03768516 -0.058235172 -0.07485881 0.028007647 0.010661704 0.029802587 0.0468053
0.014664434 -0.046583917 0.03488192 0.0080729835 -0.054319736 -0.009260573 0.07794217 0.03301458
0.015688807 0.06009041 0.017411549 -0.03817653 -0.025489654 0.04203745 -0.046154983 0.060243923
-0.072370514 0.06486419 0.08994311 -0.08738273 0.063023664 -0.012390842 -0.041116726 -0.063302174
0.021976203 -0.057395298 0.005348957 0.033266015
